Assets/Materials/DeciderAgent.onnx (onnx, 310502 bytes, 9 tensors)

95 f4 [1, 256, 128]
00000000: 4894 c8bc fc51 f13d a0a3 183e 3b7e 30be
00000010: cb8a f1bd aa7e 8ebd 8e09 013e 330d bebd
00000020: 84f7 733d eb23 f63d 2ec3 2f3e cfd6 283e
00000030: b64e e7bb 539f 9b3d e6c3 d93d c5ee c5bd
00000040: 862a 09bd 6213 aabd 2944 58bc 0197 00bc
00000050: c363 20be 5e3a 51bc b02b e4bd 8d2f d3bd
00000060: e562 763c 0350 083e 1a68 393d 1962 01bd
00000070: a9f5 223e 0842 243e f76b 4a3b 58f3 1a3d
00000080: f992 8abd 8957 2c3e 67a7 e1bd 979e d53d
00000090: d246 9e3d 90aa fabd 0095 74bd 6bd9 6b3d
000000a0: 3fae a6bc 6206 94bb 13ba f9bd b21b 2c3e
000000b0: 3390 1dba 6b32 2bbe a551 e23d f10b 82bd
000000c0: be9e e83d ab91 da3c e312 19bc e835 b73d
000000d0: 8858 b0bd 1ce2 003e afe0 1abe c6d0 013e
000000e0: dc0c 1b3e c46f 6cbc f100 02bd 33b7 0c3b
000000f0: 3495 163e 5146 04bd 407c 213e 6217 b63d
00000100: 556b 9f3c 0f2e d33d e85f f33d 1ebb 0bba
00000110: b5b5 f0bd 32c2 8c3d 531a 5ebc 577e 283e
00000120: 6092 ef3b cf8e 2a3e 2611 7c3a f12c 193e
00000130: ae89 bf3d edf8 4e3c a1ff bdbd 0d7e c23d
00000140: dc96 093e fa82 833d 18c0 063d 7023 b23c
00000150: cb29 183e be61 853c 57cd 94bd b6f6 11be
00000160: c70e f93d 926e 15be 3374 26bb 6786 043e
00000170: 2042 50bc 854d 03be b343 ef3d b9bb 28be
00000180: bdd7 f6bd 8d43 e5bd 0eac 023e e23a 0a3e
00000190: 78dc e2bd 5421 4d3d 5dec 91bb 2361 f03d
000001a0: 2642 0dbc 9d3e 0db8 7d0a 94bd 8eb5 23be
000001b0: c154 24be 78a5 013e e9d9 28bd 793c e03c
000001c0: f0a7 1cbe cf36 1ebe c8ce 313e 1b2a 07bd
000001d0: 6f57 4bbc 16a7 01be 083c 4dbd 7704 293e
000001e0: 6d77 2ebe d53c 28be c969 ba3d 3377 d33d
000001f0: d21f df3c f5a2 583d 8d75 24be ca44 18be
00000200: d5a8 263d b5c7 23be 08f6 ce3d 4b0d 05be
00000210: 5c91 ef3c 0114 22be cc68 103e 8f6f 10be
00000220: f053 023e 8ed9 cebd b64a f43d 8397 043c
00000230: 352e 8f3d eb24 223e 1fc1 03be 52b8 e2bd
00000240: 77c1 123e 7eba 2ebe b760 7bbd 9bd0 40bd
00000250: df32 223e e7eb 90bd 2e24 d53d 6e65 5e3d
00000260: 6088 503d ecdc ba3d e8dc 78ba 362e a8bd
00000270: d7ef 203c 4d82 94bd 238c cfbc 8d6f 04be
00000280: 5868 50bd 6a82 fbbd d66f 303d 4595 bf3d
00000290: 6c63 94bd f107 fd3d 7497 1cbe 30a4 0e3e
000002a0: c936 9f3d 7b91 ae3d fa1c e43d a836 263e
000002b0: c64a a6bd eedc d63d ced4 22bd f71c 0e3e
000002c0: 0487 063e 7291 133d 7c80 253e f6ce df3d
000002d0: 93f4 c0bd e5d5 253c 547e 113e aaff f2bd
000002e0: ecb9 9c3d 85f2 323e 0319 193e 81a4 a63d
000002f0: 3544 c4bd 145c d93d 8b13 35bd d89a f43d
00000300: 0559 293e 41e9 25bb b806 c0bd 351c 39bd
00000310: dd70 c4bd 070f 2c3e 4b23 823d 52a3 cebc
00000320: 18f3 85bd c966 763c 106e c63d 1ee5 80bc
00000330: 54e0 2d3d 149d 13be 9262 05be c108 49bd
00000340: 0172 9ebd 182e 263e 9d57 d53d ed0e 0bbe
00000350: a04c fbbd de11 50bc 029b 013e 1ab2 ca3c
00000360: 45b0 d03d fe59 3f3d 72bb c2bc 8d34 303e
00000370: ff2f df3d c58e 0b3d bc7c 68bc 2cde 32be
00000380: 67ca 25be b899 30be 9a36 b6bd e8c2 c3bd
00000390: cb16 a83d 7dcf ba3c d1e5 383c b6c3 183d
000003a0: 19d8 ec3d 0802 25be 2b40 e83d fb3a c2bd
000003b0: 2576 433c bd9c c53d bce6 babc 085d 5a39
000003c0: b1b9 853d 9870 8dbc ac6d 0dbe 4fb3 d43d
000003d0: b39f 6f3d b5d6 f6bc 09c9 e63d c307 6f3d
000003e0: 57e0 4cbd 8d94 2f3e 4dde 26be 647a 94bc
000003f0: b10e 293e 3e5a 25be 43f4 233e 23a1 4d3d
-0.024484769 0.117832154 0.14906168 -0.17235653 -0.11794051 -0.06957753 0.12601301 -0.09279861
0.05956222 0.120185696 0.17164299 0.16488193 -0.0070589436 0.07598748 0.10633068 -0.09664682
-0.03348782 -0.08304478 -0.013199844 -0.007848502 -0.15663056 -0.0127702635 -0.11141145 -0.10311804
0.015038227 0.13311772 0.045265295 -0.031587694 0.15914024 0.16040814 0.0030887106 0.037829727
-0.06766314 0.16830267 -0.110182576 0.10430639 0.07728352 -0.122395635 -0.05971241 0.057580393
-0.020346759 -0.0045173625 -0.12193694 0.1680744 -0.0006010562 -0.16718452 0.11050729 -0.06349934
0.11358403 0.026680788 -0.009342882 0.08945829 -0.08610636 0.12586254 -0.15124772 0.12677297
0.15141624 -0.014430944 -0.03173918 0.00214715 0.14705354 -0.03229362 0.15770054 0.08891179
0.01946036 0.10311519 0.11883527 -0.0005330312 -0.11753408 0.06872977 -0.013556081 0.16454445
0.0073111504 0.1665604 0.00096155924 0.1495855 0.09352432 0.012632591 -0.09277273 0.094966985
0.13436455 0.06421466 0.03289804 0.021745414 0.14859693 0.016281959 -0.07265728 -0.14254269
0.12161022 -0.1459296 -0.002539885 0.12941895 -0.012711078 -0.1282254 0.116828345 -0.1647786
-0.120528676 -0.11194525 0.12760946 0.13499025 -0.11077207 0.050080612 -0.0044532255 0.11737277
-0.008621728 -3.3675333e-05 -0.07228563 -0.15987226 -0.16047956 0.12660778 -0.04122344 0.027372586
-0.15298438 -0.15450595 0.17364037 -0.03299914 -0.0124109825 -0.12661394 -0.05010608 0.1650561
-0.17037745 -0.16429456 0.09102208 0.1032547 0.027236853 0.052889783 -0.16060467 -0.14869991
0.040688355 -0.15994151 0.101055205 -0.12993352 0.029244117 -0.15827943 0.14102477 -0.14105056
0.12727332 -0.10100089 0.119283125 0.008092764 0.06991235 0.15834396 -0.12866639 -0.110703126
0.14331613 -0.17063329 -0.06137153 -0.04707394 0.15839718 -0.07076245 0.10407291 0.05429595
0.050911307 0.09124169 -0.0009493367 -0.08211939 0.009822807 -0.072514154 -0.025335377 -0.12933178
-0.05088076 -0.12280734 0.043075405 0.09354643 -0.07245526 0.1235503 -0.1529215 0.1392982
0.07774121 0.08523842 0.11138339 0.16231787 -0.08119731 0.10491358 -0.039753728 0.13878237
0.13137442 0.03602738 0.16162294 0.109281465 -0.09421649 0.010121797 0.14208347 -0.1186517
0.07652649 0.17475326 0.14950947 0.081368454 -0.09583322 0.10613266 -0.04420809 0.119435966
0.16537865 -0.0025316032 -0.093762815 -0.045192916 -0.095918395 0.16802607 0.06354388 -0.025224362
-0.06540507 0.015039154 0.096889615 -0.015734252 0.042450264 -0.1441539 -0.13025883 -0.049080614
-0.07736588 0.16228521 0.104171015 -0.13579912 -0.122704744 -0.012699572 0.12656787 0.024743129
0.10189871 0.046716683 -0.023771022 0.17207547 0.108978264 0.034071703 -0.014189895 -0.17467564
-0.16190492 -0.17246139 -0.08897133 -0.0955866 0.082074724 0.022804016 0.011285261 0.03729602
0.11564655 -0.16114056 0.11340364 -0.09483906 0.011930023 0.09649036 -0.0228151 0.00020824757
0.065295584 -0.017265603 -0.13811368 0.10385763 0.05850191 -0.030131677 0.11268813 0.05835701
-0.050018635 0.17146511 -0.16295739 -0.018124767 0.1650951 -0.16147706 0.16011147 0.0502025

96 f4 [1, 256, 64]
00000000: fda5 afbc d0c3 323c c953 473d d31f bfbd
00000010: 8139 413e 02c2 5c3e 38ec 20be 0dfc 403e
00000020: bcd8 06be fa13 b93c 880a 1c3e cb1d 073e
00000030: 0543 423d ab14 8ebd 18ba 393e e592 af3d
00000040: 1d44 bf3d 125c e3bd ade1 513d 047d fdbd
00000050: 6e0a 38be b408 d9bd eeaa c7bd 1fc9 0d3e
00000060: cf1b 0ebe 0701 5cbd 491f 30bc f28a 44be
00000070: 3f48 32be 8c07 9b3d 2782 c33c 9354 82bc
00000080: 12ce f03b dd51 58be 1084 40be 2b18 71bc
00000090: 4b6b 5b3e e53a 463e 79d7 95bd 4c4a aabd
000000a0: 10cf 573e b755 29be 76eb 4c3e aae2 493e
000000b0: d0ee a2bd 02a4 cfbd baec 08be ab94 cc3b
000000c0: f847 603d f164 4fbe d6ee 0c3e be52 a53d
000000d0: d175 063e 083c ea3c 3eb6 0ebe 36d5 cb3d
000000e0: 47fc 75bc dbcd 3cbe a3c8 c03d af8b b5ba
000000f0: c55a 223e dde4 433e 194c 5ebc a8ea e5bc
00000100: 428e d7bd 06ed 323e 7f50 c43d 8103 0c3e
00000110: e1be f43d a982 b9bd d5b8 e73d 4453 223e
00000120: 6894 503e 222a 3f3e ce1a 2c3e bf0e c43d
00000130: b748 1dbe 1cd3 26bd 9d5c 173e 72a5 afbd
00000140: 7e40 09bc 6418 af3b ba20 493d d5ae 2a3e
00000150: 997e a53d 0025 26be 5700 b3bd 17e1 23be
00000160: 7b5b 163e 4761 d93b 0b09 d53d 7323 febd
00000170: ba13 203d 6dea 313e a7af b2bd 1347 2f3d
00000180: cc1c cd3c bf18 c23d 5d72 aa3c 7b96 20be
00000190: bb98 3cbe 1f67 513e 3b36 f53d ac05 afbd
000001a0: c947 423e 6573 0e3e bcf2 123e c697 d53d
000001b0: 1d40 fb3d f29f 17be 44de 4bbe aa3a 57be
000001c0: ccc8 9abd b351 c1bd 89f8 47bd 7d01 1f3e
000001d0: ea3c d13c 0f1b 5b3d 023d 3cbc 62a2 74bd
000001e0: b478 273e bd64 5b3e 6689 6b3d cabb 81bd
000001f0: db3c 143d dbac 28be 44dd 25bd bf1e 50bb
00000200: 1130 e23d 0270 803d fd76 37be 156b fa3d
00000210: 0d1a ec3d 283d 2abe b382 243e 6dd5 c3bc
00000220: 4f2a 223d 58d6 0c3e e3b5 513d 7b8b 70bd
00000230: a426 03be 8a23 c6bc 7a5d 40bd 6b0f 5dbe
00000240: 9c79 0b3e 033c fdbd 0c84 923c 46f5 4a3d
00000250: 8927 5cbe 84dc e2bd b66d 1d3d 1ab4 523e
00000260: efa4 703c 3edf 0ebd ebfc 003e bf98 7e3c
00000270: 9910 95bd cd9d 1bbe 8644 f33d 9b12 383b
00000280: 6a40 81bd 0424 07be 66d2 1bbe 6f60 a6bd
00000290: 8aa2 323e 2dd4 163b b6e4 893c 7538 03be
000002a0: f9c0 2c3e c1f0 4f3e bf52 1a3e b7fe 413e
000002b0: e34e a8bd f766 2abe a74d 5b3e a032 2ebe
000002c0: e4d9 0f3e c3dd 5abe c056 20bd 39e5 1cbe
000002d0: b48e 473e e124 efbc 06fa 283d 5716 cf3d
000002e0: f2b6 fb3c 3d7b 8a3c 8408 5dbe 54df 8abd
000002f0: e0d9 c83b 4664 80bd 1b35 493d c3e4 6b3d
00000300: 65f4 5cbc 8b96 1d3e 74a7 4f3e 377e 47be
00000310: 8191 763d 6481 da3d 3982 36be e0d6 0e3e
00000320: 1148 93bc 23cb 283e 78a1 0f3e c012 d1bc
00000330: 25df 6d3d b0d8 54be 32ff 203e 11ac 44be
00000340: 55dd 903d dbce dcbd 054d c73b 8fac 81bd
00000350: d54c dc3d e98f 213d ba70 c43d 10f8 2b3e
00000360: a749 003e def9 14be d544 38be 183f 66bc
00000370: f042 703d a11d 3bbe e03e 5cbe 3c98 d83d
00000380: 82e3 d7bd b2c7 22be 9846 763d 18c8 12be
00000390: d0df 12be 8a96 43be da26 f1bd 0ffd be3d
000003a0: 7fab ba3b 5620 513e b5f3 553e 0fcf 433e
000003b0: e27b 76bd e1a5 b73d d2e4 5fbd 5c86 4c3e
000003c0: 08ea edbd 00e2 c4bc 20c5 aebd 6a88 45bc
000003d0: 99e1 f7bd cd36 c7bd e33a f0bd af16 4b3e
000003e0: fdf6 59bd 5db7 0b3e 323b 493c f6eb d63d
000003f0: 29c4 65bd 1ea2 073e 8b7a 51be fa84 cabd
-0.021441454 0.010910943 0.048663888 -0.09332242 0.18869592 0.21558383 -0.1571511 0.1884615
-0.13168615 0.022592533 0.15238392 0.13194959 0.047427196 -0.06937536 0.18137395 0.0857294
0.093391635 -0.111015454 0.05124061 -0.123773605 -0.17972729 -0.10597363 -0.09749399 0.13846253
-0.13877796 -0.053711917 -0.010749646 -0.19193628 -0.17410372 0.07569799 0.023865772 -0.015909469
0.0073487842 -0.21124978 -0.18800378 -0.014715235 0.21427648 0.19358404 -0.07316489 -0.08314952
0.21075082 -0.16536604 0.20011696 0.19715372 -0.07955706 -0.10138704 -0.13371554 0.0062433085
0.054756135 -0.2025335 0.13762984 0.080724224 0.13130881 0.028593078 -0.13936707 0.09952776
-0.015013761 -0.18437903 0.094132684 -0.0013850833 0.15854938 0.19130273 -0.013567948 -0.028065994
-0.105251804 0.1747323 0.09585666 0.13673212 0.1195047 -0.090581246 0.11314551 0.15852076
0.20369112 0.18668416 0.168071 0.09573125 -0.1535977 -0.040728673 0.14781423 -0.08576478
-0.008377193 0.0053434838 0.049103476 0.16668256 0.08080787 -0.16225052 -0.08740299 -0.16003834
0.14683335 0.006633911 0.104021154 -0.12409105 0.039081313 0.17374583 -0.08724909 0.04279239
0.025038145 0.09477376 0.020806486 -0.15682404 -0.18417637 0.20449494 0.11973234 -0.08546004
0.18972696 0.13911207 0.14350408 0.10429339 0.12268088 -0.14807108 -0.19909006 -0.21018472
-0.0755783 -0.09439411 -0.048821006 0.15527911 0.025541741 0.053492602 -0.011489155 -0.059725173
0.16354638 0.21425147 0.05750408 -0.06334646 0.03619085 -0.16472189 -0.04049422 -0.0031756607
0.11044324 0.06271364 -0.17916484 0.122274555 0.11528406 -0.16624892 0.16065483 -0.02390548
0.03959113 0.1375364 0.05119885 -0.05872677 -0.12807709 -0.024186868 -0.046964146 -0.21587913
0.13620609 -0.12364962 0.01788523 0.049550317 -0.21499456 -0.11077216 0.038434707 0.20576516
0.014687761 -0.03488087 0.1259648 0.015539347 -0.072785564 -0.15196915 0.11878304 0.0028087262
-0.06311114 -0.13197333 -0.1521698 -0.08123862 0.17444816 0.002301465 0.01683269 -0.12814505
0.16870488 0.20306684 0.15070628 0.18944822 -0.082181714 -0.1664084 0.21416341 -0.170115
0.14047962 -0.21373658 -0.03914523 -0.15321817 0.1948803 -0.02919239 0.041254066 0.10111683
0.030726884 0.016904468 -0.2158528 -0.06780878 0.0061294883 -0.06269126 0.04912291 0.05759121
-0.013486003 0.15389459 0.20278722 -0.19481741 0.060197357 0.106692106 -0.17823114 0.13949156
-0.0179787 0.1648374 0.14026439 -0.025521636 0.058074135 -0.20785785 0.1572235 -0.19206263
0.07073466 -0.10781642 0.0060821795 -0.06331741 0.10756842 0.039443884 0.095918134 0.16793847
0.12528096 -0.14548442 -0.17995007 -0.014053129 0.058657587 -0.18273021 -0.2150836 0.105759114
-0.105414405 -0.1589649 0.060125917 -0.14334142 -0.1434319 -0.19100395 -0.117749885 0.09325611
0.0056967135 0.20422491 0.20893748 0.19121955 -0.060176738 0.08967186 -0.05466158 0.19973129
-0.116169035 -0.024033546 -0.08533692 -0.012056449 -0.12103576 -0.09727249 -0.11729982 0.19832872
-0.053214062 0.13644166 0.01228218 0.10494225 -0.056095276 0.13245437 -0.20456903 -0.098886445

97 f4 [1, 512]
00000000: 0000 0000 0000 0000 0000 0000 0000 0000
00000010: 0000 0000 0000 0000 0000 0000 0000 0000
00000020: 0000 0000 0000 0000 0000 0000 0000 0000
00000030: 0000 0000 0000 0000 0000 0000 0000 0000
00000040: 0000 0000 0000 0000 0000 0000 0000 0000
00000050: 0000 0000 0000 0000 0000 0000 0000 0000
00000060: 0000 0000 0000 0000 0000 0000 0000 0000
00000070: 0000 0000 0000 0000 0000 0000 0000 0000
00000080: 0000 0000 0000 0000 0000 0000 0000 0000
00000090: 0000 0000 0000 0000 0000 0000 0000 0000
000000a0: 0000 0000 0000 0000 0000 0000 0000 0000
000000b0: 0000 0000 0000 0000 0000 0000 0000 0000
000000c0: 0000 0000 0000 0000 0000 0000 0000 0000
000000d0: 0000 0000 0000 0000 0000 0000 0000 0000
000000e0: 0000 0000 0000 0000 0000 0000 0000 0000
000000f0: 0000 0000 0000 0000 0000 0000 0000 0000
00000100: 0000 0000 0000 0000 0000 0000 0000 0000
00000110: 0000 0000 0000 0000 0000 0000 0000 0000
00000120: 0000 0000 0000 0000 0000 0000 0000 0000
00000130: 0000 0000 0000 0000 0000 0000 0000 0000
00000140: 0000 0000 0000 0000 0000 0000 0000 0000
00000150: 0000 0000 0000 0000 0000 0000 0000 0000
00000160: 0000 0000 0000 0000 0000 0000 0000 0000
00000170: 0000 0000 0000 0000 0000 0000 0000 0000
00000180: 0000 0000 0000 0000 0000 0000 0000 0000
00000190: 0000 0000 0000 0000 0000 0000 0000 0000
000001a0: 0000 0000 0000 0000 0000 0000 0000 0000
000001b0: 0000 0000 0000 0000 0000 0000 0000 0000
000001c0: 0000 0000 0000 0000 0000 0000 0000 0000
000001d0: 0000 0000 0000 0000 0000 0000 0000 0000
000001e0: 0000 0000 0000 0000 0000 0000 0000 0000
000001f0: 0000 0000 0000 0000 0000 0000 0000 0000
00000200: 0000 803f 0000 803f 0000 803f 0000 803f
00000210: 0000 803f 0000 803f 0000 803f 0000 803f
00000220: 0000 803f 0000 803f 0000 803f 0000 803f
00000230: 0000 803f 0000 803f 0000 803f 0000 803f
00000240: 0000 803f 0000 803f 0000 803f 0000 803f
00000250: 0000 803f 0000 803f 0000 803f 0000 803f
00000260: 0000 803f 0000 803f 0000 803f 0000 803f
00000270: 0000 803f 0000 803f 0000 803f 0000 803f
00000280: 0000 803f 0000 803f 0000 803f 0000 803f
00000290: 0000 803f 0000 803f 0000 803f 0000 803f
000002a0: 0000 803f 0000 803f 0000 803f 0000 803f
000002b0: 0000 803f 0000 803f 0000 803f 0000 803f
000002c0: 0000 803f 0000 803f 0000 803f 0000 803f
000002d0: 0000 803f 0000 803f 0000 803f 0000 803f
000002e0: 0000 803f 0000 803f 0000 803f 0000 803f
000002f0: 0000 803f 0000 803f 0000 803f 0000 803f
00000300: 0000 0000 0000 0000 0000 0000 0000 0000
00000310: 0000 0000 0000 0000 0000 0000 0000 0000
00000320: 0000 0000 0000 0000 0000 0000 0000 0000
00000330: 0000 0000 0000 0000 0000 0000 0000 0000
00000340: 0000 0000 0000 0000 0000 0000 0000 0000
00000350: 0000 0000 0000 0000 0000 0000 0000 0000
00000360: 0000 0000 0000 0000 0000 0000 0000 0000
00000370: 0000 0000 0000 0000 0000 0000 0000 0000
00000380: 0000 0000 0000 0000 0000 0000 0000 0000
00000390: 0000 0000 0000 0000 0000 0000 0000 0000
000003a0: 0000 0000 0000 0000 0000 0000 0000 0000
000003b0: 0000 0000 0000 0000 0000 0000 0000 0000
000003c0: 0000 0000 0000 0000 0000 0000 0000 0000
000003d0: 0000 0000 0000 0000 0000 0000 0000 0000
000003e0: 0000 0000 0000 0000 0000 0000 0000 0000
000003f0: 0000 0000 0000 0000 0000 0000 0000 0000
0.0 0.0 0.0 0.0 0.0 0.0 0.0 0.0
0.0 0.0 0.0 0.0 0.0 0.0 0.0 0.0
0.0 0.0 0.0 0.0 0.0 0.0 0.0 0.0
0.0 0.0 0.0 0.0 0.0 0.0 0.0 0.0
0.0 0.0 0.0 0.0 0.0 0.0 0.0 0.0
0.0 0.0 0.0 0.0 0.0 0.0 0.0 0.0
0.0 0.0 0.0 0.0 0.0 0.0 0.0 0.0
0.0 0.0 0.0 0.0 0.0 0.0 0.0 0.0
0.0 0.0 0.0 0.0 0.0 0.0 0.0 0.0
0.0 0.0 0.0 0.0 0.0 0.0 0.0 0.0
0.0 0.0 0.0 0.0 0.0 0.0 0.0 0.0
0.0 0.0 0.0 0.0 0.0 0.0 0.0 0.0
0.0 0.0 0.0 0.0 0.0 0.0 0.0 0.0
0.0 0.0 0.0 0.0 0.0 0.0 0.0 0.0
0.0 0.0 0.0 0.0 0.0 0.0 0.0 0.0
0.0 0.0 0.0 0.0 0.0 0.0 0.0 0.0
1.0 1.0 1.0 1.0 1.0 1.0 1.0 1.0
1.0 1.0 1.0 1.0 1.0 1.0 1.0 1.0
1.0 1.0 1.0 1.0 1.0 1.0 1.0 1.0
1.0 1.0 1.0 1.0 1.0 1.0 1.0 1.0
1.0 1.0 1.0 1.0 1.0 1.0 1.0 1.0
1.0 1.0 1.0 1.0 1.0 1.0 1.0 1.0
1.0 1.0 1.0 1.0 1.0 1.0 1.0 1.0
1.0 1.0 1.0 1.0 1.0 1.0 1.0 1.0
0.0 0.0 0.0 0.0 0.0 0.0 0.0 0.0
0.0 0.0 0.0 0.0 0.0 0.0 0.0 0.0
0.0 0.0 0.0 0.0 0.0 0.0 0.0 0.0
0.0 0.0 0.0 0.0 0.0 0.0 0.0 0.0
0.0 0.0 0.0 0.0 0.0 0.0 0.0 0.0
0.0 0.0 0.0 0.0 0.0 0.0 0.0 0.0
0.0 0.0 0.0 0.0 0.0 0.0 0.0 0.0
0.0 0.0 0.0 0.0 0.0 0.0 0.0 0.0

action_model._discrete_distribution.branches.0.bias f4 [5]
00000000: 0000 0000 0000 0000 0000 0000 0000 0000
00000010: 0000 0000
0.0 0.0 0.0 0.0 0.0

action_model._discrete_distribution.branches.0.weight f4 [5, 64]
00000000: 0542 6c3c 1f7f 363c cf8c cdbb ec64 bc3b
00000010: 4df3 6e3c 6dae 81bc 1506 0c3c 4298 d3bb
00000020: c08f 713b eb93 e93b 33cf 90bc 72f3 cc3c
00000030: 6876 683b cb5d d43c 8f4c 093c 754d c73a
00000040: dfbb c2bb f70f fcbb c341 5e3c be60 153c
00000050: a992 bbbc f952 0f3c 4cd8 3a39 0bf0 133c
00000060: 9a4e 913c c286 f03c 40a4 ab3b 899a 993b
00000070: 52c1 143c a329 a23b 327c 55bc f129 1a3c
00000080: 4ba4 00ba df0d 0cbb ef7f 5e3c 86da c7bc
00000090: 3cba acbb 6352 663c 079f 903c ef25 b63b
000000a0: 4cda c63b 8a93 fc3b 7a40 2b3a 6fa6 94bc
000000b0: c73c fc3c d05e 7e3c 6ff9 9cbb 9351 913c
000000c0: 96f5 b53a c26f 86bc 9a3c 523c 9ca9 40ba
000000d0: f0d7 c9bb a80b 5dbc 8d55 9db9 57ba aebc
000000e0: d1ce 85ba 52b3 d3bc 47f4 bb3a 9db0 003c
000000f0: 12eb 143c ef7a a23c 4fd1 6b3a 6361 2dbc
00000100: acef a43c 08f9 753c f06f 1cbc ce90 8e3c
00000110: 30e0 543c a3f9 1abc 207c 693c 76d0 a3bb
00000120: 5061 283c d2a5 4f3b b99b c5b9 7f85 c7bc
00000130: 1563 013c db98 973c e9af 90bb 16f7 12bb
00000140: b313 5b3b 6fe1 cdbb c282 913b 3ad3 8c3c
00000150: 7aa9 dc3b 47ee 743c c91e 8e39 4bab ed3c
00000160: 0bfa 2c3b 180e 69bb edc6 dcbc 1f30 273c
00000170: 30f4 113b 2bfd 8ebc 777c 51bb 453b f73a
00000180: 61d7 b43a 4608 433c 727a 9dba 83b7 393c
00000190: c10e abbb 205b b53b 1e4d a9bc 122c 2b3c
000001a0: bc25 2c3c affa 7b3c de43 af3b 0c48 b2bb
000001b0: f1f9 b33c e733 b03a 8490 94bc 9b5f 8c3b
000001c0: a369 d03c 258c c2ba cb48 043c 7045 ddbb
000001d0: 948d a8bc 3b33 5cbb 67b2 fe3a 343c 11bc
000001e0: 6d52 09bc 0a92 44bc 94f5 143c 23d6 0dbc
000001f0: a752 333c f938 abbb eb2f 36bc 18c9 abbc
00000200: ef2b 9bbc e7d4 babc 9716 08bc bd37 873c
00000210: 5b88 b1bb 8311 38bb d235 bebb c2d4 88bb
00000220: e3bd 043d 9da3 28bb 7c18 b43a 3f14 073c
00000230: a5f9 a2bc 0abe d6bb fa5b ba3c 0820 573b
00000240: cdbd 01bc 8416 c83c 8699 a53c 71a5 2dbd
00000250: ee83 103c a4be 1c3c 4738 7dba 8a6b eebb
00000260: 0243 dabb e29e 0abc b303 d1b9 7dca d23b
00000270: 2bd9 6fbc 9ae5 9e3b bdc1 673c 1527 10bc
00000280: e5fc 113c 136c 003d e314 573b d04f 49bc
00000290: 9289 213c 09a1 8f3c f55b d2ba a524 5bbb
000002a0: f82e dd3b 15bf 193c 6f00 88bb b6a0 1ebc
000002b0: 1e1c b1bb 6c6e 183c 2759 cebb 03a9 edba
000002c0: 5c78 1a3b 00d0 0039 65cf 68bc 8dc9 693c
000002d0: 700e 2ebb 79f2 1bbc a8b8 8c39 4969 b23b
000002e0: fc37 3a3b 01e2 25bc 5633 38bb 6244 ddbc
000002f0: 8707 16bc 1b62 8c3b a2db bd3b c764 6f3c
00000300: b382 813c faa0 90bb ef25 9d3c d72a cebb
00000310: 0d04 a3ba 9555 a2bc e4e1 3aba ebf4 f23a
00000320: f39e d2bb 0b0a a73c 9959 9b3b 87d9 2ebc
00000330: 0e84 b83c cfd9 893c 7b54 f03c ea24 58bb
00000340: 4765 d8ba bb6e f339 8b46 89bc bc8e 81bc
00000350: 70df e8ba 9f3b 5fbc f80e fbbb 8368 403b
00000360: db25 b43b 6802 e3bb 9f74 ce3b 94f6 9f3c
00000370: ca03 663c 90d6 5abc ca7a 693c 3a61 a8bc
00000380: 35fe fb3b 3b99 35bc 8b8e 9dbc 26f1 a3bb
00000390: b816 6cbc 0bbd b4bc c3a0 9b3b cd57 4dbc
000003a0: 351c 923b 1d20 7739 9260 cd3b 071a b53c
000003b0: b546 8e3c f794 db3b 1bd5 7dbc 90ce b3bb
000003c0: 53a0 55bc 98c1 9fbb 2018 03bc b3a7 b8bb
000003d0: 0233 7e3c 12cc 9fbc c017 ff3b 6d36 13bc
000003e0: bb28 a43c 80fa b3bc 7bb6 bd3c eb6b c7bb
000003f0: 1a4f 7b3c bfcf 6d3c 2393 c03c 679a ecbb
0.014420037 0.0111387065 -0.006272889 0.0057493355 0.014584375 -0.015830243 0.008546372 -0.0064573595
0.0036859363 0.007128229 -0.017676925 0.025018428 0.0035470966 0.02592363 0.008380069 0.0015205579
-0.005942806 -0.007692333 0.0135654835 0.009117303 -0.022897081 0.00874781 0.00017818919 0.009029399
0.017737675 0.029361133 0.005238086 0.0046876115 0.009079294 0.004948811 -0.013030099 0.009409414
-0.0004907294 -0.0021370573 0.013580306 -0.024396192 -0.0052712243 0.014057728 0.017653955 0.0055587213
0.0060685035 0.0077080177 0.000653274 -0.018145768 0.0307907 0.015525535 -0.004790477 0.017739093
0.0013882394 -0.016410712 0.012831831 -0.00073494925 -0.006159775 -0.013491549 -0.00030009114 -0.021329088
-0.0010208731 -0.025842343 0.0014339768 0.007854608 0.009089248 0.01983401 0.0008995728 -0.010582301
0.020133816 0.015012987 -0.009548172 0.017403033 0.012992904 -0.009458932 0.014250785 -0.0049992157
0.010277107 0.003168453 -0.0003769079 -0.024355648 0.007897158 0.018505504 -0.0044155014 -0.0022425107
0.003342849 -0.0062829773 0.0044406364 0.017190564 0.0067340704 0.014949388 0.00027107287 0.029012343
0.0026394154 -0.003556138 -0.026950324 0.010204344 0.0022270791 -0.017454704 -0.0031965056 0.0018862268
0.0013797098 0.011903828 -0.0012014641 0.0113352565 -0.0052202647 0.0055345446 -0.020666655 0.010447519
0.010507043 0.015379592 0.0053486666 -0.0054407176 0.021969767 0.0013443202 -0.018135317 0.004283858
0.025440997 -0.0014842792 0.008073996 -0.0067526624 -0.020575322 -0.0033599872 0.001943183 -0.008864451
-0.008381468 -0.011997709 0.0090917535 -0.008657011 0.010944999 -0.0052252975 -0.011119823 -0.020969912
-0.018941848 -0.022806598 -0.008306167 0.01650607 -0.005417866 -0.002808661 -0.0058047557 -0.0041757533
0.032407653 -0.0025732287 0.0013740207 0.008244573 -0.01989443 -0.006553416 0.022748936 0.0032825489
-0.007918787 0.024424799 0.020214807 -0.042394105 0.008820517 0.009566937 -0.000965957 -0.0072760032
-0.00666082 -0.008460732 -0.00039866343 0.00643283 -0.014639179 0.004849148 0.014145312 -0.00879838
0.008910392 0.031353068 0.0032818846 -0.012287095 0.0098594595 0.017532842 -0.0016049134 -0.003343859
0.006749984 0.009383936 -0.0041504423 -0.009681871 -0.005404963 0.00930367 -0.006297249 -0.0018132034
0.0023570275 0.00012284517 -0.014209603 0.014269245 -0.0026558898 -0.009518259 0.0002684046 0.00544468
0.0028414717 -0.010124684 -0.002810677 -0.027010147 -0.009157068 0.004284156 0.0057940045 0.01461143
0.015809393 -0.004413721 0.019183127 -0.006291728 -0.001243712 -0.0198162 -0.0007128997 0.0018536126
-0.0064276396 0.020390531 0.0047409055 -0.01067198 0.022523906 0.016827492 0.029337158 -0.0032980987
-0.0016509675 0.00046431072 -0.01675727 -0.015815131 -0.0017766785 -0.013625055 -0.0076616965 0.002935917
0.005497677 -0.006927777 0.0063005234 0.019526757 0.014038989 -0.01335682 0.014250467 -0.020554174
0.007690216 -0.011083896 -0.019233009 -0.0050031124 -0.014409713 -0.022062799 0.004749389 -0.01253314
0.004458929 0.00023567719 0.0062676156 0.022107137 0.0173677 0.0067011076 -0.015492703 -0.0054872707
-0.013038713 -0.004875373 -0.008001357 -0.0056352257 0.015515091 -0.019506488 0.0077848136 -0.008985144
0.020038953 -0.021970034 0.023158303 -0.006085863 0.0153386835 0.014514863 0.02350766 -0.0072205546

network_body._body_endoder.seq_layers.0.bias f4 [128]
00000000: 0000 0000 0000 0000 0000 0000 0000 0000
00000010: 0000 0000 0000 0000 0000 0000 0000 0000
00000020: 0000 0000 0000 0000 0000 0000 0000 0000
00000030: 0000 0000 0000 0000 0000 0000 0000 0000
00000040: 0000 0000 0000 0000 0000 0000 0000 0000
00000050: 0000 0000 0000 0000 0000 0000 0000 0000
00000060: 0000 0000 0000 0000 0000 0000 0000 0000
00000070: 0000 0000 0000 0000 0000 0000 0000 0000
00000080: 0000 0000 0000 0000 0000 0000 0000 0000
00000090: 0000 0000 0000 0000 0000 0000 0000 0000
000000a0: 0000 0000 0000 0000 0000 0000 0000 0000
000000b0: 0000 0000 0000 0000 0000 0000 0000 0000
000000c0: 0000 0000 0000 0000 0000 0000 0000 0000
000000d0: 0000 0000 0000 0000 0000 0000 0000 0000
000000e0: 0000 0000 0000 0000 0000 0000 0000 0000
000000f0: 0000 0000 0000 0000 0000 0000 0000 0000
00000100: 0000 0000 0000 0000 0000 0000 0000 0000
00000110: 0000 0000 0000 0000 0000 0000 0000 0000
00000120: 0000 0000 0000 0000 0000 0000 0000 0000
00000130: 0000 0000 0000 0000 0000 0000 0000 0000
00000140: 0000 0000 0000 0000 0000 0000 0000 0000
00000150: 0000 0000 0000 0000 0000 0000 0000 0000
00000160: 0000 0000 0000 0000 0000 0000 0000 0000
00000170: 0000 0000 0000 0000 0000 0000 0000 0000
00000180: 0000 0000 0000 0000 0000 0000 0000 0000
00000190: 0000 0000 0000 0000 0000 0000 0000 0000
000001a0: 0000 0000 0000 0000 0000 0000 0000 0000
000001b0: 0000 0000 0000 0000 0000 0000 0000 0000
000001c0: 0000 0000 0000 0000 0000 0000 0000 0000
000001d0: 0000 0000 0000 0000 0000 0000 0000 0000
000001e0: 0000 0000 0000 0000 0000 0000 0000 0000
000001f0: 0000 0000 0000 0000 0000 0000 0000 0000
0.0 0.0 0.0 0.0 0.0 0.0 0.0 0.0
0.0 0.0 0.0 0.0 0.0 0.0 0.0 0.0
0.0 0.0 0.0 0.0 0.0 0.0 0.0 0.0
0.0 0.0 0.0 0.0 0.0 0.0 0.0 0.0
0.0 0.0 0.0 0.0 0.0 0.0 0.0 0.0
0.0 0.0 0.0 0.0 0.0 0.0 0.0 0.0
0.0 0.0 0.0 0.0 0.0 0.0 0.0 0.0
0.0 0.0 0.0 0.0 0.0 0.0 0.0 0.0
0.0 0.0 0.0 0.0 0.0 0.0 0.0 0.0
0.0 0.0 0.0 0.0 0.0 0.0 0.0 0.0
0.0 0.0 0.0 0.0 0.0 0.0 0.0 0.0
0.0 0.0 0.0 0.0 0.0 0.0 0.0 0.0
0.0 0.0 0.0 0.0 0.0 0.0 0.0 0.0
0.0 0.0 0.0 0.0 0.0 0.0 0.0 0.0
0.0 0.0 0.0 0.0 0.0 0.0 0.0 0.0
0.0 0.0 0.0 0.0 0.0 0.0 0.0 0.0

network_body._body_endoder.seq_layers.0.weight f4 [128, 80]
00000000: 02cc ea3c afd9 913d 921c cd3d 2966 f8bd
00000010: 06d1 813d e181 b8bc bcdc 173c ddab 913d
00000020: 91fe e43d bc95 ce3b 45d7 24be 1913 a43c
00000030: 5291 6f3e e987 75be e69d 323d 86e1 a63d
00000040: da92 56be d32c c5bd aa38 40be 0b93 40be
00000050: b55d 873c 726c 1d3e 6ea8 7ebc 7fca b0bd
00000060: 0d8e 543e 6fac f4bd 9122 48bd 9d6e dd3d
00000070: 5188 b2bd 2613 453d 219e f33c 2da2 093e
00000080: d37f dcbd b3f9 75bb 725e 2a3e e100 ef3d
00000090: c354 48bd ed91 3d3e df50 d83c 6281 58bd
000000a0: 6213 c13b f4f9 eb3b be3a 2d3b eb0c 673e
000000b0: f317 193e b1ee bfbd 9eb0 6abd e8de 7b3d
000000c0: d294 a53d cecf b4bc 7726 5fbc 4004 7dbc
000000d0: cedd 1b3d 1480 afbd dc92 debc 75f8 eabb
000000e0: 025e 063e c17b 0dbc 4fb5 f8bd ec09 b43d
000000f0: 5edf a53d 52bc 94bd 9cc5 c13d b5f5 543d
00000100: bf5b dfbd 2ef8 70be 7ccf 0b3d 0011 dbbc
00000110: ac61 12bd b836 573e 32e0 d3bd 5b1a c73d
00000120: 666e 0e3d 9ef4 b7bd eb77 a5bd 314d 043e
00000130: 849b 38be 5958 35bd 21f0 12bd 6fce 0f3e
00000140: acc1 693d 8a76 19be ed1f a6bc 3cfe 49bc
00000150: e3e0 d7bc 5b1a d8bd bfba 1ebe 61c8 d9bd
00000160: 2477 b93d 5ade c53b 3365 05be 7f07 aebc
00000170: 29be 853e 26a0 cfbd 5a0f b93c 1994 b7bd
00000180: a0d5 4abe 2777 34bc 2ca9 703d 4e63 833d
00000190: d970 d8bd c748 adbd 81b0 15bc bd81 b2bd
000001a0: 8ee8 5c3e 4e1d fcbd b8a5 953d 0d36 393e
000001b0: ff82 37be 341e b0bd 7985 37bc b772 9bbd
000001c0: 5f37 adbc d9de af39 f6b4 9c3e da94 2abe
000001d0: c2c0 ab3d 448a 1dbd 6d31 8bbd 36c6 8b3c
000001e0: 62a3 3e3d 15d9 c2bc d882 513d bd17 47be
000001f0: a165 7c3e 1452 313e 40f4 023b 9064 96bd
00000200: 300d 8dbd 7a7c a23d 08d4 7ebd 5ba2 463e
00000210: 4fa0 e4bd 5c67 86bd 0a4d 653d e78d 1f3e
00000220: 4005 6b3d 7e0f 233e b25c 68bd 5391 42bc
00000230: d379 603e a287 e1bd 118e 743d 7836 12be
00000240: 6e61 393e d4aa f5bc 3486 173d 445e 8fbd
00000250: b012 c5bc 758d 873d 3904 a03d fd1e 12be
00000260: 0af8 093e 84eb 7ebd d9aa debb f9e9 5bbd
00000270: 518c 113e c571 dfbd 44c0 ab3c 3402 93be
00000280: 29a9 3d3d 30fd 50bd 44b3 e43d 3149 82bd
00000290: dfbb babd ca56 b43d 3e30 083e f5e7 75bd
000002a0: ce7d d33d f72b 3d3c 80bc 943c 9e45 1abe
000002b0: a5f7 5dbd b1b4 d03c 2a2b 6d3e c586 1bbb
000002c0: c027 aebd 47ea a73d d1cd 113d 5ade 093e
000002d0: 7465 36be c35c b23d 0e77 3dbe 7a94 98bd
000002e0: 1fad 183e e6d4 cbbd 2c6a 0d3b a3ec 633e
000002f0: 267a 2bbe cefa 223d 6824 1dbe 6c68 39bd
00000300: cbef c4bd 10ce d0bd 3314 1fbc 85f0 643e
00000310: f1f7 1b3e 5bae cabd eaa5 7a3e a327 d6bd
00000320: a1b2 2dbd 2143 ddbd 05fb 263c cb83 573d
00000330: 92e5 42bd 65e4 0b3e 6925 a1bd 7705 213d
00000340: 938f 343d 60d0 d5bc 63da 4dbd 0bba 88bb
00000350: cd8d 653d 7e5b 8fbd fa57 a0bd 01ce d0bd
00000360: 4dee 38bb a0f3 f83c f906 95bd 73e4 f439
00000370: 8905 2ebe 63d1 fcbd 1599 0abd 160c 283e
00000380: 6f68 4cbc 76bd bf3d 3c70 da3d a676 afbc
00000390: 956a fe3d 41dc 7cbc c722 703e bf14 d4bd
000003a0: 011c 1abe 9c30 a4bd 051f 2d3d 4243 00bc
000003b0: fa0f 0bbd 3eca 1fbe 12a1 5a3d a7f4 99bb
000003c0: 5416 5abe f84e 9abd 1bb9 443e 90b5 383d
000003d0: e513 cebe ce5d 10be 24e4 9f3d ea6b 02be
000003e0: a412 89bd e657 bb3d 649f ba3c cc86 d93e
000003f0: 43ce 643c 451d 7bbd 8c4b ab3c a4e8 2bbd
0.028661732 0.07121598 0.10015215 -0.121288605 0.06338696 -0.022522869 0.009268936 0.071128584
0.11181367 0.006304471 -0.16097744 0.020028638 0.23395279 -0.23977627 0.043607615 0.08148484
-0.20954457 -0.0962769 -0.18771616 -0.18806092 0.016524175 0.153734 -0.015543086 -0.08632373
0.20757313 -0.119469516 -0.04886109 0.108121134 -0.087174065 0.048113964 0.029738488 0.13440771
-0.10766568 -0.0037532866 0.1663759 0.116700895 -0.04890896 0.18512698 0.02640575 -0.052857764
0.005892203 0.0072014276 0.0026432718 0.22563522 0.14950542 -0.09371699 -0.05729734 0.061491877
0.08085026 -0.022071745 -0.013620011 -0.015442908 0.038053326 -0.08569351 -0.027169637 -0.0071707317
0.13121799 -0.008635462 -0.12143957 0.08790955 0.080992445 -0.07262482 0.09461519 0.051992137
-0.10906171 -0.23532173 0.03413342 -0.026741505 -0.03573768 0.21016967 -0.10345496 0.09721824
0.034773253 -0.08982204 -0.08079513 0.12920071 -0.18028075 -0.044273708 -0.035873536 0.14043592
0.057069466 -0.14986625 -0.020278895 -0.012328681 -0.026352352 -0.10551902 -0.15500925 -0.10633922
0.090559274 0.0060384693 -0.13026886 -0.021243809 0.26121643 -0.10137968 0.022590328 -0.08963794
-0.19808054 -0.011014736 0.058755085 0.06415425 -0.10568399 -0.08461147 -0.00913632 -0.08716152
0.21573088 -0.12310277 0.07306999 0.18087025 -0.17921065 -0.08599511 -0.011201256 -0.075902395
-0.021144567 0.00033544636 0.30606812 -0.16658345 0.08386375 -0.03846194 -0.067965366 0.017062288
0.046542533 -0.023785153 0.051150173 -0.19442649 0.24648143 0.17316467 0.001998201 -0.073433995
-0.06887281 0.07933898 -0.062213928 0.19397871 -0.11163389 -0.06562683 0.055981673 0.15581475
0.057378054 0.15923879 -0.056729026 -0.011875468 0.21921472 -0.11012198 0.059705798 -0.1427859
0.18103573 -0.029988684 0.03699322 -0.070004016 -0.024056762 0.06618778 0.078133054 -0.14269634
0.13473526 -0.062236324 -0.006795269 -0.05368993 0.14213683 -0.10910372 0.020965703 -0.28712618
0.0463039 -0.05102271 0.11167005 -0.063616164 -0.09117865 0.08805616 0.13299653 -0.060035665
0.1032673 0.011546127 0.01815629 -0.1506562 -0.05419125 0.025476785 0.23160997 -0.0023731452
-0.085036755 0.08198982 0.035596672 0.13463727 -0.17812139 0.08709099 -0.18502447 -0.07450195
0.1490979 -0.099527165 0.0021578176 0.22258238 -0.16745815 0.039789967 -0.15345919 -0.0452656
-0.096160494 -0.10195553 -0.009709406 0.22357376 0.15231301 -0.09896537 0.24477354 -0.10456779
-0.042406682 -0.108038194 0.010191684 0.052615922 -0.047582217 0.13661344 -0.078684635 0.039311852
0.044082236 -0.026100338 -0.050257098 -0.0041725687 0.056043435 -0.069998726 -0.0782928 -0.10195542
-0.002821821 0.030389607 -0.072767206 0.00046709515 -0.16994299 -0.12344625 -0.033837397 0.1641086
-0.012476071 0.09362309 0.10665938 -0.02141888 0.12422673 -0.015433372 0.23450767 -0.103555195
-0.15049745 -0.08017084 0.04226591 -0.0078285355 -0.033950783 -0.15604493 0.053376265 -0.0046983543
-0.2129758 -0.07534593 0.19211237 0.045095026 -0.40249553 -0.14098284 0.07807186 -0.12736478
-0.066930085 0.09147625 0.022781081 0.42485654 0.013965192 -0.06130721 0.020910047 -0.04196991

network_body._body_endoder.seq_layers.2.bias f4 [128]
00000000: 0000 0000 0000 0000 0000 0000 0000 0000
00000010: 0000 0000 0000 0000 0000 0000 0000 0000
00000020: 0000 0000 0000 0000 0000 0000 0000 0000
00000030: 0000 0000 0000 0000 0000 0000 0000 0000
00000040: 0000 0000 0000 0000 0000 0000 0000 0000
00000050: 0000 0000 0000 0000 0000 0000 0000 0000
00000060: 0000 0000 0000 0000 0000 0000 0000 0000
00000070: 0000 0000 0000 0000 0000 0000 0000 0000
00000080: 0000 0000 0000 0000 0000 0000 0000 0000
00000090: 0000 0000 0000 0000 0000 0000 0000 0000
000000a0: 0000 0000 0000 0000 0000 0000 0000 0000
000000b0: 0000 0000 0000 0000 0000 0000 0000 0000
000000c0: 0000 0000 0000 0000 0000 0000 0000 0000
000000d0: 0000 0000 0000 0000 0000 0000 0000 0000
000000e0: 0000 0000 0000 0000 0000 0000 0000 0000
000000f0: 0000 0000 0000 0000 0000 0000 0000 0000
00000100: 0000 0000 0000 0000 0000 0000 0000 0000
00000110: 0000 0000 0000 0000 0000 0000 0000 0000
00000120: 0000 0000 0000 0000 0000 0000 0000 0000
00000130: 0000 0000 0000 0000 0000 0000 0000 0000
00000140: 0000 0000 0000 0000 0000 0000 0000 0000
00000150: 0000 0000 0000 0000 0000 0000 0000 0000
00000160: 0000 0000 0000 0000 0000 0000 0000 0000
00000170: 0000 0000 0000 0000 0000 0000 0000 0000
00000180: 0000 0000 0000 0000 0000 0000 0000 0000
00000190: 0000 0000 0000 0000 0000 0000 0000 0000
000001a0: 0000 0000 0000 0000 0000 0000 0000 0000
000001b0: 0000 0000 0000 0000 0000 0000 0000 0000
000001c0: 0000 0000 0000 0000 0000 0000 0000 0000
000001d0: 0000 0000 0000 0000 0000 0000 0000 0000
000001e0: 0000 0000 0000 0000 0000 0000 0000 0000
000001f0: 0000 0000 0000 0000 0000 0000 0000 0000
0.0 0.0 0.0 0.0 0.0 0.0 0.0 0.0
0.0 0.0 0.0 0.0 0.0 0.0 0.0 0.0
0.0 0.0 0.0 0.0 0.0 0.0 0.0 0.0
0.0 0.0 0.0 0.0 0.0 0.0 0.0 0.0
0.0 0.0 0.0 0.0 0.0 0.0 0.0 0.0
0.0 0.0 0.0 0.0 0.0 0.0 0.0 0.0
0.0 0.0 0.0 0.0 0.0 0.0 0.0 0.0
0.0 0.0 0.0 0.0 0.0 0.0 0.0 0.0
0.0 0.0 0.0 0.0 0.0 0.0 0.0 0.0
0.0 0.0 0.0 0.0 0.0 0.0 0.0 0.0
0.0 0.0 0.0 0.0 0.0 0.0 0.0 0.0
0.0 0.0 0.0 0.0 0.0 0.0 0.0 0.0
0.0 0.0 0.0 0.0 0.0 0.0 0.0 0.0
0.0 0.0 0.0 0.0 0.0 0.0 0.0 0.0
0.0 0.0 0.0 0.0 0.0 0.0 0.0 0.0
0.0 0.0 0.0 0.0 0.0 0.0 0.0 0.0

network_body._body_endoder.seq_layers.2.weight f4 [128, 128]
00000000: c932 9ebd 54ec 453e 837d 30bd 0361 babd
00000010: bf26 123e 9141 91bb 3850 b6bd ea88 093e
00000020: 201f 99bb de20 a0bd 3676 0a3d f9bc c93d
00000030: f52a 473b 3634 0cbb 4d84 64bd 629a 23bc
00000040: a319 d9bd 8d42 b5bb ea1a ac3c cd59 1a3e
00000050: 7d0f 1abe da27 93bd f9a1 fbbc a7a4 203c
00000060: 47c6 51bc c3da c93d d05f ac3c 332c 873d
00000070: d442 173c 246f 003e 28be 1a3d 411d 153e
00000080: 8bbf 17be 8efe ed3c 95fe 9fbc daa8 313d
00000090: a2ec 79bc 3786 06bd d623 f63d d7ff 33be
000000a0: e5ff a7bb 502a f5bd 13e9 3c3d db13 99bd
000000b0: 6e06 b6bb 73c1 5b3d 8e97 803d 306e 02be
000000c0: 392a b7bd fc8c c83d 6c98 43bc f610 f2bc
000000d0: 0872 c6bc d639 bc3a 0285 763d 02bb 623c
000000e0: a486 0f3d f019 cbbd b4b3 10be 132f abba
000000f0: 5a86 87bd 718d 943d 6663 09be 076a 143e
00000100: 8a22 3dbd 2c9e 8ebd d417 d23d d560 9a3d
00000110: 9803 683c d2fc 593d bd32 dd3c da7c 9fbd
00000120: 0748 e33d a119 4bbc 10f6 5f3d 427e 953d
00000130: fa06 d73c 5888 4f3d 5a9c 16bc 87d0 7ebd
00000140: 8afb 13bc fc6d 813e fa08 dabc 39f5 3d3d
00000150: 6303 8c3d 6d27 ab3c c3ee 0b3c b28e 43bc
00000160: 5838 21be 8e11 08bd a72e 1cbd 2c49 6cbd
00000170: c3ca 08be 0640 efbc 90a0 eebd 116e f3bd
00000180: 3f0b 253e 38d4 7e3e 7fec 25bc 975a 21be
00000190: 303c 0fbe 1a49 033d 4999 043b c0ec edbc
000001a0: 3ef6 bf3d 0722 2bbe a99d 7dbd 2533 1b3d
000001b0: b5b6 453e da75 573d 63ce 1d3e 7a87 ce3c
000001c0: 69b3 ac3d c478 843c 96ca 0d3d 00d0 d03c
000001d0: 32d7 013e 2948 213d 6ea7 29bd 393d 00bc
000001e0: 9d4c dbbc b778 603d cb78 eebd 2dd6 9ebc
000001f0: 2edd 25be d501 45bd 7b1d a1bc 8028 543d
00000200: 149d d53c fac0 51bc 77dd eaba 328c ad3b
00000210: 25dd b2bd a41d a43d 1504 44bd 4db9 0cbe
00000220: 0391 a0bd b010 d63d 3991 1fbd 25f2 413e
00000230: ddac c6bd e0c3 4d3d 2965 0a3d 5087 e03d
00000240: 76ea 803d 9fa8 bebd f97d 313e 17ad 55bd
00000250: ff21 893c 0b07 e5bd 6725 fd3d e87c 22bd
00000260: ffbf 293c dd0a 0a3e 6ac7 453d 23f5 8cbd
00000270: 2e88 16bd 8755 893c 7c84 16be 9688 5a3e
00000280: 479d f93d f764 5ebd 1750 de3d 74ae 083e
00000290: ad74 44bc c468 8cbb ac3a 9dbd 5e24 adbd
000002a0: a67d 923d 0484 9fbc fd25 103e cc40 8f3d
000002b0: 733d 53bc c7fb 04bd 3d43 2cbd 2577 31be
000002c0: d40b 38be bfee 54bd 6b75 023d dda5 bcbb
000002d0: 7550 b93d e103 12be 4c39 57bd c9c4 8c3d
000002e0: 9966 353e fd5f 613e 7546 4d3d cc07 bbbd
000002f0: 1b31 3d3c 2c74 fbbd 864a f9bc 2d46 4e3d
00000300: cead 1dbe e421 243d 9c8f 09bc 5ae8 26bb
00000310: 1c7a 89bd 9919 86bc c802 103d 09f2 5ebe
00000320: 5999 073e ce8b 86bd 06a2 2f3d 186c 98bd
00000330: be84 0dbd fb51 bcbd 6da5 253e 20ac 77bc
00000340: 0884 a0bb 0fad 583e 4905 c33d 8f4b 3f3c
00000350: 9361 80bd af40 cabc a1a1 6dbd f74e 913d
00000360: dd1a 5d3c 02ae 5ebd ff4d 25bd c847 b83d
00000370: 0416 973c a722 0b3e e1d1 7dbd 4aac 82bd
00000380: 741c d43d 7612 90bd 5b9d 95be 0a75 e43c
00000390: 5783 0fbd ccb9 1e3d d8a9 c9bb 8d24 d5bd
000003a0: 97db 323d 8ea8 593d 0c62 ad3c fda6 2abd
000003b0: c6e7 a0bc 8d51 37bd 162e a4bc b191 afbc
000003c0: 9a9f ccbc 44b3 a03d c966 2fbe 9027 5dbc
000003d0: ac75 373b 6ca1 95be fbfb d7bc 7a0a 07bd
000003e0: d80c 46bc 7782 d2bd 07ce 14be 33dd 85bd
000003f0: 9c1a 7f3c fcf2 0c3d 26de 71bd 7562 e7bd
-0.0772453 0.19328433 -0.043088447 -0.09100535 0.14272593 -0.004432865 -0.08902019 0.13431135
-0.0046729 -0.07818769 0.03380414 0.09850497 0.0030390595 -0.0021393425 -0.055790234 -0.009985538
-0.10600593 -0.005531615 0.021008927 0.15073319 -0.15044971 -0.071853355 -0.030716883 0.009804881
-0.012803621 0.098561786 0.02104178 0.06600227 0.009232242 0.12542397 0.037779003 0.1456194
-0.14819162 0.029052045 -0.019530574 0.04337392 -0.015254172 -0.03284284 0.12018554 -0.17578064
-0.0051269406 -0.11970961 0.046120714 -0.0747449 -0.0055549657 0.053651284 0.06278907 -0.12737346
-0.089436 0.09792516 -0.011938196 -0.029549103 -0.024224296 0.0014360498 0.06018544 0.013838531
0.035040513 -0.099170566 -0.14131051 -0.0013060294 -0.066174224 0.0725354 -0.13416824 0.14493571
-0.046175517 -0.06963763 0.10258451 0.075380005 0.014161013 0.053219624 0.027001733 -0.077874854
0.110977225 -0.012396247 0.054678023 0.072994724 0.026248444 0.050667137 -0.009192551 -0.062210586
-0.00903214 0.25279224 -0.026615608 0.04637644 0.068365835 0.020892823 0.008540812 -0.011935877
-0.1574415 -0.033219866 -0.03813043 -0.05768697 -0.13358597 -0.029205333 -0.116517186 -0.11886228
0.16117571 0.24885643 -0.010127186 -0.15757214 -0.13987803 0.032052137 0.0020232967 -0.029043555
0.09373139 -0.16712199 -0.061917935 0.037890572 0.19307978 0.052602626 0.15410762 0.025211085
0.08432657 0.016170867 0.03461703 0.025489807 0.12679747 0.039375458 -0.04141944 -0.007827097
-0.02676993 0.054802623 -0.11644133 -0.019389236 -0.16197655 -0.04809745 -0.019667378 0.051796436
0.026075877 -0.012802357 -0.0017918785 0.0052962536 -0.08733586 0.08013466 -0.047855455 -0.13742562
-0.07840159 0.10452402 -0.038956854 0.18940027 -0.0970094 0.05023563 0.03378788 0.10963309
0.0629472 -0.09309506 0.17333211 -0.052167024 0.016739843 -0.11182984 0.123606496 -0.0396699
0.010360717 0.13480707 0.04828588 -0.068826936 -0.036750965 0.016764415 -0.14698976 0.21341166
0.121882014 -0.054295506 0.1085512 0.13347799 -0.011990708 -0.00428495 -0.076772064 -0.08454202
0.07152872 -0.01947213 0.14076991 0.06994781 -0.012893069 -0.032466676 -0.04205631 -0.17330606
-0.17973262 -0.0519855 0.03185026 -0.005757077 0.09048549 -0.14259292 -0.052544877 0.06873471
0.17714919 0.22009273 0.05011602 -0.091323465 0.011547352 -0.122780174 -0.030431043 0.050359894
-0.15398332 0.040071383 -0.008396056 -0.0025468082 -0.06712744 -0.016369628 0.035158902 -0.21772017
0.13242091 -0.065696344 0.042879127 -0.07442492 -0.03455042 -0.09195324 0.16176386 -0.015116721
-0.004898552 0.21159767 0.095224924 0.011675729 -0.06268611 -0.024689047 -0.05801547 0.070951395
0.013495174 -0.054365166 -0.040357586 0.08998066 0.018443115 0.13587438 -0.061967734 -0.06380518
0.103569895 -0.07034771 -0.29221615 0.02788784 -0.035037365 0.03875141 -0.00615428 -0.10407362
0.04366645 0.053139262 0.021164916 -0.04166316 -0.019641768 -0.044755507 -0.020041507 -0.021431776
-0.024978448 0.07846692 -0.17129053 -0.013498202 0.0027993722 -0.29224718 -0.02636527 -0.032968976
-0.012088023 -0.102787904 -0.14531718 -0.06536331 0.015570309 0.034411415 -0.059049748 -0.11298076
