Assets/Brain Models/ButtonPress.onnx (onnx, 344073 bytes, 9 tensors)

action_model._discrete_distribution.branches.0.bias f4 [3]
0.0018558695 0.003610842 -0.0056733177
00000000: a640 f33a e0a3 6c3b 3de7 b9bb

action_model._discrete_distribution.branches.0.weight f4 [3, 256]
-0.014731464 -0.00698957 0.009606751 -0.035711557 -0.021564715 -0.006495282 -0.019824684 0.012006789
-0.02833289 -0.0053715883 -0.030496322 0.004705553 -0.014682358 -0.018720832 0.018260414 -0.009857676
0.0014325563 0.020871647 -0.0034187052 0.036322046 0.0012492485 -0.008085995 -0.0036849617 0.019548612
0.024856996 -0.016346551 -0.00620567 0.01755687 -0.023449875 -0.017090155 -0.008406926 -0.047235362
-0.01185637 -0.0013526371 -0.011164146 0.010778531 -0.004290757 0.0023915374 -0.032047693 -0.0035699082
-0.00042559102 0.00012898348 0.013049657 0.010954248 -0.023671515 -0.00191527 0.035662137 -0.022949949
0.01264022 0.016717235 0.022729438 0.003830673 0.006763135 0.0033500185 0.004243713 -0.01894296
0.025413902 -0.022294253 0.0033421216 -0.012100991 0.018450228 -0.0215253 -0.0028517481 0.0007120908
0.0036583368 -0.008863825 -0.017223874 0.0051580225 0.015928596 -0.003764312 -0.0090726195 -0.012589594
-0.04307381 -0.047883052 -0.00057287526 0.015304209 0.021142732 0.0025171868 -0.0075082546 0.03143905
-0.015840419 0.030963179 0.006034984 0.020098759 0.012367431 -0.0104927765 0.026733542 0.0046408325
-0.011140233 -0.016126813 -0.017868552 -0.0176962 -0.009775409 -0.008152315 -0.033739064 0.0072487714
0.034887638 -0.012465121 0.036517244 -0.041200954 0.0055141603 -0.05045072 0.025443869 -0.005683392
-0.0062782485 0.004798093 0.0038671547 -0.039348792 0.015172735 -0.001062957 -0.026159197 0.002618026
-0.026619097 0.012990354 -0.008074928 -0.005364976 0.0002505243 0.0033616272 0.0097770495 0.012080142
0.01605453 0.020186685 0.01693466 -0.0077025504 -0.0018284603 0.009700858 -0.021186063 0.012202297
0.05513467 -0.009512708 0.0020408817 0.004773949 0.004364084 -0.010954901 -0.020558463 -0.0098320795
-0.0100663 0.011406462 0.016086604 -0.012843332 -0.03329549 0.021107389 0.021251403 -0.0011900095
0.005476759 0.004683682 0.004780821 -0.0094259875 0.013182917 0.0089207515 -0.022523833 -0.01664773
-0.0026573658 0.014344634 -0.0037492523 0.0073536965 0.010025219 0.00028419629 -0.01968598 -0.011340753
0.023344677 0.0108348075 -0.007961902 0.006717807 0.032151055 0.032271195 -0.042510774 -0.0033823259
0.008902423 0.0074424236 -0.039056264 0.015158061 -0.009171526 -0.0021882576 0.0050831237 0.005151192
-0.0011853833 -0.005003473 0.004078573 0.034849364 0.010918386 0.005587219 0.017983438 -0.010547755
0.01696812 0.010018525 0.010624405 -0.006842081 -0.020221792 0.0072909943 -0.013100865 -0.013755096
0.013194314 -0.012795608 -0.003761958 -0.011197428 0.017877342 0.00893804 -0.030095305 0.0002964381
0.0005805027 -0.016821194 -0.035707425 0.006639419 0.0048393817 -0.02849136 0.0147009995 -0.002748021
-0.011236036 0.004195349 0.0057801185 -0.010274128 0.0039924886 0.010502347 -0.0006416425 -0.016582318
-0.0149885975 0.016770838 0.005048635 -0.00367934 0.004091162 -0.010470086 -0.0057849833 -0.012239689
-0.004631991 0.028339311 -0.024189606 0.004827161 0.016517483 0.016726807 -0.023379665 0.021115465
-0.027119873 -0.014722813 -0.013478206 0.030772125 -0.027530646 -0.0047282605 -0.0004687586 0.022274015
-0.013303481 -0.006522046 -0.0019194394 -0.011355922 0.0018268081 0.009161892 0.006010939 -0.008071333
-0.016887989 0.018231953 -0.0015450418 -0.0028991636 -0.016556196 0.024177726 0.0012518881 -0.005410776
00000000: 3d5c 71bc c308 e5bb a265 1d3c 4846 12bd
00000010: 7ca8 b0bc 60d6 d4bb 6067 a2bc 20b8 443c
00000020: 601a e8bc 2604 b0bb 6cd3 f9bc 0a31 9a3b
00000030: 468e 70bc 6e5c 99bc dd96 953c 1782 21bc
00000040: 9dc4 bb3a 04fb aa3c 5b0c 60bb 6dc6 143d
00000050: d3bd a33a 1f7b 04bc 667f 71bb 6924 a03c
00000060: e6a0 cb3c 34e9 85bc ef58 cbbb 6dd3 8f3c
00000070: f419 c0bc a700 8cbc 34bd 09bc de79 41bd
00000080: 3841 42bc f84a b1ba d2e9 36bc 7098 303c
00000090: 7a99 8cbb 57bb 1c3b 7144 03bd 1ff5 69bb
000000a0: dc21 dfb9 bd3f 0739 3bce 553c 7279 333c
000000b0: c4ea c1bc cc09 fbba 7612 123d 8801 bcbc
000000c0: ed18 4f3c 95f2 883c 1633 ba3c 070c 7b3b
000000d0: 4a9d dd3b fc8b 5b3b d80e 8b3b 442e 9bbc
000000e0: d130 d03c 70a2 b6bc 7f07 5b3b 3c43 46bc
000000f0: ef24 973c d355 b0bc 65e4 3abb 9bab 3a3a
00000100: b5c0 6f3b 9439 11bc 1519 8dbc a104 a93b
00000110: b07c 823c adb2 76bb 53a5 14bc 9644 4ebc
00000120: 2a6e 30bd 0521 44bd 022d 16ba 81be 7a3c
00000130: 8633 ad3c 63f7 243b ce07 f6bb 3cc6 003d
00000140: c4c3 81bc 7ea6 fd3c 1dc1 c53b 27a6 a43c
00000150: c4a0 4a3c e5e9 2bbc 4d00 db3c 2012 983b
00000160: 8685 36bc 611c 84bc 1261 92bc 9ff7 90bc
00000170: 0929 20bc 4a91 05bc f931 0abd 1a87 ed3b
00000180: 57e6 0e3d 823a 4cbc 1b93 153d 55c2 28bd
00000190: 21b0 b43b 6aa5 4ebd a96f d03c bf3b babb
000001a0: c4b9 cdbb 5239 9d3b 1770 7d3b 332c 21bd
000001b0: 1097 783c eb52 8bba d04b d6bc 3093 2b3b
000001c0: 4b10 dabc 7ed5 543c b44c 04bc aecc afbb
000001d0: cd58 8339 bf4e 5c3b eb2f 203c caeb 453c
000001e0: ca84 833c 8c5e a53c 8eba 8a3c ad65 fcbb
000001f0: f2a8 efba 59f0 1e3c 658e adbc 25ec 473c
00000200: e4d4 613d 30db 1bbc 50c0 053b c96e 9c3b
00000210: 9700 8f3b 2f7c 33bc 396a a8bc bb16 21bc
00000220: 1fed 24bc 2be2 3a3c 0ec8 833c d76c 52bc
00000230: da60 08bd 67e9 ac3c 6c17 ae3c 18fa 9bba
00000240: 6276 b33b 9379 993b 6fa8 9c3b 756f 1abc
00000250: 29fd 573c 5828 123c e783 b8bc d260 88bc
00000260: 3327 2ebb c105 6b3c 04b6 75bb 47f7 f03b
00000270: d140 243c 2e00 9539 7e44 a1bc 91ce 39bc
00000280: 563d bf3c 7a84 313c a372 02bc 0d21 dc3b
00000290: d3b0 033d cd2e 043d c71f 2ebd 03aa 5dbb
000002a0: 78db 113c 93df f33b 76f9 1fbd 8459 783c
000002b0: 2b44 16bc df68 0fbb 5590 a63b 55cb a83b
000002c0: dd5e 9bba 2cf4 a3bb 8da5 853b 35be 0e3d
000002d0: 08e3 323c fd14 b73b 0152 933c 7ed0 2cbc
000002e0: ba00 8b3c bd24 243c fc11 2e3c 8933 e0bb
000002f0: 2ca8 a5bc 4be9 ee3b 03a5 56bc 0e5d 61bc
00000300: f72c 583c aba4 51bc 2f8b 76bb 6b75 37bc
00000310: 8173 923c db70 123c 6e8a f6bc 406b 9b39
00000320: e02c 183a 9acc 89bc f341 12bd 7c8f d93b
00000330: ad93 9e3b b666 e9bc 76dc 703c 2418 34bb
00000340: 5a17 38bc 2379 893b 2667 bd3b d154 28bc
00000350: 6cd3 823b 0912 2c3c e633 28ba a4d7 87bc
00000360: bc92 75bc ff62 893c 056f a53b 1521 71bb
00000370: 270f 863b b98a 2bbc f58f bdbb fa88 48bc
00000380: f5c7 97bb d827 e83c 4829 c6bc 292d 9e3b
00000390: ac4f 873c a806 893c b686 bfbc 57fa ac3c
000003a0: 7f2a debc f437 71bc b1d3 5cbc d315 fc3c
000003b0: f387 e1bc 86ef 9abb b7c3 f5b9 ff77 b63c
000003c0: d8f6 59bc e3b6 d5bb b395 fbba 300e 3abc
000003d0: 8271 ef3a c31b 163c 69f7 c43b a03d 04bc
000003e0: ae58 8abc 2d5b 953c 0083 caba e5ff 3dbb
000003f0: dca0 87bc 5e10 c63c 6516 a43a e14c b1bb

action_model._discrete_distribution.branches.1.bias f4 [3]
0.00061791315 0.002384122 -0.0026710753
00000000: 73fb 213a ee3e 1c3b 350d 2fbb

action_model._discrete_distribution.branches.1.weight f4 [3, 256]
0.0035796186 0.011075224 -0.0074887965 -0.0012129499 0.0018767939 -0.00047135167 0.0004920577 0.0074755824
0.010985926 0.010317871 -0.012820124 0.0015160529 -0.01167633 -0.0013135686 0.00481563 0.0014148855
-0.0043008984 -0.002362565 0.013014328 0.0040585683 -0.001842572 -0.001077347 -0.004499144 0.001886407
-0.018704921 0.0023252121 -0.000823441 0.00023535624 0.007188798 0.0074765906 -0.012562304 0.00558258
-0.00035185425 0.012475614 -0.006337143 -0.0038958634 0.0044118487 0.00706175 -0.009105433 0.0007316773
0.009966952 -0.001615932 0.009321807 0.009807898 0.009331603 0.0024953042 0.0022860873 0.0014382887
0.023651198 -0.025655065 -0.007732551 0.0032296667 0.011943227 -0.002809711 -0.0036025732 -0.0006428264
-0.012187496 -0.0042127697 -0.008569705 0.020283228 0.0038731892 0.0014527371 -0.009722195 0.0026252263
0.00892031 -0.0032389127 0.0025377534 0.004065288 0.0038197772 -0.009559713 -0.012880134 0.0007615139
0.0042475956 -0.0014809909 -0.0034834363 -0.008508087 -0.0020804093 -0.005806879 0.00096108974 0.0122546675
0.0003542741 -0.00649015 0.002857893 -0.017902631 -0.006755884 -0.0030101389 -0.0012286042 0.0072501944
0.015212767 -0.0052341535 0.0069209477 -0.02189832 0.010222153 -0.0015116152 0.0071763955 -0.0016700855
-0.0054338886 -0.00650784 0.004944128 -0.0035300201 -0.009757824 0.017893618 0.011903082 -0.021817196
0.008485731 -0.006826079 0.0043695257 0.005455833 -0.00016063426 -0.0046164454 -0.012706319 0.0061215535
0.011136685 0.0026149568 -0.0036489111 0.009164149 -0.004452575 -0.017733213 0.0048956145 0.00069247466
0.0051333406 0.0015482312 -0.000241732 0.0024288974 0.00070114614 -0.00019957274 0.011370585 0.010144312
0.014811034 -0.007138194 -0.006422983 -0.0017875117 0.0013833379 0.00016006947 0.0025689972 -0.002390837
0.005096281 0.0022153421 -0.003807364 -0.01699294 -0.0037663418 0.0003854233 -0.0084677255 0.0071178353
-0.0013765467 -0.020720713 0.0005683187 0.0047880923 0.0061939205 -0.0018707083 -0.013562236 0.0057628667
0.011038063 0.01702378 -0.004709269 0.0013078565 -0.010279519 -0.002771137 0.013732782 0.004567895
0.0035919482 0.0029992112 0.006525744 -0.0026129277 0.0025535196 0.010788771 -0.014448091 0.005109068
-0.0028561826 0.0014034895 0.0060721245 0.008970624 0.003337795 0.018554797 -0.015365874 0.008990988
0.003711368 0.0067575388 -0.0025736436 -0.008126629 0.00022556173 -4.520332e-05 -0.0067760227 0.008104151
0.0040715286 -0.0086990055 -0.0018220348 -0.0033631825 0.006585241 -0.0068725958 -0.0096617 -0.00892704
0.00336284 -0.0034396742 0.009486006 0.010433949 -0.0038970583 0.012253929 0.0031182028 -0.017749265
-0.0030082671 -0.007340789 0.006473632 -0.011848384 -0.00091331877 0.016892515 -0.014148505 0.001721919
0.00024856624 0.0034543609 0.0009973434 0.0060975393 0.0027395517 0.0022271916 -0.01456121 -0.0066117067
-0.005730929 0.0014527093 -0.007790152 0.010658389 -0.004593491 -0.0033726876 -0.007084116 0.0054161013
0.009566557 -0.0063849795 -0.01379556 0.00669612 -0.013126603 0.003424539 0.0076394426 0.0004137531
-0.0016573422 0.0033086275 -0.010252994 0.002281808 -0.021138528 0.011209621 -0.0014443764 -0.0035784023
-0.009017513 0.003103333 0.006303138 0.0033190316 0.0008866996 0.0010297601 0.0040058335 -0.0072660935
0.008925643 -0.010177043 -0.0066425246 0.00015204363 -0.007036698 -0.018200949 0.005232991 0.0072353077
00000000: 0998 6a3b db74 353c 9464 f5bb d8fb 9eba
00000010: c1fe f53a c01f f7b9 6ffd 003a bbf5 f43b
00000020: 50fe 333c 4a0c 293c 7f0b 52bc 4bb6 c63a
00000030: 144e 3fbc 0c2c acba 6fcc 9d3b ae73 b93a
00000040: 8dee 8cbb 43d5 1abb 0c3a 553c bdfd 843b
00000050: 7582 f1ba c435 8dba 8e6d 93bb 5141 f73a
00000060: 103b 99bc 9662 183b 31dc 57ba f6c9 7639
00000070: 0290 eb3b 30fe f43b 1fd2 4dbc 13ee b63b
00000080: 1479 b8b9 8566 4c3c cfa7 cfbb be51 7fbb
00000090: 4591 903b 4166 e73b f42e 15bc 08ce 3f3a
000000a0: 6d4c 233c aecd d3ba 7eba 183c 4eb1 203c
000000b0: 94e3 183c 4288 233b 2ed2 153b f684 bc3a
000000c0: 28c0 c13c 922a d2bc 5761 fdbb d1a8 533b
000000d0: 86ad 433c 2123 38bb 2619 6cbb 5983 28ba
000000e0: 10ae 47bc 460b 8abb f367 0cbc 0329 a63c
000000f0: 55d5 7d3b c569 be3a d749 1fbc fd0b 2c3b
00000100: 7e26 123c f043 54bb 7050 263b 1c36 853b
00000110: 3a55 7a3b 58a0 1cbc 3307 53bc 55a0 473a
00000120: 6a2f 8b3b cf1d c2ba 5d4a 64bb 8165 0bbc
00000130: 7a57 08bb a247 bebb a4f1 7b3a cdc7 483c
00000140: ddbd b939 53ab d4bb 7d4b 3b3b 8aa8 92bc
00000150: 7660 ddbb c045 45bb 1e09 a1ba 0a93 ed3b
00000160: f83e 793c 4383 abbb 1ec9 e23b 1b64 b3bc
00000170: d17a 273c 6421 c6ba f827 eb3b c5e6 daba
00000180: c30e b2bb b83f d5bb 5a02 a23b e957 67bb
00000190: 48df 1fbc a395 923c 2505 433c fab9 b2bc
000001a0: bc07 0b3c 4dad dfbb 3d2e 8f3b d8c6 b23b
000001b0: ee6f 28b9 8d45 97bb 2a2e 50bc 5097 c83b
000001c0: a476 363c b25f 2b3b 9222 6fbb 3a25 163c
000001d0: e8e6 91bb 3e45 91bc 646b a03b 3087 353a
000001e0: 9535 a83b 05ee ca3a 7179 7db9 232e 1f3b
000001f0: 1fcd 373a 6644 51b9 b14b 3a3c 5434 263c
00000200: fba9 723c 83e7 e9bb e377 d2bb f14a eaba
00000210: 1e51 b53a 52d8 2739 9f5c 283b 97af 1cbb
00000220: b4fe a63b 462f 113b f884 79bb c734 8bbc
00000230: bbd4 76bb a412 ca39 37bc 0abc bb3c e93b
00000240: 3e6d b4ba 7cbe a9bc 39fb 143a 6ee5 9c3b
00000250: 5ff6 ca3b 8e32 f5ba 2434 5ebc 6ed6 bc3b
00000260: fed8 343c 7475 8b3c 3650 9abb 626c ab3a
00000270: 6d6b 28bc f79b 35bb 76ff 603c 48ae 953b
00000280: e466 6b3b 6a8e 443b e9d5 d53b a73d 2bbb
00000290: f358 273b 63c3 303c b0b7 6cbc f869 a73b
000002a0: cb2e 3bbb 4bf5 b73a acf8 c63b 86f9 123c
000002b0: e8be 5a3b 3b00 983c 26c1 7bbc f04e 133c
000002c0: 6c3a 733b 586e dd3b 93aa 28bb 8d25 05bc
000002d0: c484 6c39 b298 3db8 6609 debb 46c7 043c
000002e0: 756a 853b 4686 0ebc 58d1 eeba d768 5cbb
000002f0: 01c9 d73b 8333 e1bb 1b4c 1ebc b842 12bc
00000300: 1863 5c3b 286c 61bb 316b 1b3c 27f3 2a3c
00000310: ca65 7fbb b4c4 483c c35a 4c3b e866 91bc
00000320: 5926 45bb 008b f0bb c320 d43b b91f 42bc
00000330: c96b 6fba 2c62 8a3c 22cf 67bc 04b2 e13a
00000340: ff51 8239 8f62 623b 4bb9 823a decd c73b
00000350: 0d8a 333b 13f6 113b 2492 6ebc 04a7 d8bb
00000360: 84ca bbbb d668 be3a 8844 ffbb 86a0 2e3c
00000370: ff84 96bb 4f08 5dbb df21 e8bb 8d79 b13b
00000380: 0cbd 1c3c 1739 d1bb c606 62bc 206b db3b
00000390: f710 57bc 3b6e 603b 4a54 fa3b 00ed d839
000003a0: 2d3b d9ba 8fd5 583b 2cfc 27bc 638a 153b
000003b0: b52a adbc 8fa8 373c 3b51 bdba a183 6abb
000003c0: 31be 13bc 4a61 4b3b 8e8a ce3b 1c84 593b
000003d0: 6771 683a 04f9 863a 5e43 833b 6918 eebb
000003e0: dc3c 123c 9dbd 26bc 89a9 d9bb e76d 1f39
000003f0: 1a94 e6bb 281a 95bc 8379 ab3b 2916 ed3b

discrete_action_output_shape f4 [1, 2]
3.0 3.0
00000000: 0000 4040 0000 4040

network_body._body_endoder.seq_layers.0.bias f4 [256]
0.016613066 0.021580853 -0.0072824582 -0.00036837926 0.0014396688 0.007311888 0.010405884 0.0041235955
0.018895501 -0.0063371933 0.0014883354 0.022424739 -0.0066162236 0.010907696 0.004093857 0.009601086
0.010026925 0.0037230176 -0.006501896 0.0078038024 0.009098447 -0.008964763 0.019238107 0.02972844
0.013736624 0.020754302 0.007105975 0.012899455 -0.005297723 0.0042455974 0.000422151 0.012548736
0.020535568 0.016585877 -0.012668984 -0.006176767 0.002407156 -0.012466672 0.020208994 0.012540469
0.010014203 0.0056878743 0.0039312844 0.007676383 0.0025822113 0.0018785698 -0.009296812 0.0076606227
-0.0007342357 -0.0050129863 0.018270522 0.0017039558 0.004804198 0.016774984 -0.00035769417 -0.00220175
0.011315537 0.01572105 0.007202627 0.015621332 0.003607669 0.0043746913 0.026126925 0.009359535
0.011945724 0.010305801 0.02037429 0.00045310473 0.0038607498 0.015572921 -0.008371304 0.021729207
0.015047128 0.02258855 0.005228087 -0.02014308 0.008303956 -0.003285192 -0.00046749116 0.0031621447
-0.008691804 0.027682468 -0.0008572609 0.03687229 -0.020435799 0.0037986445 0.01566282 -0.0028789998
0.008996148 0.0035125907 -0.001786918 0.03286308 -0.0039612236 0.014170572 0.005941107 0.0036896511
0.007701659 0.015031916 -0.0022763563 -0.0022881932 0.004329518 0.0054840543 0.0013940767 0.028069643
0.0056149503 0.01526299 0.007872616 -8.2612985e-07 0.019050084 -0.004992168 -0.0010583107 0.022492632
-0.0023097962 -0.0032241126 0.0012989149 0.020023359 0.0069083776 0.010901705 0.006739684 0.003455703
0.021822466 -0.029521165 0.011391706 -0.0037162337 0.007517177 0.006568616 -0.0154441 -0.009993663
-0.004819572 0.02066221 0.0014758523 0.010746894 0.013024243 -0.0052003628 -0.0003605161 -0.013693182
-0.012028754 0.0029690266 -0.0025957557 0.011119791 0.005000097 0.008671866 0.0061763492 0.0131000085
0.025514035 0.0031775031 0.007132931 -0.0014396794 -0.0070100697 -0.00043793715 0.02551186 0.019115573
0.027722215 0.012169932 0.024700148 -0.01598134 -0.0018679949 0.010418859 -0.0098877605 -0.017786827
0.002567076 0.012304625 -0.0054278276 0.0017760209 0.017167933 -0.004196729 0.01640336 -0.0003078145
-0.007557385 0.010126212 0.0034237523 0.013285498 -0.013291428 -0.021348335 0.0003546865 0.013096623
-0.009626805 0.019729502 -0.015670748 0.017054636 0.014473268 0.019910427 0.011161225 0.021579225
0.00969411 0.008623959 -0.00842332 -0.0027937128 0.008419295 -0.0032731704 0.0068052784 0.0046510017
-0.027407754 0.0019297836 0.0020021158 -0.0013712195 0.019803286 0.0074924715 0.0026942592 0.0034819432
0.005082544 -0.00016584777 -0.0035338444 0.029766731 0.016498623 0.0025659688 0.013519706 0.0051463936
0.025205549 0.012425501 0.004881497 0.01867751 0.022579549 0.018041205 0.014365219 0.008852384
0.0063136397 0.0029168283 0.014922775 -0.00035585018 0.019820299 0.002247369 -0.001947614 -0.005513153
0.004447613 0.004904243 0.012285743 0.00960831 0.0259459 0.014324926 0.0008854656 0.014671794
0.012149965 0.009343532 0.007167486 0.0155788865 -0.008892716 0.0029016747 0.0041111195 -0.0030397116
0.015380308 0.013984027 -0.007424486 0.022850249 0.026353884 0.0052550444 0.016488584 0.0068618157
0.0032335906 -0.001770759 0.011097683 0.004508929 0.0142184775 0.024456378 -0.0054953583 0.016253082
00000000: 2018 883c 54ca b03c b0a1 eebb 0723 c1b9
00000010: 45b3 bc3a 9098 ef3b 717d 2a3c 3a1f 873b
00000020: bdca 9a3c 3ba8 cfbb 4014 c33a 16b4 b73c
00000030: e8cc d8bb 31b6 323c c325 863b e04d 1d3c
00000040: f947 243c dffd 733b db0d d5bb 0ab7 ff3b
00000050: a711 153c f1e0 12bc 3c99 9d3c 0f89 f33c
00000060: 940f 613c ed04 aa3c 3dd9 e83b 3c58 533c
00000070: 8698 adbb a71e 8b3b 2654 dd39 3799 4d3c
00000080: 353a a83c 1bdf 873c 9291 4fbc 7a66 cabb
00000090: 60c1 1d3b 0341 4cbc 558d a53c 8a76 4d3c
000000a0: 9d12 243c 5961 ba3b 01d2 803b 2b8a fb3b
000000b0: 513a 293b 583a f63a a851 18bc f605 fb3b
000000c0: b979 40ba fa43 a4bb 10ac 953c 4557 df3a
000000d0: 896c 9d3b b16b 893c e688 bbb9 3c4b 10bb
000000e0: cd64 393c 6ec9 803c 0404 ec3b 9ef0 7f3c
000000f0: a46e 6c3b 9259 8f3b 2208 d63c bc58 193c
00000100: ffb7 433c aad9 283c fce7 a63c b08e ed39
00000110: a204 7d3b 9125 7f3c cb27 09bc 7301 b23c
00000120: 3b88 763c 9f0b b93c 5f50 ab3b 1a03 a5bc
00000130: 510d 083c 604c 57bb 9a19 f5b9 fc3b 4f3b
00000140: 1168 0ebc 58c6 e23c ceb9 60ba 6607 173d
00000150: fa68 a7bc aef2 783b 504f 803c 9aad 3cbb
00000160: 9464 133c 7e33 663b 0537 eaba 709b 063d
00000170: 27cd 81bb b02b 683c 9ead c23b 13ce 713b
00000180: 335e fc3b 6d48 763c ec2e 15bb 83f5 15bb
00000190: a1de 8d3b 95b3 b33b 74b9 b63a 4ff2 e53c
000001a0: 9efd b73b 9f11 7a3c 25fc 003c 36c3 5db5
000001b0: ec0e 9c3c 5795 a3bb 04b7 8aba 7842 b83c
000001c0: f35f 17bb a24b 53bb 5a40 aa3a 0708 a43c
000001d0: ac5f e23b 119d 323c 91d8 dc3b 1379 623b
000001e0: 07c5 b23c 5fd6 f1bc 47a4 3a3c 0e8c 73bb
000001f0: a752 f63b 8b3d d73b 4009 7dbc 76bc 23bc
00000200: 80ed 9dbb cc43 a93c 6371 c13a be13 303c
00000210: a263 553c ce67 aabb a703 bdb9 5e59 60bc
00000220: 4014 45bc 0094 423b 8e1d 2abb c92f 363c
00000230: dbd7 a33b 7114 0e3c f962 ca3b 6ba1 563c
00000240: cf02 d13c a83d 503b 5dbb e93b a0b3 bcba
00000250: bab4 e5bb ee9a e5b9 40fe d03c 4398 9c3c
00000260: b319 e33c 6564 473c f757 ca3c 4deb 82bc
00000270: 82d7 f4ba ddb3 2a3c 4600 22bc aeb5 91bc
00000280: 633c 283b 5699 493c ebdb b1bb 5fc9 e83a
00000290: c4a3 8c3c b784 89bb 5760 863c 2a62 a1b9
000002a0: f1a3 f7bb 69e8 253c 0861 603b 6bab 593c
000002b0: 4ac4 59bc b4e2 aebc 37f5 b939 3893 563c
000002c0: bfb9 1dbc c49f a13c f15f 80bc 2ab6 8b3c
000002d0: 4921 6d3c 311b a33c 92dd 363c eac6 b03c
000002e0: 0bd4 1e3c 814b 0d3c f701 0abc b916 37bb
000002f0: 15f1 093c b082 56bb d0fe de3b 6e67 983b
00000300: 3a86 e0bc cbf0 fc3a ee35 033b 7eba b3ba
00000310: 803a a23c 6883 f53b 2b92 303b 5031 643b
00000320: 788b a63b 6ce7 2db9 1298 67bb 5cd9 f33c
00000330: 1f28 873c d029 283b c281 5d3c 14a3 a83b
00000340: de7b ce3c 5494 4b3c f7f4 9f3b 9401 993c
00000350: bff8 b83c 26cb 933c 185c 6b3c 9709 113c
00000360: a6e2 ce3b 4228 3f3b a87e 743c 6791 bab9
00000370: 2e5e a23c 9848 133b 1547 ffba aea7 b4bb
00000380: 48bd 913b c6b3 a03b 244a 493c 2c6c 1d3c
00000390: 7f8c d43c 18b3 6a3c 971e 683a f761 703c
000003a0: a610 473c 9d15 193c 3bdd ea3b 963e 7f3c
000003b0: c1b2 11bc 062a 3e3b 92b6 863b e635 47bb
000003c0: b0fd 7b3c 431d 653c 1a49 f3bb 7230 bb3c
000003d0: 1ae4 d73c 8232 ac3b 1113 873c 15d9 e03b
000003e0: a6ea 533b d018 e8ba 0ed3 353c a3bf 933b
000003f0: 9ef4 683c be58 c83c 6812 b4bb 2f25 853c

network_body._body_endoder.seq_layers.0.weight f4 [256, 69]
0.061895598 -0.25007203 -0.0889867 0.06927904 -0.084770866 -0.1495656 -0.12775896 0.017648645
-0.039946493 0.060204227 -0.017925255 -0.028676707 -0.037629493 -0.15251814 0.068073116 0.09235661
-0.022415 -0.1758193 -0.00790842 0.15764362 -0.11832767 0.056431714 -0.18173862 0.18745716
-0.01630243 0.08411113 0.14291969 0.05023374 -0.05622966 -0.0063271616 0.09105946 -0.09619458
0.020482607 0.043470405 0.07843073 -0.11949303 -0.006579426 0.08180969 -0.07314187 -0.08534173
0.18168724 0.030916646 0.10141081 -0.18188037 0.16984174 -0.08369167 0.11460205 -0.108865134
-0.17962071 0.06822922 0.12418223 -0.0637825 0.09510818 0.11275522 -0.047028694 -0.13223094
0.19442788 0.037717924 0.08701401 0.10964747 -0.029689418 -0.22228028 -0.2219883 -0.21449915
0.025087172 -0.12517235 0.050667744 -0.06575252 0.12790865 0.14858218 0.11526076 0.09807311
-0.07370868 0.01503725 0.15077578 0.11622226 -0.04554435 0.16070618 0.019193498 0.15495378
0.057184696 0.14535089 -0.015532831 0.118225835 0.12035936 0.09293311 -0.13607445 -0.26895836
-0.25169122 0.18578546 0.024633475 0.2429404 0.23821256 -0.001976919 -0.10402469 0.21277611
0.021730168 -0.08467307 0.044236634 0.07193923 -0.23014845 -0.05253869 -0.16792688 -0.037413254
0.17857583 -0.0432157 -0.13079989 -0.09735164 0.08748946 0.1382368 -0.162644 -0.16942364
-0.04708471 0.11895512 -0.029506313 0.06410278 -0.15156606 -0.03881463 0.12786597 -0.05268097
-0.27655873 -0.072587624 0.25630444 -0.0030509247 -0.23601882 0.20246066 -0.029952046 -0.21701562
-0.019121574 -0.049228992 -0.07581818 -0.034862857 0.05226562 0.06490815 0.1166942 0.05753844
0.06740181 0.10161809 -0.16825268 0.34564042 -0.024126241 -0.0957224 0.20551704 -0.22382762
0.00464469 -0.05936055 -0.16542388 0.18378046 -0.1448751 0.18897288 -0.049833275 0.15998386
0.13313185 -0.06456494 -0.07782702 -0.09099944 0.0025979204 -0.15599336 0.017111927 -0.17090978
0.040839337 -0.19972499 -0.1501726 0.1184502 -0.015813237 0.22290447 0.016351828 -0.16455452
-0.042227972 -0.1619628 0.20833656 0.008296808 0.22221439 0.010671656 -0.020900067 -0.021596646
-0.09248115 0.065008335 -0.1835097 -0.2877108 0.03616562 0.18059099 -0.102746524 -0.0908463
0.15195642 -0.10209697 0.16413568 0.10928141 0.17616837 -0.05764496 0.12375915 -0.11984593
-0.033131734 -0.16774997 0.07488626 0.081424214 0.019739717 0.08151896 -0.20183118 0.022824675
0.07704428 0.1360136 -0.14032088 -0.07091523 0.0035940907 0.13558252 -0.07741457 -0.06038634
0.065494575 -0.113612674 0.08516521 -0.118889906 0.29561794 -0.17496 -0.104170404 -0.015821125
-0.044153046 -0.024773797 -0.1672012 0.07561948 0.09703737 0.10529621 -0.163049 -0.010366444
-0.07905322 -0.07604284 0.16519287 0.12178593 -0.013638462 0.20557211 0.05120492 0.045965783
0.30371076 0.15736435 -0.08038504 -0.10705184 -0.14793 0.1626856 0.13328657 0.008723541
0.28150928 0.12333871 0.018535726 0.08356865 0.18401897 -0.30046162 -0.25280833 -0.10604082
0.014790455 -0.0783432 0.029710364 0.114217296 -0.06941421 0.09098309 -0.15528885 -0.05665785
00000000: 3d86 7d3d 7109 80be a93e b6bd 2be2 8d3d
00000010: 599c adbd ba27 19be 3fd3 02be e493 903c
00000020: ef9e 23bd b598 763d fcd7 92bc 6aeb eabc
00000030: 6221 1abd b72d 1cbe eb69 8b3d 7625 bd3d
00000040: a99f b7bc f909 34be 5192 01bc 546d 213e
00000050: c755 f2bd f124 673d b019 3abe c5f4 3f3e
00000060: ac8c 85bc 7542 ac3d 8a59 123e e5c1 4d3d
00000070: 1251 66bd 1454 cfbb 627d ba3d aa01 c5bd
00000080: 24cb a73c 060e 323d 4aa0 a03d c3b8 f4bd
00000090: 3a98 d7bb d78b a73d 68cb 95bd a5c7 aebd
000000a0: 380c 3a3e e844 fd3c 79b0 cf3d d93e 3abe
000000b0: feea 2d3e 8a66 abbd 7bb4 ea3d aff4 debd
000000c0: 7eee 37be c3bb 8b3d 4153 fe3d 66a0 82bd
000000d0: 14c8 c23d 35ec e63d 29a1 40bd 8c67 07be
000000e0: 1a18 473e 1c7e 1a3d 6734 b23d da8e e03d
000000f0: 3937 f3bc 719d 63be e750 63be aaa5 5bbe
00000100: 9d83 cd3c 2e2d 00be fb88 4f3d 42a9 86bd
00000110: 7cfa 023e ed25 183e d50d ec3d 8eda c83d
00000120: 94f4 96bd cc5e 763c f764 1a3e f005 ee3d
00000130: b68c 3abd 2990 243e af3b 9d3c 34ac 1e3e
00000140: 803a 6a3d ddd6 143e 6a7d 7ebc 6320 f23d
00000150: f87e f63d b753 be3d 1a57 0bbe e9b4 89be
00000160: acdd 80be 8b3e 3e3e 24cc c93c 5ec5 783e
00000170: feed 733e 328f 01bb e60a d5bd fbe1 593e
00000180: 7703 b23c 1369 adbd 7931 353d e054 933d
00000190: 09ac 6bbe cf32 57bd 06f5 2bbe a43e 19bd
000001a0: 95dc 363e f202 31bd 68f0 05be 4c60 c7bd
000001b0: ad2d b33d f38d 0d3e 268c 26be 647d 2dbe
000001c0: e6db 40bd be9e f33d 39b7 f1bc 5148 833d
000001d0: 2234 1bbe 17fc 1ebd 4cef 023e 00c8 57bd
000001e0: 1b99 8dbe d2a8 94bd 563a 833e 06f2 47bb
000001f0: ebae 71be d951 4f3e fe5d f5bc 5839 5ebe
00000200: d9a4 9cbc 57a4 49bd 9046 9bbd 5bcc 0ebd
00000210: 7a14 563d 90ee 843d 5efd ee3d 6dad 6b3d
00000220: f609 8a3d 251d d03d 6e4a 2cbe c8f7 b03e
00000230: 65a4 c5bc 1b0a c4bd 0f73 523e 1133 65be
00000240: 7c32 983b 0c24 73bd e164 29be f230 3c3e
00000250: 235a 14be 1b82 413e fa1d 4cbd cfd2 233e
00000260: b753 083e a03a 84bd c663 9fbd ea5d babd
00000270: df41 2a3b b9bc 1fbe 502e 8c3c f902 2fbe
00000280: 2647 273d b584 4cbe d9c6 19be 0596 f23d
00000290: c38a 81bc 1241 643e 45f4 853c fb80 28be
000002a0: 3df7 2cbd 94d9 25be 2e56 553e 56ef 073c
000002b0: 2b8c 633e 2bd8 2e3c 9e36 abbc 73eb b0bc
000002c0: c266 bdbd 1723 853d f7e9 3bbe d44e 93be
000002d0: 6722 143d d8ec 383e c56c d2bd a00d babd
000002e0: 779a 1b3e 3718 d1bd 2f13 283e efce df3d
000002f0: 7b65 343e 1f1d 6cbd 7075 fd3d c871 f5bd
00000300: 24b5 07bd a6c6 2bbe f85d 993d bdc1 a63d
00000310: 30b5 a13c 6af3 a63d d5ac 4ebe d0fa ba3c
00000320: 64c9 9d3d 2647 0b3e 47b0 0fbe 013c 91bd
00000330: d68a 6b3b 25d6 0a3e 888b 9ebd ab57 77bd
00000340: 0522 863d c3ad e8bd 196b ae3d 8d7c f3bd
00000350: 3c5b 973e b728 33be 4b57 d5bd 4e9b 81bc
00000360: d3d9 34bd 6bf2 cabc cb36 2bbe 63de 9a3d
00000370: 87bb c63d 8aa5 d73d 51f6 26be 04d8 29bc
00000380: a8e6 a1bd 59bc 9bbd 5228 293e e76a f93d
00000390: db73 5fbc 7f81 523e 40bc 513d 9e46 3c3d
000003a0: fa7f 9b3e 1f24 213e e9a0 a4bd ff3d dbbd
000003b0: f67a 17be 0e97 263e 467c 083e 2fed 0e3c
000003c0: fc21 903e 0199 fc3d 3cd8 973c 0a26 ab3d
000003d0: 786f 3c3e 1bd6 99be 1870 81be ee2b d9bd
000003e0: aa53 723c 6672 a0bd 2663 f33c c2ea e93d
000003f0: 0a29 8ebd 5855 ba3d 0a04 1fbe 1012 68bd

network_body._body_endoder.seq_layers.2.bias f4 [256]
0.010086717 0.013466346 -0.0005674461 0.011935085 0.008401691 -0.0038739615 0.002142696 0.018978797
0.0023277383 -0.0008966623 0.0028546653 0.013025518 0.020697525 -0.0050889696 0.015661942 0.0045583267
0.016262952 0.0062842737 -0.003906944 0.009864979 0.012661713 0.009037014 0.0015835492 -0.006778942
0.010659387 0.0057212985 0.0021297995 0.011229559 0.01055807 -0.0047096964 -0.0015753475 0.010517022
0.008242651 -0.0036672612 0.008840448 0.009077345 0.0062334705 -0.0029690943 0.008468113 0.00957619
0.004012893 0.014904139 0.011514257 0.0060615274 0.008376856 0.0041985447 0.007803739 0.0031641673
0.01586558 0.00070267724 0.014654816 0.00875454 0.014489761 -0.00026946585 -0.001244775 0.009815555
0.0075477115 0.018229386 0.010377046 0.015244931 0.008171537 -0.0015310772 0.0037654536 0.0150282765
0.021765048 0.00057614903 0.01573337 0.0016920192 0.0068473415 0.005973884 -0.00014608631 0.016811386
0.009940979 0.012960739 -0.00081455475 -0.0027661095 0.0050861533 -0.0019401996 0.00010796611 0.001613202
0.006930685 0.0124862855 0.0027671463 0.003180285 0.009309513 0.0074529196 -0.00013192925 -0.009604764
0.010950972 -0.005012996 0.012412955 0.014002147 0.009846677 -0.0017171766 0.013513262 0.010772891
0.014769698 0.0051365877 -0.0007684012 0.013831895 -0.0056635668 0.013140218 0.006956792 0.004679255
0.007274992 0.016115978 0.0049216407 0.01765753 0.0053439 0.0075089713 0.0073260115 0.011082491
0.003680614 0.008128282 0.010712725 -0.0007635986 0.0073811226 0.016597353 0.011004668 0.014222588
0.0005780279 0.014061651 0.010315559 -0.0055910163 0.00964662 0.005595375 0.009466617 -0.000863722
0.012415195 0.01316192 0.010886326 0.0045015314 -0.00033076623 0.011695534 0.006397189 0.014614916
0.0051480345 0.00784583 -0.004072356 0.006455592 0.0015531628 0.0082281465 -0.00015356815 0.008451653
0.010631964 0.020776227 0.014037158 0.005651076 0.012897305 0.008856222 0.004632194 0.013350558
0.0072381804 -0.006657628 0.0043639666 0.01572218 0.0035614346 0.00743664 0.008882706 0.005101327
0.0029457293 0.0030452122 0.0045455815 -0.0046976157 0.015138349 0.0027196978 0.004096187 0.0043336465
0.0036281026 0.0068380744 0.012735163 0.0031360998 0.006637042 -0.0019339087 0.010429333 0.011573288
0.012587838 0.0029697977 0.0022375653 -0.0004300587 0.006979274 -0.005019839 0.011890429 0.008181226
0.006092777 0.0079169925 0.0040955897 0.017655825 0.012753657 0.0051575336 0.0046304124 0.00372632
-0.005743775 0.0012804804 0.013101994 0.0011080863 0.004303485 0.003721063 0.011960809 0.0050765006
0.0125299785 0.002394716 0.0030587392 0.0019925153 0.0006527764 0.0010125147 0.0046150447 0.010264514
0.001446308 0.020255568 0.020622233 0.002641711 0.01089082 0.015655318 -0.0022605013 0.008588417
0.005448555 0.0187531 0.017106729 -0.0007374438 0.0063834004 0.0034276834 0.00045807785 0.008565622
0.011406604 0.0047223787 0.006016656 0.015960995 0.014591349 -0.009547872 0.010506775 0.010625602
0.022596741 0.011580642 0.015968153 -0.0024131862 0.016920043 0.0006654915 0.010506008 0.01593143
0.010808936 0.0058848 0.009824938 0.011432119 -0.0019318118 0.005477526 0.01442778 0.00039830006
0.0043863324 -0.0010510768 0.011387671 -0.0045654112 0.010326795 0.007698891 0.009320513 0.01903381
00000000: c242 253c f3a1 5c3c aac0 14ba 608b 433c
00000010: 3fa7 093c 4ae2 7dbb 796c 0c3b 6c79 9b3c
00000020: f88c 183b fd0d 6bba 5615 3b3b fb68 553c
00000030: db8d a93c 5fc1 a6bb 794d 803c 045e 953b
00000040: e239 853c 4fec cd3b d205 80bb b9a0 213c
00000050: 1373 4f3c fc0f 143c 188f cf3a e321 debb
00000060: b6a4 2e3c bb79 bb3b 1b94 0b3b 2ffc 373c
00000070: c1fb 2c3c cc53 9abb e47b ceba 964f 2c3c
00000080: 2f0c 073c 6f56 70bb 87d7 103c 25b9 143c
00000090: 2442 cc3b 2395 42bb d7bd 0a3c 74e5 1c3c
000000a0: 967e 833b 7d30 743c 4ba6 3c3c c79f c63b
000000b0: 153f 093c f293 893b 82b6 ff3b eb5d 4f3b
000000c0: 88f8 813c df33 383a c11a 703c 346f 0f3c
000000d0: 7666 6d3c 1847 8db9 b827 a3ba 6cd1 203c
000000e0: cb52 f73b cb55 953c 7c04 2a3c e0c5 793c
000000f0: e9e1 053c 6dae c8ba d4c5 763b 2939 763c
00000100: 9d4c b23c b508 173a 45e3 803c bec6 dd3a
00000110: aa5f e03b 92c0 c33b bf2e 19b9 08b8 893c
00000120: 7ddf 223c 4859 543c d887 55ba 9e47 35bb
00000130: bfa9 a63b 4c4e feba dd6b e238 1472 d33a
00000140: cd1a e33b 4793 4c3c 0359 353b 546c 503b
00000150: ed86 183c 9f37 f43b 7d56 0ab9 4d5d 1dbc
00000160: b56b 333c 0f44 a4bb b55f 4b3c 4369 653c
00000170: f553 213c e312 e1ba bb66 5d3c c880 303c
00000180: 9afc 713c d250 a83b 886e 49ba 2c9f 623c
00000190: 7195 b9bb 124a 573c cdf5 e33b 7054 993b
000001a0: 0e63 ee3b a805 843c b745 a13b 86a6 903c
000001b0: e21b af3b d10d f63b 0a0f f03b 5693 353c
000001c0: 7536 713b 7c2c 053c 6d84 2f3c 3c2c 48ba
000001d0: 58dd f13b 2cf7 873c ec4c 343c dc05 693c
000001e0: cc86 173a d762 663c 9702 293c d834 b7bb
000001f0: db0c 1e3c 6859 b73b df19 1b3c 676b 62ba
00000200: 1a69 4b3c 18a5 573c 905c 323c 9581 933b
00000210: b16a adb9 a09e 3f3c 839f d13b 6773 6f3c
00000220: d8b0 a83b cc8b 003c 6671 85bb 6e89 d33b
00000230: 7f93 cb3a 59cf 063c 2307 21b9 cd78 0a3c
00000240: b031 2e3c e832 aa3c 1cfc 653c a92c b93b
00000250: 384f 533c b019 113c a9c9 973b 4cbc 5a3c
00000260: 422e ed3b 3b28 dabb 9bff 8e3b cdcb 803c
00000270: f566 693b 0faf f33b c588 113c 0829 a73b
00000280: 230d 413b 2f92 473b 1af3 943b 75ee 99bb
00000290: d606 783c f53c 323b 4f39 863b 4301 8e3b
000002a0: 76c5 6d3b ed11 e03b 25a7 503c 0687 4d3b
000002b0: 8b7b d93b 357b fdba cbdf 2a3c e39d 3d3c
000002c0: 383d 4e3c f0a0 423b 1ea4 123b 8079 e1b9
000002d0: 65b2 e43b 767d a4bb 13d0 423c 8d0a 063c
000002e0: eba5 c73b 46b6 013c 4c34 863b f3a2 903c
000002f0: b7f4 503c 8700 a93b b7ba 973b 4735 743b
00000300: 4736 bcbb cbd5 a73a bfa9 563c 353d 913a
00000310: 4004 8d3b 14dd 733b 45f7 433c c658 a63b
00000320: 8a4a 4d3c abf0 1c3b 2175 483b dc94 023b
00000330: 151f 2b3a 5bb6 843a cd39 973b 7e2c 283c
00000340: 0b92 bd3a 01ef a53c f5ef a83c 8e20 2d3b
00000350: 696f 323c 953f 803c eb24 14bb 6fb6 0c3c
00000360: cb89 b23b 1aa0 993c 6923 8c3c 0451 41ba
00000370: d82b d13b fca2 603b 2b2a f039 d356 0c3c
00000380: c4e2 3a3c 2fbe 9a3b 5e27 c53b a2c0 823c
00000390: 8e10 6f3c ad6e 1cbc 9c24 2c3c 0117 2e3c
000003a0: cd1c b93c bcbc 3d3c a5cf 823c 8c26 1ebb
000003b0: e79b 8a3c 6174 2e3a 6421 2c3c a182 823c
000003c0: f717 313c 48d5 c03b c7f8 203c c84d 3b3c
000003d0: d934 fdba d27c b33b 7f62 6c3c eed2 d039
000003e0: 39bb 8f3b 49c4 89ba 5b93 3a3c 7299 95bb
000003f0: b831 293c fb46 fc3b 11b5 183c cbec 9b3c

network_body._body_endoder.seq_layers.2.weight f4 [256, 256]
0.015001744 -0.03502968 -0.08166451 0.0562519 0.030246865 -0.11326606 0.0057757925 -0.057044353
-0.16622365 -0.05547943 -0.08282299 0.044049323 -0.0056507527 0.14124705 0.023753416 -0.07967646
-0.00571117 -0.082319416 0.0031303377 -0.15816578 -0.017982868 0.065833226 0.061714135 -0.0932365
0.072125316 -0.014348178 -0.038994648 0.05591112 0.021070141 -0.02948763 -0.06267115 0.025836693
-0.0073992885 0.08004743 -0.050607238 0.04889657 -0.06668519 -0.17170155 0.0695845 -0.05395301
0.040716697 0.07518635 -0.08648038 0.013134686 0.025060892 0.016593413 0.07648671 0.007863089
-0.012070676 -0.062263876 0.0917451 -0.041026488 -0.015060629 0.02944588 0.106324986 -0.09933376
-0.04884402 0.08088584 -0.010981076 0.12448007 0.0223686 0.052027512 0.029448314 -0.058996614
0.079117715 0.05701679 -0.027289376 0.13595639 0.098954245 0.017753046 -0.063478015 -0.021037608
-0.018645989 -0.07742118 0.101001196 -0.030161416 0.016983172 -0.018443119 -0.10917083 -0.046151698
0.10922989 -0.038507145 -0.101627305 0.036218964 -0.019557154 0.1552972 -0.053431023 -0.029686367
0.024935842 -0.026898235 -0.008339488 -0.039549388 0.0003169786 -0.08399836 -0.0058504543 -0.04332312
-0.013492518 0.10174824 0.10844846 0.008952484 -0.023361605 0.03254863 -0.011830869 -0.027716616
-0.06909355 0.032199733 0.040787313 -0.018393753 -0.19836865 -0.11326295 0.11195766 -0.026213894
-0.0755847 0.09811158 -0.11147942 -0.0050537763 0.04212979 -0.009870789 -0.07488179 0.020243743
0.15444659 -0.022077693 -0.014766602 0.06814341 0.007462812 -0.021836432 -0.047183674 0.09068917
-0.08624577 0.079456866 0.08730178 0.036717128 -0.016327964 0.06265411 0.0010479578 0.08700536
0.016257318 0.11197004 0.09325679 0.055919904 0.046946958 0.11590486 0.02832548 0.005344526
-0.046225302 -0.053850498 0.053072732 0.03052669 -0.049338255 -0.012215634 -0.0066937595 -0.0574719
-0.06388737 0.043569796 0.11893309 -0.012772542 -9.2739065e-05 0.011816632 0.07169437 -0.1510258
0.029548615 -0.039215587 0.028285827 -0.0635986 0.03207872 -0.036305226 -0.0006368721 0.025456367
-0.0709908 0.085167795 -0.113442086 -0.035675712 0.07465593 -0.10971321 -0.023406625 -0.054093473
0.05408852 -0.027796255 0.07289642 0.07678834 0.0042826077 0.0054055913 0.021089874 -0.13778707
0.0021718629 0.12993892 0.041759226 -0.10936801 -0.09064082 0.050094742 0.07687588 0.019564364
0.0060449527 0.08288864 0.0029189198 3.0788236e-05 0.08806668 -0.06623051 -0.003886581 -0.018088512
-0.08625818 0.10111723 0.087606184 0.15676692 0.05814603 -0.0008972527 -0.11004041 0.09437259
0.1261275 0.04156252 -0.093527675 0.050602954 -0.037427064 0.04690563 -0.06984915 -0.11202778
0.09068422 0.008543546 0.060791027 0.07197752 -0.015133081 -0.046638757 0.031024832 -0.07416581
0.18591972 -0.018095955 0.09754785 0.009742343 -0.09124327 0.098987915 0.0020579305 -0.05754771
-0.042701874 -0.13349722 0.04534639 0.041824643 -0.013522702 0.055562135 0.028141296 0.026896542
-0.124975696 0.03326498 0.034666494 -0.07435265 -0.05172301 -0.11585532 -0.021101288 -0.104978435
-0.033303104 -0.022547351 -0.02432997 0.045990434 0.048930362 -0.018499311 -0.053271096 0.0711521
00000000: e0c9 753c 487b 0fbd b93f a7bd 6468 663d
00000010: 46c8 f73c 09f8 e7bd dc42 bd3b 57a7 69bd
00000020: 8836 2abe 663e 63bd 1a9f a9bd 106d 343d
00000030: f329 b9bb 11a3 103e 8696 c23c 692d a3bd
00000040: c424 bbbb 1597 a8bd 5a26 4d3b 36f6 21be
00000050: cf50 93bc 92d3 863d f6c7 7c3d c7f2 bebd
00000060: 70b6 933d 9f14 6bbc dab8 1fbd 0f03 653d
00000070: 4a9b ac3c 0b90 f1bc bb59 80bd 79a7 d33c
00000080: bb75 f2bb e8ef a33d 8949 4fbd c547 483d
00000090: 3f92 88bd 88d2 2fbe 5182 8e3d d5fd 5cbd
000000a0: 8dc6 263d 4dfb 993d a01c b1bd de32 573c
000000b0: 804c cd3c e9ee 873c 10a5 9c3d 30d4 003c
000000c0: 16c4 45bc 6808 7fbd dbe4 bb3d 640b 28bd
000000d0: dbc0 76bc 7c38 f13c eac0 d93d 806f cbbd
000000e0: ab10 48bd 7aa7 a53d f9e9 33bc 68ef fe3d
000000f0: 5b3e b73c cd1a 553d 973d f13c 6fa6 71bd
00000100: 7808 a23d 708a 693d f88d dfbc 2738 0b3e
00000110: 86a8 ca3d d66e 913c c300 82bd 1057 acbc
00000120: 79bf 98bc ff8e 9ebd b7d9 ce3d 1315 f7bc
00000130: 4b20 8b3c 0616 97bc f594 dfbd 9009 3dbd
00000140: ecb3 df3d abb9 1dbd fa21 d0bd 565a 143d
00000150: 5336 a0bc 3b06 1f3e 7dda 5abd d330 f3bc
00000160: 4046 cc3c b059 dcbc 59a2 08bc 8afe 21bd
00000170: 2630 a639 5507 acbd 2bb5 bfbb 9573 31bd
00000180: b90f 5dbc 6261 d03d 3a1a de3d 70ad 123c
00000190: d660 bfbc b651 053d 43d6 41bc f50d e3bc
000001a0: eb80 8dbd dee3 033d 9910 273d 7fae 96bc
000001b0: 2721 4bbe 68f6 e7bd 0f4a e53d 85be d6bc
000001c0: 27cc 9abd b9ee c83d 524f e4bd 269a a5bb
000001d0: 4990 2c3d 17b9 21bc a05b 99bd 35d6 a53c
000001e0: 3f27 1e3e 47dc b4bc 9eef 71bc c68e 8b3d
000001f0: 9b8a f43b 51e2 b2bc ab43 41bd 3ebb b93d
00000200: 9fa1 b0bd 48ba a23d 47cb b23d b364 163d
00000210: 39c2 85bc cc50 803d a15b 893a de2f b23d
00000220: 112e 853c 8c50 e53d 6afd be3d 450c 653d
00000230: 744b 403d 875f ed3d d60a e83c 2221 af3b
00000240: be56 3dbd 5792 5cbd cb62 593d 1c13 fa3c
00000250: e916 4abd 1524 48bc 5357 dbbb a867 6bbd
00000260: 62d7 82bd 3e76 323d 3193 f33d ed43 51bc
00000270: e87c c2b8 8c9a 413c 7fd4 923d 82a6 1abe
00000280: f00f f23c 86a0 20bd aeb7 e73c fc3f 82bd
00000290: fa64 033d cab4 14bd c3f3 26ba df89 d03c
000002a0: a063 91bd 746c ae3d 5354 e8bd b220 12bd
000002b0: 35e5 983d 52b1 e0bd 40bf bfbc 1e91 5dbd
000002c0: ed8b 5d3d f9b4 e3bc b84a 953d 3543 9d3d
000002d0: 1e55 8c3b 6321 b13b acc4 ac3c 0e18 0dbe
000002e0: d055 0e3b b50e 053e b90b 2b3d 56fc dfbd
000002f0: e5a1 b9bd 2530 4d3d 1a71 9d3d 7245 a03c
00000300: bd14 c63b 85c1 a93d 594b 3f3b 9e22 0138
00000310: 4e5c b43d dda3 87bd 02b6 7ebb 5c2e 94bc
00000320: 21a8 b0bd 8d16 cf3d df6a b33d 8287 203e
00000330: 882a 6e3d 9c35 6bba de5c e1bd 6b46 c13d
00000340: 9127 013e 763d 2a3d 708b bfbd 0b45 4f3d
00000350: 1f4d 19bd 1e20 403d 120d 8fbd d26e e5bd
00000360: a6b8 b93d 3bfa 0b3c 0300 793d f368 933d
00000370: bef0 77bc 4808 3fbd ca27 fe3c 3fe4 97bd
00000380: bd61 3e3e f83d 94bc 2bc7 c73d 599e 1f3c
00000390: c0dd babd 2dba ca3d 58de 063b 26b7 6bbd
000003a0: 29e8 2ebd 7fb3 08be 23bd 393d 5150 2b3d
000003b0: 538e 5dbc 1f95 633d 9388 e63c 2356 dc3c
000003c0: 42f3 ffbd dc40 083d 74fe 0d3d 3446 98bd
000003d0: 82db 53bd 8e45 edbd 9cdc acbc effe d6bd
000003e0: d668 08bd 39b5 b8bc a54f c7bc 7760 3c3d
000003f0: 346b 483d de8b 97bc cb32 5abd 31b8 913d
