Assets/Brain Models/DeciderAgent.onnx (onnx, 310502 bytes, 9 tensors)

95 f4 [1, 256, 128]
000000 7c 13 1c 3e d9 f0 ba 3c ce 8c 43 3e db ce 8b 3d
       0.15241808 0.022819923 0.19096681 0.06826564
000010 05 21 12 be 62 c5 62 bc 4c 2d f5 3d bc 87 7c 3d
       -0.14270408 -0.013841005 0.1197153 0.061652884
000020 a1 6d da 3d b9 c3 c9 3d 38 62 51 be 1d bc 84 3d
       0.10665441 0.09851784 -0.20447624 0.06481192
000030 49 b0 c6 bd 5a 44 74 bc 2e 54 13 3a 98 52 d2 3d
       -0.097015925 -0.014908874 0.0005620149 0.1026966
000040 bb 0b 3a be f4 bd 4c 3e 32 8a 0b 3d 7c 1c a2 bd
       -0.18168537 0.19994336 0.03406734 -0.07915589
000050 99 f2 14 3e 74 cb 77 3e ae 72 9b 3d d3 9c 8b bd
       0.14545669 0.24198705 0.07590233 -0.06817021
000060 a4 a1 da bd d4 2c 4a 3e d8 6f be 3c d5 cf 1c bd
       -0.10675362 0.19743663 0.02324669 -0.03828414
000070 22 47 79 3e 4f 99 03 3e 40 6d 0b bd 83 e6 7e bd
       0.24343541 0.12851451 -0.034039736 -0.06223155
000080 7d 57 b5 3d 42 5e 0b 3e e7 78 b3 3d e6 c3 b5 3c
       0.08854578 0.13610175 0.08763295 0.022188138
000090 40 5d d3 bc 7e ed f1 bc f6 69 39 3e ba 28 e8 3d
       -0.025801301 -0.02953219 0.18106827 0.11335893
0000a0 ae 6e b5 3d 7b 15 8c 3e 56 a2 d4 3d fc 87 60 3d
       0.08859001 0.27360138 0.103825256 0.054817185
0000b0 72 ca 7a 3e 5a d0 dc bb 02 39 c6 bd 1f 5b e8 3c
       0.2449129 -0.0067387046 -0.09678842 0.028363762
0000c0 ff 66 29 bc 17 69 49 3e 42 64 3f 3e 93 32 40 3d
       -0.010339498 0.19668995 0.18690589 0.04692323
0000d0 18 fe 8c 3d 5f db c4 bc 01 61 97 bd 3b 0c 84 3e
       0.06884402 -0.024030386 -0.07391549 0.2579058
0000e0 c4 8f 05 bd 05 8a 44 3e 51 af 67 3e e1 f2 0b 3e
       -0.03260781 0.19193275 0.22625472 0.1366687
0000f0 14 56 52 3d 68 5b 2d bd fe 3a a3 3c 95 1a d3 bd
       0.05135162 -0.0423235 0.01992559 -0.103078045
000100 98 56 54 3e 74 a7 76 3e ae be e7 3c 6f 37 18 3e
       0.20736158 0.24087316 0.028289165 0.14864896
000110 a3 ce 31 bd 96 24 30 3e d1 c9 fd 3c 34 c7 4e 3d
       -0.043409955 0.17201456 0.030980023 0.050482944
000120 00 f4 98 3d ef b3 0f 3d a9 d5 2a 3b 4f e0 32 3e
       0.07468414 0.035083707 0.0026067293 0.1746838
000130 4c aa 95 bc 62 e8 76 bd 8f a8 ad 3e b5 b3 fc 3b
       -0.01826968 -0.06028021 0.33917663 0.0077118524
000140 97 b1 c7 bd 34 ca fa bd 28 27 07 3e 0c c1 07 bd
       -0.097506694 -0.122455984 0.1319853 -0.03314309
000150 10 03 1e 3e 62 90 de 3d 83 3d 94 bd d9 39 51 3e
       0.15430856 0.108673826 -0.07238295 0.20432223
000160 ed cc 03 3e 8e d9 6f 3d b7 4f 1d 3e 46 6d 9c 3c
       0.12871142 0.058557086 0.1536244 0.019095074
000170 78 f4 97 3d f9 cd 97 3e 39 f4 11 3d de 5d 74 3e
       0.074196756 0.29649332 0.0356333 0.23863932
000180 84 36 3a 3b c3 09 b1 3e 74 38 02 3e 3c 88 8a 3c
       0.0028413842 0.3457776 0.12716848 0.016910665
000190 61 2f 1c be 0d 7e 64 3e 74 67 e8 3b 96 09 3d 3d
       -0.15252449 0.2231371 0.0070924107 0.04615172
0001a0 3d 99 8b 3d a1 d9 17 3c e2 df 35 3a 64 44 a2 3e
       0.06816337 0.009268195 0.0006937963 0.31692803
0001b0 fd 17 94 3d 00 88 ec bc d1 2e 70 3c 6d ab 59 3e
       0.07231138 -0.028873444 0.014659599 0.212568
0001c0 89 fa b5 3a 0b eb 3f bd a7 e1 ef bd 03 fe d0 bc
       0.0013883869 -0.046855014 -0.11712962 -0.025511747
0001d0 f5 35 7f 3c bb b9 05 be 46 76 00 3d 71 c6 6d 3e
       0.015576829 -0.13059132 0.031362794 0.2322023
0001e0 b6 55 09 3e cd 5c 7c 3e ca 5b 32 3e ee f8 9e 3e
       0.13411602 0.24644776 0.17417827 0.31049293
0001f0 12 a4 6c bd e4 33 4a 3e 18 ef d2 3d 4e f2 f1 3a
       -0.057773657 0.19746357 0.1029951 0.0018459053
000200 88 d5 9b bd b9 d8 2d be 61 93 55 bd ca 02 85 be
       -0.07609087 -0.16977204 -0.052142505 -0.2597869
000210 07 68 08 bf 8e fb bf bd 0d d7 fa bd 1c ab 8a be
       -0.53283733 -0.09374152 -0.12248049 -0.2708367
000220 98 45 94 3e 87 a1 39 be 7a 41 f3 3d b5 7a 73 be
       0.28959346 -0.18128024 0.11877723 -0.23777278
000230 cf cf 21 be 8d a4 31 3b e6 b6 5a 3e a3 35 55 3e
       -0.15801929 0.0027106137 0.21358833 0.20821242
000240 9f a3 46 bc f2 5b b7 be 84 e1 56 be 15 33 a7 3d
       -0.012123971 -0.35812336 -0.20984465 0.0816404
000250 82 d5 9c be 1e 22 95 ba 18 54 76 be 95 e5 4a 3d
       -0.30631644 -0.0011377966 -0.24055517 0.049535353
000260 f8 a7 be be 1f da d3 be 8b 93 25 bd 64 05 4a 3e
       -0.37237525 -0.4137735 -0.04042391 0.19728619
000270 69 41 60 3d 84 bb c2 bb b4 6e 49 be 2b f7 95 3e
       0.05474988 -0.0059427638 -0.19671136 0.29290137
000280 1a 88 33 be 9b 53 c0 be 98 a4 c5 3c c4 f3 09 bd
       -0.17532387 -0.37563786 0.024126336 -0.03367974
000290 31 1d 6e bd e3 8d f9 bc 85 50 92 3c 0a ec e9 3e
       -0.058133308 -0.030463165 0.01786066 0.45687896
0002a0 69 f1 9d 3d a6 39 58 be 69 52 54 3e 2c d4 e3 bb
       0.07712061 -0.21115741 0.20734562 -0.006952783
0002b0 eb 92 a9 bc c1 fa ce bd 42 e2 1d be 7c 2a 30 bc
       -0.020699939 -0.10106421 -0.15418342 -0.010752317
0002c0 32 a4 20 3d 20 04 96 3e 1c 5b 8e bd 34 5d e7 bd
       0.03921909 0.29300022 -0.069509715 -0.11297074
0002d0 70 e8 88 bd b2 d4 f5 3d af 9d ab be cd 82 97 3d
       -0.06684959 0.12003459 -0.3351874 0.07397995
0002e0 c0 c5 89 3d 4a e3 30 be 1d 3e c8 be 8b 88 f8 bd
       0.06727171 -0.17274204 -0.3910989 -0.121354185
0002f0 4e 74 ba be c6 dd 35 bd 4b a3 bf bd fe f7 c2 bd
       -0.36416858 -0.044400953 -0.093573175 -0.09519957
000300 76 f0 bd bd 90 cf 50 be 9d f1 5d be e8 ee 86 be
       -0.0927438 -0.20391679 -0.216742 -0.26354146
000310 3b df be 3d e2 e5 1b be 52 96 1d be 5f 45 ee 3d
       0.093199216 -0.15224412 -0.15389374 0.11634325
000320 3f 23 fc 3d 3a f5 00 3d 02 a0 b9 be 14 e1 9e 3c
       0.1231141 0.031483866 -0.3625489 0.019394435
000330 e9 6a 91 be 19 3e 92 be 4c 32 04 bd 29 ed 21 be
       -0.28401878 -0.28563002 -0.03227453 -0.15813126
000340 04 2d 5c be b9 e5 96 3d 8d 89 49 be c2 14 3c be
       -0.21501547 0.07368035 -0.19681378 -0.18367293
000350 04 5c d2 bd af a8 5d 3e 50 30 b1 be 9b 09 2f 3e
       -0.10271457 0.21646379 -0.34607172 0.17093508
000360 62 48 66 be 64 e7 18 be b3 95 9a 3e f2 17 48 3e
       -0.2248855 -0.14932019 0.30192336 0.19540384
000370 43 45 0b bd db e0 4b 3d 68 f5 b6 be 0d 6a 72 bc
       -0.0340016 0.049774986 -0.35734105 -0.014795792
000380 ec 70 34 be 1f 45 45 be 84 27 b3 be 78 00 b1 be
       -0.17621201 -0.19264649 -0.34991086 -0.3457067
000390 f7 74 c2 be bf f2 08 be a9 9e 4f 3e 2b f5 8d be
       -0.37979862 -0.1337385 0.20275368 -0.2772611
0003a0 6f 09 bc be cc c7 8c 3d e3 64 78 be 9b 5c c3 be
       -0.36725947 0.06874046 -0.24257235 -0.3815659
0003b0 45 21 5d bd 55 23 24 bd c9 99 01 3d ee 9a 41 3e
       -0.053986806 -0.040072758 0.0316408 0.18906757
0003c0 b9 f8 39 3e 7d 77 57 be 30 88 00 3f 73 76 ef bd
       0.18161286 -0.21041675 0.50207806 -0.11692514
0003d0 41 95 dd be 06 e4 0b 3e d1 db 85 3e 53 d2 c9 be
       -0.43277934 0.13661203 0.2614427 -0.39418277
0003e0 5c 16 7e bd ad 17 35 be 6a 06 31 3d ad 4a 99 bd
       -0.062033042 -0.17684813 0.043219008 -0.074849464
0003f0 41 e7 00 bd a6 e3 16 3d fc 62 7c bd 29 70 8a 3c
       -0.03147054 0.036838196 -0.061617836 0.016899185

96 f4 [1, 256, 64]
000000 e4 4a 0b be 1b eb 2c 3e f0 cf 8b 3e b7 a6 67 be
       -0.13602787 0.1688656 0.2730708 -0.2262219
000010 0c ef 29 be fc 0a fe 3d 79 be 43 3b da 2b 14 be
       -0.16595095 0.12404439 0.002986817 -0.14469853
000020 1b 75 3f 3e 8d aa ca bc 75 ab ed 3d 1f ab a6 3d
       0.18697016 -0.024739528 0.116049685 0.081381075
000030 02 5a 0d be 43 d7 3b bd d5 d6 8c be 82 36 00 bd
       -0.13803867 -0.045859586 -0.27507654 -0.031301983
000040 1b 7e 88 bd 13 76 20 be 1f 43 9a 3c 49 56 88 be
       -0.06664678 -0.15670042 0.018830834 -0.2662833
000050 0c 8e b3 bd 0d 7b 2f be 4a 02 35 3e ad 97 00 be
       -0.08767328 -0.17136784 0.17676654 -0.1255786
000060 f6 6f 2d bd f5 65 53 3e 96 46 e1 3d a0 11 2e be
       -0.042343102 0.20644362 0.10999791 -0.16998911
000070 da 76 af 3d d4 38 01 3e 8f ea cd bd 3b 77 07 bd
       0.08567591 0.12619334 -0.10054504 -0.03307269
000080 b9 bf ea 3d 95 b9 55 be 46 fe 53 3e 56 9a 04 be
       0.114623494 -0.20871575 0.20702466 -0.129495
000090 53 1a 34 3c b4 6a 17 be 55 66 f3 3c 9b 53 8c be
       0.010992604 -0.14786798 0.029711882 -0.27407536
0000a0 a1 2a 21 be 62 b2 b3 bd 72 9e e1 bd be 6f a2 bd
       -0.15738918 -0.08774258 -0.11016549 -0.079314694
0000b0 0f 4a cd bd 55 b4 e2 3c 85 f0 96 3d 09 4a da bd
       -0.10023891 0.02767388 0.07370094 -0.10658652
0000c0 f6 61 10 bd bc 29 3f 3e d6 a2 17 be e9 f4 23 3e
       -0.035249673 0.18668264 -0.1480821 0.16011395
0000d0 f8 6b 21 be 8c 75 9c 3d 93 90 6a bd 01 79 6b be
       -0.15763843 0.07639608 -0.057266783 -0.22995378
0000e0 df e6 ab 3d ad 35 b1 bc 37 77 31 be 72 b3 03 be
       0.083936445 -0.02163204 -0.17330633 -0.12861422
0000f0 bd 17 3b 3e bf be bb bc ff f3 a7 3b ab d7 43 bd
       0.18270774 -0.022918103 0.005125522 -0.0478131
000100 5c 54 0a be 37 10 72 3d ad d9 a1 be c8 50 68 3e
       -0.13508743 0.059097495 -0.31611386 0.22687066
000110 e2 e0 df 3e b8 71 6c be 6f 23 6f 3e da 1c 9e 3e
       0.4372626 -0.23090255 0.2335336 0.30881387
000120 0c 31 8b be c5 a1 d3 be 22 2a 8b 3c 17 49 a9 3e
       -0.27185857 -0.41334358 0.016987864 0.33063576
000130 5e 55 70 3e c2 23 12 3e ab 6e 37 bd 56 ce 55 3e
       0.23470065 0.14271453 -0.044783276 0.20879492
000140 8a 6f f2 3d e6 cc 31 be bd 14 42 be cb 44 b6 3e
       0.11837681 -0.17363319 -0.18953224 0.3559936
000150 05 4e 67 3e e7 a9 58 be 49 d0 0f bd b8 ac 17 3d
       0.22588356 -0.21158563 -0.035110746 0.03702995
000160 58 e0 b7 3d fd 98 83 be c4 ec ef bd a1 50 9c 3e
       0.08978337 -0.25702658 -0.11715081 0.30530265
000170 3d 07 94 3e c9 a7 30 3e 72 69 a5 bd e9 d9 5c 3e
       0.28911772 0.17251505 -0.08076753 0.21567501
000180 e6 86 40 be 44 6d 5f 3c 1b c9 42 be 17 b4 a1 bd
       -0.1880146 0.013636891 -0.19022028 -0.078956775
000190 75 63 38 3e 0e 75 b1 3d bf 68 17 3f fc 7a 38 be
       0.1800669 0.086649045 0.59144205 -0.18015665
0001a0 50 a2 31 be 40 bc 92 be 96 d9 9d bd 00 7f 72 be
       -0.17347074 -0.28659248 -0.07707517 -0.23681259
0001b0 40 f5 58 3d 2c 59 7a 3e 2b ba 2c be 83 17 10 3e
       0.052968264 0.24448079 -0.16867892 0.14071469
0001c0 5f 2f e9 3e b4 48 0b bf dc 21 64 be 66 4d 6a 3d
       0.45543954 -0.5440781 -0.22278541 0.05720272
0001d0 b6 0c 71 3e 38 41 1e 3e 25 0d eb 3d f8 65 5e 3e
       0.23540005 0.15454566 0.114771165 0.21718585
0001e0 d1 cb f3 bd e6 9a 6d 3e ff 60 f0 3c 90 ae fb 3a
       -0.11904109 0.2320362 0.029343126 0.0019201804
0001f0 2b 7f d0 3d fb f0 b7 bd 74 e7 fb 3d a3 79 de bd
       0.10180505 -0.0898151 0.123000056 -0.10863044
000200 5a dd 8f 3c 2b 80 29 3e 8c 6d 2e 3d 83 45 d8 3e
       0.017561603 0.16552798 0.04258494 0.42240533
000210 50 9b 80 be 70 64 b7 3d 96 2d d8 3d 41 85 57 be
       -0.25118494 0.08954704 0.1055557 -0.21046926
000220 a0 2b aa be af 81 bc 3d ef 4d 64 ba 0b 27 54 bc
       -0.33236408 0.09204423 -0.0008709123 -0.012948762
000230 7d 37 a7 ba 5a de 0a 3f 6b c5 19 3e 16 60 e6 bd
       -0.0012757626 0.5424553 0.15016715 -0.11248796
000240 d8 56 89 bd e9 c0 77 be 68 86 8a 3d 1c 9b 93 3e
       -0.06706017 -0.24194683 0.06763917 0.28829277
000250 0e aa 19 3e 7b 56 02 bd ce 00 19 be 4f 16 0d bd
       0.15006277 -0.031820755 -0.14941713 -0.034445103
000260 85 47 e3 3d fe 16 45 3d f3 7b a2 be 55 b0 34 3c
       0.11097626 0.04811763 -0.3173519 0.011028369
000270 be de 5d 3e d8 d3 76 3d 0a cd 07 3e c0 94 2f 3d
       0.21667 0.060260624 0.1326181 0.04286647
000280 6c c8 6f 3e 20 5d 0b 3e c2 e4 54 3e b6 b7 69 bd
       0.23416299 0.13609743 0.20790389 -0.057059966
000290 b7 c0 38 3e f6 b1 b2 be d2 30 8b 3d b0 e4 7e 3d
       0.18042265 -0.34901398 0.06796421 0.062229812
0002a0 e6 f2 5e 3d 9f f6 49 be 68 2f b6 3c 9e 69 92 3d
       0.054430865 -0.19722985 0.022239402 0.07149051
0002b0 b5 7b c3 3d 29 e8 ac 3d c8 9f 19 3e eb bf 5b 3e
       0.095450796 0.084427185 0.15002358 0.2145993
0002c0 ec 4e 03 be 2f 16 84 3d 59 a5 df bd 1e 4f 57 3e
       -0.12823075 0.06449544 -0.109202094 0.21026275
0002d0 24 ba 92 3e 9a 67 9e 3d 70 a0 7e 3d 33 e0 3c 3d
       0.2865764 0.07734604 0.062164724 0.04611225
0002e0 44 c2 b0 3d 9c 5b 68 bc 13 ae 73 3e a2 9c 71 3e
       0.08630803 -0.014181998 0.23796873 0.23594907
0002f0 7b 81 4b be aa f7 f3 3d dc 68 9f bd d1 b7 db 3e
       -0.19873612 0.119124725 -0.07783672 0.42913678
000300 e8 a8 64 bd 5e 1b 91 be 3b 48 7c 3e c0 05 a0 be
       -0.055825144 -0.28341192 0.24636929 -0.31254387
000310 0d 3e 6c be f7 14 cb 3c 84 15 93 be 31 d8 ae bd
       -0.23070545 0.02479027 -0.28727353 -0.08537329
000320 33 2c c6 3c 41 1c b1 3d d3 df 04 3e d2 e1 f3 3c
       0.024190998 0.08647967 0.12976007 0.029770765
000330 14 d3 92 be 2b 1d a2 3e 1a 0d 2d be 99 29 71 3e
       -0.28676665 0.31662878 -0.16899529 0.23551024
000340 23 6b 1e be a1 30 92 bc f9 84 39 bd 6b 38 44 be
       -0.15470557 -0.017845454 -0.04529283 -0.19162147
000350 9a b0 92 3e 30 21 9b 3e e1 80 7b bd ff 86 e7 3c
       0.2865036 0.30298758 -0.061402205 0.028262613
000360 f8 bd 99 be e8 9f 8a be 4c 48 f7 bc d9 dc 17 3e
       -0.30027747 -0.27075124 -0.030185841 0.1483034
000370 4c 52 2d 3e 7e 92 b3 3d bb 62 58 3d 4e 34 83 3d
       0.16925925 0.087681755 0.05282853 0.06406461
000380 2b 51 46 bd f4 29 28 3e a8 18 a5 be b0 fd e5 bd
       -0.04841725 0.16422254 -0.32245374 -0.11230028
000390 51 04 7b 3e b5 27 9e bc e6 b3 b1 bd 13 0b 33 3e
       0.24513365 -0.019306043 -0.08676891 0.17484693
0003a0 4a 43 cc bc 75 1f 95 3c 18 d3 77 be b5 c6 23 be
       -0.02493443 0.018203476 -0.2420162 -0.1599377
0003b0 25 7b 2f be 73 bc 67 bd aa 97 a8 3d 52 63 6c be
       -0.1713682 -0.056576204 0.082320526 -0.23084763
0003c0 b7 d6 be bd e5 aa 8e 3e ea f8 0c 3e 4d be 9d 3d
       -0.09318297 0.27864757 0.13766828 0.077023126
0003d0 2d b8 bb be 50 4b 48 3e 7e f7 35 3d ec 00 02 3e
       -0.36663952 0.1955998 0.04442548 0.12695664
0003e0 db ed 60 be 72 e8 b0 3d 1a cf 7a 3e 8a 34 53 be
       -0.21965735 0.086380854 0.24493065 -0.20625511
0003f0 07 4e 88 bc 75 42 86 be cb 38 98 be 0c b3 d1 bd
       -0.016638769 -0.26222578 -0.2973083 -0.102392286

97 f4 [1, 512]
000000 ea 20 cb 3d 83 01 2a bd 21 9a 03 3e 76 0c 56 3e
       0.09918387 -0.041505348 0.12851764 0.20903191
000010 8c 62 a0 3d d6 7a 08 be b2 a2 92 3b 4b 7b 9e bd
       0.07831296 -0.13328108 0.004474961 -0.0773836
000020 80 3a 74 3d ab 50 01 3e 05 1b d9 3d ec 4f d8 bc
       0.059626102 0.12628429 0.10600857 -0.026405297
000030 81 df 60 bc bc ea d2 bd 18 dd 8c 3e 81 bc eb 3b
       -0.0137251625 -0.10298678 0.2751243 0.0071941023
000040 90 c6 8e 3e fb 94 30 bd 17 b3 2d be 36 3e ad 3c
       0.27885866 -0.04311083 -0.16962849 0.021147829
000050 ed e5 9e 3d 34 b7 27 3c 90 a7 1f 3e 85 53 75 bd
       0.077586986 0.01023655 0.15591264 -0.059894104
000060 6a 95 1e 3e f4 15 34 3e 54 f4 29 be ad 39 39 be
       0.15486684 0.175865 -0.1659711 -0.18088408
000070 75 1d 4f bd d9 8c 9b be 4e ca 5f 3d 4a da e4 3b
       -0.0505652 -0.30380896 0.054636292 0.00698403
000080 8c 22 81 3e 29 4b 0d 3e b7 94 e1 bd 23 1b 2b be
       0.2522167 0.13798203 -0.11014693 -0.1670957
000090 12 e8 4b 3d 3b 63 a3 3d dd 26 76 3d 61 b3 f0 3c
       0.049781866 0.07977911 0.060095657 0.02938241
0000a0 60 69 e2 3b 5d c2 0e 3d de 4c 29 3d 92 6a 2c be
       0.0069095343 0.034853328 0.041333072 -0.16837528
0000b0 ad 2e 3e 3e 06 40 48 3d 2a 36 4c bd 1c 20 56 be
       0.18572493 0.048889183 -0.049856342 -0.20910686
0000c0 fd 7b 07 be be cf a4 be 0d 6f 72 3e 54 49 4c 3e
       -0.13230892 -0.32189745 0.23675175 0.19949847
0000d0 54 ad 3d 3e 12 b5 8e 3d 71 49 46 3e 2b b4 d8 bc
       0.1852315 0.0696813 0.19363953 -0.026453098
0000e0 e0 0f 1c 3c ef 3a 24 3d 13 2e 7e 3b 68 0e 7e 3d
       0.009525269 0.040095266 0.0038784787 0.062025458
0000f0 c3 db 5a bd 2c 7c 24 3e 5a 5a 86 bd 7a 4a c4 bd
       -0.053432237 0.16062993 -0.06560202 -0.09584518
000100 2c 1b d4 bc bd b4 fe bd ac c0 33 3e e0 af ad 3d
       -0.025891863 -0.12436817 0.17553967 0.08480811
000110 d3 34 a8 3e 69 0f d8 bd c4 92 c3 3e ae e2 95 be
       0.32852802 -0.10549814 0.3819791 -0.29274505
000120 6d be c6 3d 6b 15 54 3d 6b cd db bd b6 f4 2f be
       0.097042896 0.05177824 -0.1073254 -0.17183194
000130 a2 db 36 bd c3 b3 aa 3d e2 86 c8 3e 04 c8 0f be
       -0.044643052 0.08335068 0.39165407 -0.14041144
000140 e5 4d 2d be 01 7f ad be 2d 8f 99 3d 79 0e c4 bd
       -0.16924246 -0.3388596 0.07498012 -0.09573073
000150 6d ab 34 be ca f7 5d 3c 1d 6a be 3d 04 a1 01 3e
       -0.17643519 0.013547847 0.09297583 0.12659079
000160 fb 25 a1 bd a4 8e 7c 3e 24 ca 8a 3d 72 26 dc 3c
       -0.07868572 0.24663788 0.067768365 0.0268738
000170 ac 15 f2 bd 87 89 2e be f6 40 ca 3d 6a 6c 13 3d
       -0.1182054 -0.1704465 0.098756716 0.035992064
000180 e1 c0 53 3e 40 35 7f be ca f8 11 bd 6c bd bc 3c
       0.20679046 -0.24922657 -0.035637654 0.023039542
000190 0c 75 97 3d 46 b5 39 be eb 46 30 3d 2d 0f 21 3d
       0.07395372 -0.18135557 0.043036383 0.039321113
0001a0 ea 11 69 3e 77 42 89 3e 80 ca 40 3d 63 4b d4 3d
       0.2276074 0.2680852 0.04706812 0.103659414
0001b0 60 b0 56 3d e0 e5 25 be 6e 23 eb 3d e4 f3 61 be
       0.052414298 -0.16200972 0.11481367 -0.22065693
0001c0 23 19 99 be 11 63 71 3b e7 83 95 bd 68 71 e4 3d
       -0.2990199 0.003683273 -0.07300549 0.11154443
0001d0 c7 e1 37 be ff 75 0d be 72 5b 50 bd 46 13 a6 be
       -0.17957221 -0.13814543 -0.05086846 -0.3243658
0001e0 71 86 04 be 5c 39 0e bc 55 14 01 3e 05 65 82 bd
       -0.1294191 -0.008680668 0.12605412 -0.06366924
0001f0 b1 60 07 3e 2d 25 8a 3d 19 d9 ff bc 89 ff 00 be
       0.13220479 0.06745372 -0.03123145 -0.12597479
000200 56 fe 81 3f 27 52 72 3f d8 a1 8e 3f 71 3d 9a 3f
       1.0155742 0.94656605 1.1143141 1.205
000210 c2 50 8b 3f a6 20 70 3f 69 21 7f 3f 25 11 7f 3f
       1.088402 0.9379982 0.99660355 0.99635535
000220 cd 96 8b 3f 59 fb 64 3f c1 2e 8a 3f 9c 06 3d 3f
       1.0905396 0.89446026 1.0795518 0.7383821
000230 f4 e6 8f 3f 1a fd 68 3f 60 c9 80 3f 93 ea 58 3f
       1.1242356 0.910112 1.0061455 0.8473293
000240 08 b1 86 3f eb c6 68 3f cc 33 99 3f 45 fc 8b 3f
       1.0522776 0.90928525 1.1968932 1.0936362
000250 24 17 81 3f e1 62 6c 3f 7c 6a 83 3f 4a 0e 93 3f
       1.0085187 0.9233838 1.0266871 1.1488736
000260 1e e3 7b 3f 16 c3 8a 3f f0 f4 93 3f 80 48 71 3f
       0.9839343 1.0840786 1.1559124 0.9425125
000270 ad e4 86 3f 2f 65 93 3f 6a 56 6a 3f 28 e4 68 3f
       1.0538536 1.1515254 0.9153811 0.9097314
000280 a9 d5 79 3f 76 b4 8e 3f b5 f5 90 3f f4 73 8c 3f
       0.97591645 1.1148822 1.1324984 1.0972886
000290 59 7d 82 3f cd d3 8d 3f 49 b9 8d 3f 58 ca 86 3f
       1.0194503 1.1080261 1.107217 1.05305
0002a0 8e cf 82 3f ac 8b 84 3f 79 9d 6b 3f 88 b9 86 3f
       1.0219591 1.0355124 0.9203716 1.052537
0002b0 81 dc 66 3f 0c 47 70 3f d8 5f 88 3f bd fd 8b 3f
       0.9018021 0.9385841 1.0654249 1.093681
0002c0 2a 59 87 3f cc 92 85 3f 8c f9 7c 3f e3 09 76 3f
       1.0574086 1.0435424 0.9881828 0.96108836
0002d0 46 7a 8c 3f 32 6f 8a 3f 0f 9d 89 3f ee 7e 6e 3f
       1.0974815 1.0815184 1.0751055 0.9316243
0002e0 a0 11 5a 3f 49 f7 66 3f ac 95 74 3f 47 ef 8a 3f
       0.85183144 0.9022108 0.9554088 1.0854272
0002f0 7d 8b 8a 3f 29 4b 6b 3f 10 d6 56 3f 68 2a 5f 3f
       1.0823818 0.9191156 0.83920383 0.8717408
000300 c4 e9 08 be 9c 78 13 be df a1 cd 3d 6a 2d d0 3d
       -0.13370425 -0.14401478 0.1004064 0.10164912
000310 c0 3d 6f bd 6e 03 f3 bc ee fc 38 bd df 5c 99 be
       -0.0584085 -0.029664721 -0.045163088 -0.29953668
000320 10 5a 91 3d da 22 8a bd da e9 86 3d 67 dd a8 bd
       0.07097256 -0.06744929 0.065875724 -0.08245354
000330 85 f0 8d bd db 41 07 3e f7 6f 01 be d5 61 a1 3d
       -0.06930641 0.13208716 -0.12640367 0.07879988
000340 d6 c6 50 be 1b a4 bb 3d eb 32 d6 bd 4a 41 a4 3d
       -0.2038835 0.0916216 -0.104589306 0.080202654
000350 6d 79 4a bd ef 67 70 3d 52 dd 8c 3e a4 27 49 bd
       -0.049432207 0.05869287 0.27512604 -0.04911007
000360 a8 42 7a 3c 99 fa a8 3d 45 4b a5 3d 66 17 17 be
       0.015274681 0.08250923 0.08070997 -0.1475502
000370 ce b9 ca 3d ac df 55 bd 58 1e 85 3e db 34 f3 3c
       0.09898721 -0.052215263 0.25999713 0.02968829
000380 73 07 2b 3e 65 b6 92 bd ff aa 88 bd 5c 9f 0c 3e
       0.1670206 -0.07163695 -0.0667324 0.13732666
000390 00 63 7a bd 36 07 de bd 48 da 5d 3c c7 cb d7 3b
       -0.06112957 -0.10841219 0.013540812 0.0065855714
0003a0 c3 e2 44 be cd 30 c1 3e 93 a5 05 be c4 f5 e1 bd
       -0.19227128 0.37732545 -0.13051443 -0.11033204
0003b0 f0 14 0e be 06 05 8a 3c 0e be 9d 3d b8 ab 59 be
       -0.13875175 0.016848098 0.07702266 -0.21256912
0003c0 1c 44 d6 bc 5c 54 c9 3b 2a 15 7f 3d 26 02 af bc
       -0.026155524 0.0061440896 0.062276043 -0.02136333
0003d0 eb 4b 9a bd b0 a2 07 bd d5 94 45 be 6d 25 fe bc
       -0.075340115 -0.033114135 -0.19295056 -0.031023705
0003e0 e8 f4 cd bd e9 43 6b be 6e 78 35 bd 59 75 12 bd
       -0.10056478 -0.22975124 -0.044304304 -0.035756443
0003f0 fc d5 fd bb f5 a0 a5 bd d1 50 30 be cb 80 73 be
       -0.007746456 -0.08087341 -0.17218329 -0.237796

action_model._discrete_distribution.branches.0.bias f4 [5]
000000 1f 6a b6 be 59 b3 77 bf 1a 8c dc be 18 8b ab be
       -0.3562784 -0.9675804 -0.4307564 -0.33504558
000010 bc ef 01 40
       2.0302572

action_model._discrete_distribution.branches.0.weight f4 [5, 64]
000000 70 58 05 3e 63 6a b6 3e 5f 0a db 3e 45 59 e6 3e
       0.13022017 0.35628042 0.4278135 0.44989982
000010 a4 9f 16 bf c0 27 31 be 51 e9 60 bd 19 0f ad bf
       -0.5883734 -0.1730032 -0.054910008 -1.3520232
000020 51 a5 3c 3f ce e4 6b be b1 dd 81 3f 54 41 43 bf
       0.7368975 -0.23036501 1.014578 -0.7627156
000030 e7 c6 5a 3e d7 5d ee be b4 bf 93 bd 23 40 85 3f
       0.21364938 -0.4655597 -0.07214299 1.0410198
000040 27 09 11 bf 07 b7 20 3f 95 a6 f8 3e 60 ed 1b be
       -0.5665459 0.6277928 0.48564592 -0.1522727
000050 da 58 31 bf 29 ef 61 be 6f 16 c9 be ec 96 a7 be
       -0.692762 -0.22063889 -0.39274928 -0.32732332
000060 24 14 c6 be 09 8c 54 3d 27 21 af 3d c7 d4 44 3f
       -0.3868724 0.05189136 0.08551245 0.7688717
000070 71 f1 87 3e 39 1f 64 3d 68 91 d2 3e 21 3c 38 3f
       0.26551393 0.05569384 0.4112656 0.7196675
000080 ad 1b 27 bf 60 25 4d bf c7 40 29 3f be 12 51 bf
       -0.65276605 -0.80135155 0.6611447 -0.81669223
000090 40 b4 ca be 3f 2b 01 3f ca 99 a0 3e 38 a0 56 3e
       -0.39590645 0.50456613 0.31367332 0.20959556
0000a0 b0 f3 2a 3f a1 16 f2 be 5e 06 0a 3f d2 78 84 bf
       0.6677809 -0.4728289 0.53915966 -1.0349371
0000b0 13 4f b4 3e a5 d7 db be a7 c8 85 bf 4f 22 03 3f
       0.3521658 -0.4293796 -1.0451859 0.51224226
0000c0 0d 8c b8 be b0 b5 e8 3e 13 c8 67 3f db ff ce be
       -0.3604435 0.45451117 0.90539664 -0.40429577
0000d0 4e 2c a0 3e 73 6d 8a 3e 20 d1 ac 3c 88 2c 03 bf
       0.31283802 0.27036628 0.021095812 -0.51239824
0000e0 06 90 6d 3f ea 29 2c bf b0 3c cf 3e a3 9f 43 3f
       0.9279789 -0.67251456 0.40475988 0.7641546
0000f0 fc 77 84 be 7d a0 4a 3e 0d c7 1d be 62 7a 55 3e
       -0.2587279 0.19787784 -0.15407963 0.20847467
000100 3a ae a7 3e eb 96 18 3f 54 ea d6 be ba dd f1 be
       0.32750112 0.5960528 -0.41975653 -0.47239476
000110 31 63 d9 3e b7 69 0d bf 47 fc f9 3e 60 77 1c 3f
       0.4245849 -0.55239433 0.48825285 0.6111965
000120 67 b1 00 bf 8f 29 1a 3d 38 04 4a 3f 6d a3 80 3c
       -0.50270694 0.03763729 0.7891269 0.015702927
000130 19 8b 36 bf 8a 61 3f 3f 8c b5 51 bd 30 0f 0a bf
       -0.71305996 0.7475821 -0.051198527 -0.53929424
000140 c3 bb 59 3e 58 2f 69 be 5a 61 33 bf fd b4 a3 be
       0.21263032 -0.22771966 -0.7007042 -0.3197402
000150 a3 4e ab be 7b b0 94 be cc b4 13 bf 35 71 41 3e
       -0.33458433 -0.29040894 -0.5769775 0.18890841
000160 89 65 ff bd de 05 c2 be 46 40 94 be 1c d9 01 bf
       -0.12470538 -0.378951 -0.28955287 -0.5072191
000170 4d 73 07 3f 99 35 92 bf c3 6e 34 bd 14 a0 b3 bd
       0.5291031 -1.1422607 -0.044050943 -0.08770767
000180 c6 2f b1 be dc 11 75 bd b2 e3 f5 3e 71 d7 0a 3f
       -0.3460676 -0.059831485 0.4802528 0.5423499
000190 58 7d af be df f9 f0 3d 89 68 bd 3e 8b 76 56 bf
       -0.34275317 0.11766409 0.36993816 -0.8377463
0001a0 c5 96 e3 3d d9 a5 87 bf 51 c0 31 bd 62 0f 04 3f
       0.111127414 -1.0597488 -0.043396298 0.5158597
0001b0 bb c9 48 3d f9 4c d4 3c 61 a9 04 3f f2 57 58 3f
       0.04902051 0.02591561 0.5182095 0.84509194
0001c0 81 e9 49 3f 0c 29 b8 be a6 e0 0c 3d 21 63 0c 3e
       0.78871924 -0.35968816 0.03439393 0.1370969
0001d0 eb c2 52 3f 4f 8a f8 be 3a bc 53 be 43 7d 20 bf
       0.8232867 -0.4854302 -0.20677271 -0.62691134
0001e0 4d cb fb bd 8d a2 3d 3f 3d f1 e5 3e 5e 2c 30 bf
       -0.12294636 0.7407616 0.44910613 -0.688177
0001f0 43 29 48 bf 48 20 2b 3f 5b c8 d6 3e a6 b0 ba 3e
       -0.7818796 0.6684613 0.41949734 0.36462897
000200 ff 33 b6 be 0d 36 07 bf 17 93 e4 be 76 14 3c 3f
       -0.35586545 -0.5281685 -0.4464347 0.7346872
000210 99 23 13 3f 3f f7 80 3e 3e 42 27 3e 29 93 80 3d
       0.5747619 0.25188634 0.16333863 0.062780686
000220 8a f9 13 bf fc bb 04 3f 8e e1 45 bf 56 0c 79 3f
       -0.5780264 0.5184934 -0.77297294 0.9728445
000230 1d 00 96 3e 70 28 6e bd e9 ee 2f 3f b3 0b 2c bf
       0.2929696 -0.058144033 0.6872392 -0.6720535
000240 15 07 3b bf 9e 12 8a bd d1 ff 23 3f b9 bf b0 be
       -0.7305768 -0.06741832 0.6406222 -0.34521273
000250 b1 63 62 3f 3d 6c 09 3f 81 62 4a bf 73 1c b6 3e
       0.88433367 0.53680784 -0.79056555 0.3556858
000260 64 68 d8 be 38 b1 07 3f e1 95 4a be df 66 70 3f
       -0.42267144 0.5300479 -0.19783737 0.9390697
000270 53 d7 c4 be 8f 6a 5f 3f 09 d8 25 bf 37 01 89 bf
       -0.3844553 0.8727197 -0.6478277 -1.0703496
000280 71 21 d2 bd dd bf 6d 3f df d6 48 bf 2c 29 ed 3e
       -0.10260285 0.92870885 -0.7845287 0.46320474
000290 81 0a b6 3c 40 ad fa 3d e6 5c c0 3e 08 a7 64 be
       0.022221806 0.12240076 0.37570876 -0.22329342
0002a0 dc 98 3e 3e ad b0 49 3e 88 33 51 3f e4 bc d2 bd
       0.18612999 0.19696303 0.81719255 -0.10289934
0002b0 03 83 00 bf b2 6b 80 3e 1d 77 a0 be 3f c9 63 bf
       -0.5019991 0.25082165 -0.31340876 -0.8897895
0002c0 f8 aa 5b be c5 42 ed be be 67 5c bf 9d 96 26 bf
       -0.21451938 -0.46340004 -0.860958 -0.6507357
0002d0 8a 03 18 be f8 d0 32 3f bb 96 73 3f 8e ad 76 3f
       -0.148451 0.6985011 0.9515187 0.96358573
0002e0 0d 96 7f be 5e 3c ed 3e b5 5a 8d 3f e3 99 a1 be
       -0.24959584 0.4633512 1.1043307 -0.3156272
0002f0 03 33 22 3f 80 44 3e 3e 94 e6 d2 3d 5e cd e5 be
       0.6335909 0.18580818 0.102978855 -0.44883245
000300 46 5f 9b be 0c 3c a1 3e ce 3a 93 bc 9d 3a 62 bf
       -0.30346125 0.31491125 -0.017972376 -0.88370687
000310 6a 13 eb 3e 5a db 4a 3e 9b f8 fb 3d d5 62 12 3f
       0.4591325 0.19810238 0.12303277 0.57182056
000320 f9 99 14 be cc 91 13 bf 35 c3 6e bf 8c 9b 58 be
       -0.14511861 -0.57644343 -0.9326661 -0.21153086
000330 3f 99 87 3e 4d d2 ae be c6 0b 40 3f 7a 50 05 bf
       0.26484105 -0.34144822 0.75017965 -0.5207592
000340 39 d2 3d be 7e e4 a3 be 9a 6a fd 3e 47 55 0e 3e
       -0.18537225 -0.32010263 0.49495393 0.13899718
000350 13 3f ce 3e ec 42 ac be aa b4 22 3f dd e0 98 be
       0.40282497 -0.33644807 0.6355692 -0.29859057
000360 a6 a1 5a 3f db de 37 3e f2 e2 22 3f 04 23 7b bf
       0.85402906 0.17956106 0.6362754 -0.98100305
000370 bc ce 4a bf 0e 01 27 bf 47 a3 f9 be 0f 15 09 be
       -0.792217 -0.65235984 -0.48757383 -0.1338694
000380 e8 48 fd bd 42 54 d6 be 3d 15 a2 3e 2c 2c 07 bf
       -0.123674214 -0.4186116 0.3165683 -0.52801776
000390 3c ea 6a 3f 35 0d 24 bf f9 45 87 bf c9 c3 35 3f
       0.91763663 -0.6408265 -1.0568229 0.7100187
0003a0 68 74 ca 3e 9a 06 15 bd 81 e3 87 bf 57 23 2d 3f
       0.39541936 -0.03638325 -1.0616304 0.6763205
0003b0 29 02 10 3f 67 65 06 bf ec 3b 4c 3f 43 d8 08 bd
       0.56253296 -0.5249848 0.79778934 -0.03340937
0003c0 ea 74 f4 be b6 3c 83 3d 3a b3 0f bf 61 b0 97 be
       -0.47745448 0.06408064 -0.56132853 -0.29626754
0003d0 a2 77 b8 3e 71 b8 67 bf 1f 22 ed be 9c 35 15 be
       0.36028773 -0.9051581 -0.46315095 -0.14571232
0003e0 49 c9 29 bf d0 36 8d be 23 b6 a5 be 50 78 e6 3e
       -0.6632276 -0.2758088 -0.32365522 0.45013666
0003f0 26 93 d3 3d bc 2a 66 3d 61 cc 5d 3e 8a 62 78 3e
       0.10330801 0.0561931 0.21659996 0.2425634

network_body._body_endoder.seq_layers.0.bias f4 [128]
000000 cb ea 6b be e2 45 ec be 63 21 ec bd 24 2e 51 be
       -0.23038785 -0.46147066 -0.115298055 -0.20427758
000010 9e 9d d9 bd b7 7c 16 be ef 5c de be 85 36 64 be
       -0.10625766 -0.14696012 -0.43430278 -0.22286423
000020 db ff 11 bf 7e 2a b4 bd 93 99 b9 3e 65 fc 63 be
       -0.5703103 -0.08797167 0.3624998 -0.2226425
000030 db 44 2d 3e a2 dc 07 bf c3 5e 85 3e c0 f4 74 be
       0.16920798 -0.53071034 0.2604886 -0.2392149
000040 f4 91 4e 3d 2a fe 8e 3c 5c 04 97 be 41 0f 40 be
       0.05043216 0.01745518 -0.29495513 -0.18755819
000050 15 ef c4 3d af 04 57 be c1 d3 8c be b2 81 c7 be
       0.09615914 -0.2099788 -0.27505305 -0.38966137
000060 77 42 20 be e1 20 18 bf e4 ee ca be c4 7b f2 3d
       -0.15650354 -0.5942517 -0.39635384 0.11840013
000070 8f f0 14 bd b5 91 96 3d 1c f1 20 be da 7b e3 be
       -0.036362227 0.0735201 -0.15716976 -0.4443043
000080 61 57 98 be bc 0b 2f 3d b1 94 b8 bd 7b e6 3e be
       -0.29754165 0.0427358 -0.09012736 -0.18642609
000090 01 24 c0 bd 12 06 e5 3d bc f7 03 bd 5f 5e d4 be
       -0.09381867 0.111827984 -0.03221868 -0.4147825
0000a0 6b 77 8f 3e 18 cf 93 bd 42 ab e0 3d 79 f4 1c bd
       0.28020796 -0.072172344 0.10970165 -0.038319085
0000b0 e5 e3 b4 bd 1e d8 59 bd de ad ca be df a7 78 3e
       -0.0883253 -0.05318462 -0.39585775 0.24282788
0000c0 59 33 c5 bb 2d ab 94 be a6 45 19 bf e9 fc 1f be
       -0.006018084 -0.29036847 -0.598719 -0.15623821
0000d0 42 74 a0 3d 6e df d7 3d 18 78 4d 3e 00 70 54 3c
       0.078346744 0.10540663 0.20065343 0.012966156
0000e0 72 52 0f be 36 ed c0 bd 4d ed 9d bc f0 ca dd be
       -0.13996294 -0.094202444 -0.019278193 -0.43318892
0000f0 dc 51 b2 bd a8 0c b2 be d4 9e ab be aa 31 a6 be
       -0.0870702 -0.3477528 -0.33519614 -0.32459766
000100 f0 d2 b6 be 9d 38 94 be 70 dc 04 3d 93 df 89 3c
       -0.35707808 -0.28949443 0.032436788 0.016830241
000110 24 d8 c5 be 1d 6d b0 be 49 40 3d be 04 4d d4 bd
       -0.38641465 -0.34458247 -0.18481554 -0.10366252
000120 c2 45 ba be d8 9c 2e 3d a3 92 51 3d c8 39 9c be
       -0.36381346 0.042630047 0.051165234 -0.30512834
000130 4e fd 2c 3d 2a 60 40 be 17 98 eb be 73 8d 47 be
       0.042233758 -0.18786684 -0.46014473 -0.19487552
000140 23 d7 74 be 25 45 bd bd 5a fa eb be 8e 21 36 be
       -0.23910193 -0.09241704 -0.4608944 -0.17786238
000150 c7 cb 74 be 3d 84 93 bc 10 0f e1 bd b4 f6 77 3e
       -0.2390586 -0.018007392 -0.10989201 0.24215204
000160 a0 1d 67 bd e7 bb 61 be 04 7a 84 bd 09 55 33 3e
       -0.056424737 -0.22044335 -0.06468585 0.17512907
000170 d9 5d c4 be 3d 87 02 bf e0 3c 96 be 1f af 15 be
       -0.3835285 -0.5098761 -0.2934332 -0.14617585
000180 01 25 ac 3d 44 1f 84 bd b9 9e 75 3d 1f e7 83 3e
       0.084054954 -0.06451276 0.059965823 0.2576227
000190 d6 90 7e bd 0e 14 ef 3d 32 30 83 be 45 61 d7 be
       -0.062149845 0.11673747 -0.25622708 -0.42066398
0001a0 98 cb 70 be c5 5c 02 bf 7b ee 68 be e1 89 39 be
       -0.23515165 -0.50922805 -0.22747223 -0.18119003
0001b0 4e 12 50 be 6c 6e 7c be 6b 39 9e be 3a c9 04 3d
       -0.20319483 -0.24651498 -0.3090318 0.032418467
0001c0 d2 93 78 be 6b 63 a3 be 93 cc 4f be 19 5d a4 be
       -0.24275139 -0.31911787 -0.20292883 -0.32102278
0001d0 22 52 c1 3c 5c 07 c7 be 49 8a 0e bf b5 f3 88 be
       0.023598734 -0.38872802 -0.55679756 -0.26748434
0001e0 55 e1 e7 bc 9b 95 d4 be ec 99 4f be b8 8a 85 be
       -0.028305689 -0.4152039 -0.2027356 -0.26082397
0001f0 bd c2 00 be a4 5a 89 3e 88 73 5c bd a5 da 05 bd
       -0.12574287 0.26826966 -0.053821117 -0.03267922

network_body._body_endoder.seq_layers.0.weight f4 [128, 80]
000000 60 5d be bd c6 40 9d bd 2c ef f1 3d f9 de 42 be
       -0.092951536 -0.0767837 0.118131965 -0.1903037
000010 76 bc 0b 3e c9 3d 34 be 09 d1 d9 3d 99 13 23 be
       0.13646111 -0.17601694 0.106355734 -0.15925445
000020 34 42 e8 3d e4 d7 18 3d 91 58 a9 3d 36 79 a4 3e
       0.11340752 0.037315264 0.08268846 0.32123727
000030 b4 65 75 be 4b 23 68 bc f3 8d 20 bd 25 fa 99 3d
       -0.23964578 -0.014168571 -0.039197873 0.075184144
000040 09 1d 11 be db 75 bf 3e d5 03 ec bd 67 ba b5 3e
       -0.14171232 0.37394604 -0.115241684 0.35493776
000050 38 8c 80 3d 7a fe 40 be b4 02 26 be 34 f8 9e be
       0.062767446 -0.18847075 -0.16211969 -0.3104874
000060 5b 3d 07 3e 24 05 3e 3e cf 18 12 bd 12 a7 41 3b
       0.13206999 0.18556648 -0.03566819 0.0029549045
000070 07 7e bb 3d 05 f4 b1 bc 09 50 02 be f0 10 0c be
       0.09154897 -0.021722803 -0.12725843 -0.13678336
000080 74 f1 a5 bb b9 08 9d 3e 5e e4 75 3e 26 b5 71 bd
       -0.005064184 0.30670717 0.24012896 -0.059010647
000090 f5 6e 99 be e0 3b 7a be 96 36 16 be 73 78 cf 3c
       -0.29967466 -0.24436903 -0.1466926 0.02532599
0000a0 c0 ed 38 be f1 65 18 3f 03 32 d3 3c bb 57 0b bd
       -0.18059444 0.5953055 0.025780683 -0.034019213
0000b0 bc ba 09 be 97 2d 73 be 1a 52 34 3e db 98 98 be
       -0.1345014 -0.2374786 0.17609444 -0.2980412
0000c0 8c 96 9f 3c 51 61 15 3f 71 49 7a 3e c2 6a 0c 3e
       0.019480966 0.5835162 0.24442078 0.137126
0000d0 0a 00 c9 3d 77 57 7f 3d d9 8d 17 3d b3 36 c9 be
       0.098144606 0.062339272 0.03700051 -0.39299545
0000e0 5f c2 61 3e 2b 14 8b 3e db a8 78 3d 7e 18 0d 3e
       0.22046803 0.27163824 0.060707908 0.13778874
0000f0 3e 96 c8 bd da a0 49 be 0d 15 0c 3c 90 8f 82 3c
       -0.097942814 -0.19690266 0.008549941 0.015937597
000100 b9 dd ec 3d 2f 1f b4 3e c5 bd 71 3e b4 ae 6d bd
       0.11565728 0.3518004 0.23607548 -0.058027938
000110 0a 60 fd bc 2b 06 1b 3d 3e d1 bf bd c2 a4 44 bd
       -0.030929584 0.03784768 -0.09366082 -0.048008688
000120 b0 b5 cd 3d af f0 49 3f 95 06 49 3e 44 f9 36 3e
       0.1004442 0.7888288 0.19631417 0.17868525
000130 f8 dd 21 3d a9 db f5 3d 2a 89 2e 3e 37 d7 95 bd
       0.039518327 0.120047875 0.17044511 -0.073164396
000140 5a e6 70 3e 70 43 02 3e fe 37 6d be c9 75 c6 bd
       0.23525372 0.12721038 -0.2316589 -0.096904345
000150 65 e6 5b be e2 0d b7 bd e5 e6 01 3e 98 ef 5e 3e
       -0.21474607 -0.08938195 0.12685736 0.21771085
000160 a7 6f cc 3d 47 d2 2e 3e 68 1b 42 3e d9 8e cb bd
       0.099822335 0.17072402 0.18955767 -0.099393554
000170 57 75 08 bd 52 7c d0 be f2 8b 8a ba eb 4d 48 3e
       -0.03331503 -0.4071985 -0.0010570271 0.19560973
000180 c6 90 aa 3d 2e 28 be 3d 3d 9e 72 3d 08 a7 52 3e
       0.083283946 0.092850074 0.05923294 0.2057153
000190 b1 09 91 be dd 06 8e be 60 64 d1 3c b4 a7 f1 3d
       -0.28327706 -0.2773961 0.025560558 0.11799565
0001a0 fd 73 0b 3e 49 0d 6e 3e 44 57 3c bd 17 61 38 3e
       0.13618465 0.23247255 -0.04598166 0.18005787
0001b0 e6 18 1b be ec ab 06 3d 57 59 b1 be 10 76 01 3d
       -0.15146217 0.0328788 -0.34638473 0.031606734
0001c0 17 e2 93 3e 43 84 9c 3e 63 b5 86 bd 80 d1 ab bd
       0.2888343 0.30569658 -0.065775655 -0.08389568
0001d0 fd 66 71 bd f9 a5 a0 3e b2 f5 a6 bd 02 de 5c be
       -0.058936108 0.31376627 -0.081523314 -0.21569064
0001e0 2e 45 18 bd e6 66 39 bd 0f af ef bd 45 db 19 3e
       -0.03717535 -0.045264147 -0.11703312 0.15025051
0001f0 da 32 b5 bd d9 cd e4 3d 3c 66 13 3d 4d 9e 84 3d
       -0.0884759 0.11172075 0.03598617 0.06475506
000200 83 53 3f be ef 42 76 3d c7 e1 14 be a5 b9 5a 3e
       -0.18684201 0.060122427 -0.14539252 0.2135988
000210 dc 52 36 bd 78 59 9f 3e 98 93 86 be 9c c0 0a 3d
       -0.044512615 0.31122947 -0.2628448 0.033875093
000220 ed 12 1a 3c 1b 31 08 3d ba f5 08 bd 95 c8 32 3e
       0.009403926 0.033249956 -0.033437468 0.17459328
000230 49 0a 65 bd 23 09 51 bd d1 80 09 be 24 f5 81 bd
       -0.05591801 -0.051034104 -0.13428046 -0.06345585
000240 d6 ee 54 be 33 5d e5 bd 3d 35 b7 3d f0 c5 b9 3c
       -0.20794234 -0.11199417 0.08945701 0.022677392
000250 ad 9b 85 be 88 03 a3 bd 28 ef 33 39 f6 0d 3d be
       -0.26095334 -0.07959658 0.00017159863 -0.18462357
000260 9a 13 0f bc 31 5d df 3a 1c 9b 21 3d 6d 56 fd be
       -0.008732701 0.0017041323 0.039454564 -0.4948
000270 3f d7 85 bd f3 7b 5c 3d 1f ce a3 bd c9 06 8b bd
       -0.065351956 0.053829145 -0.07998299 -0.067884035
000280 0e 6d fe bb a9 74 37 3e 1f 0b 40 3d f2 be 2d be
       -0.007764465 0.17915596 0.046885606 -0.16967371
000290 6f 37 aa 3d 8c 29 c0 3b c7 fc da bd 85 b9 8b 3e
       0.08311354 0.005864328 -0.10692745 0.27289978
0002a0 06 2e 1a be c4 a4 bb 3d 29 e1 96 bd 18 b5 ea bd
       -0.15056619 0.09162286 -0.07367165 -0.11460322
0002b0 ac 78 ae 3e c0 42 c7 bc 2a e8 b3 bd 41 97 e5 3d
       0.3407644 -0.024323821 -0.08784516 0.1121049
0002c0 d5 18 0a bd eb 7c c6 3e 40 4c 83 be 45 ff 23 be
       -0.033715088 0.3876718 -0.25644112 -0.16015346
0002d0 8f fa 59 3e 31 6d 25 be 9a f5 ec bc 23 e1 24 3e
       0.21286987 -0.16154934 -0.028925706 0.16101508
0002e0 de 8f 54 3e 23 15 30 3e fb c9 1e bd 6c c9 1f be
       0.20758006 0.17195563 -0.038766842 -0.1560418
0002f0 f8 69 74 bd 02 ff 38 be 43 ce 16 3e 1f 92 02 be
       -0.059671372 -0.18066028 0.1472712 -0.12751053
000300 25 c1 ef bd 78 e9 8d 3d a5 4d 60 be 70 0c 98 bd
       -0.11706761 0.06929296 -0.21904619 -0.07424247
000310 4b 1f 6d be 78 6c b0 bd 8a cc 19 3e f2 c5 27 3c
       -0.23156469 -0.08614439 0.15019432 0.010240065
000320 c2 0e ea 3d 8d ab 80 3e 22 5b 63 be 7c a1 69 3e
       0.11428596 0.25130883 -0.22202733 0.22815508
000330 8b 77 8f be 4a b4 64 be 00 5d 32 be e8 be 18 3c
       -0.28020892 -0.223344 -0.17418289 0.009322859
000340 8f 12 05 be f3 08 8d 3d 0d 5a fb be bb 55 e9 3e
       -0.12995361 0.068864726 -0.4909214 0.4557322
000350 d8 73 8c be 89 8f ad be fa b5 a9 bd c6 32 c5 bd
       -0.27432132 -0.3389857 -0.082866624 -0.09628825
000360 d2 e8 b0 bd 5d e0 bc be c3 31 2c be f0 14 57 3e
       -0.08638157 -0.36889926 -0.16815858 0.21004081
000370 57 08 cf bc c0 b3 fd be 2b 4d c6 bd 3a ff 1e 3e
       -0.025272531 -0.495512 -0.09682687 0.15527049
000380 2c 7b a3 3b a6 31 31 3e 3d 95 3c 3c b2 b4 0b 3f
       0.0049890485 0.17304096 0.011510191 0.54572594
000390 c7 27 eb bd 2e 09 df bd 8b 44 71 be 2f 49 25 bd
       -0.11482196 -0.10890423 -0.23561303 -0.040352996
0003a0 be 0f da 3d af 7f 60 bd a5 ee 82 3c 8a b5 5d 3f
       0.10647534 -0.05480927 0.015982935 0.8660513
0003b0 2e 5e e9 3c bb 8e a2 bc 8f eb ec 3b 52 5c b7 3d
       0.028487291 -0.01984345 0.007230229 0.089531556
0003c0 61 34 73 3e 81 5f 25 3e 81 a6 8d be 29 5a 9d 3d
       0.2375045 0.16149713 -0.27666095 0.07683212
0003d0 75 a5 0c be aa 53 81 3e e7 d8 d5 bd 2b f2 2d 3d
       -0.13734992 0.25259143 -0.104417615 0.042467277
0003e0 fe c8 bc 3d 14 15 93 3d 4f fb c4 bd a3 1b c6 bd
       0.09218024 0.07181755 -0.09618246 -0.0967324
0003f0 a1 a2 56 be 4d f6 50 3e 18 4d 16 3e df d4 42 3e
       -0.20960476 0.20406456 0.14677846 0.19026516

network_body._body_endoder.seq_layers.2.bias f4 [128]
000000 0a f2 b4 3e 16 1f e4 bb 10 79 19 be ad ff c6 bc
       0.3534091 -0.0069617135 -0.14987588 -0.024291838
000010 00 38 90 3e e4 04 ee 3d 97 ea de 3d 08 20 38 bd
       0.28167725 0.116220266 0.10884588 -0.044952422
000020 44 f1 fe bd d5 25 94 bd fe c9 95 bd 15 35 2c 3e
       -0.124483615 -0.072337784 -0.073139176 0.16817124
000030 a5 84 a1 bd ae 73 0c 3d fd 9c d4 3d df 2d 96 3e
       -0.07886628 0.03429001 0.10381506 0.29331872
000040 81 23 a0 bd 17 e4 61 bd b8 8c 20 3e b2 94 9b 3d
       -0.07819272 -0.055149164 0.1567868 0.07596721
000050 9a 3b 9c bd 08 b8 98 be f1 29 c6 3e 4a b1 0f be
       -0.076285556 -0.29827905 0.38703874 -0.14032474
000060 c4 1f 9a 3d b1 4c 27 3c 75 34 a8 3e 09 a9 80 bc
       0.0752559 0.010211156 0.32852522 -0.015705602
000070 f8 90 44 bd ee d3 5c 3e ba 4d 53 bd 66 e9 11 be
       -0.047989815 0.2156522 -0.051587798 -0.1424919
000080 9d 59 5f bc 33 0e 75 be 09 24 ed bd 8b 87 68 be
       -0.013632205 -0.23931198 -0.11579139 -0.22707956
000090 95 68 59 3d b6 c3 9f 3d 45 24 2b be 1c 9f fc bd
       0.053078253 0.07801001 -0.16713054 -0.12335035
0000a0 e0 95 51 3d 6f bd 00 3e a0 2e d4 3d f5 97 41 3e
       0.051168323 0.12572263 0.103604555 0.18905623
0000b0 23 e7 93 bd 8d 96 8a 3e f8 55 2b bd 59 1f 24 be
       -0.0722182 0.27067986 -0.041830033 -0.16027583
0000c0 c6 52 22 3e 51 d5 a0 bd f9 7b 74 be 93 a3 26 be
       0.15851888 -0.07853187 -0.23875417 -0.16273336
0000d0 20 16 f7 bd 80 22 c5 3c 78 ba 9c 3d 74 c4 3c 3e
       -0.12064767 0.024064302 0.076527536 0.18434316
0000e0 e1 b0 72 bc de 82 17 be 69 16 5a 3b 80 5f 1d 3e
       -0.014812679 -0.14796016 0.0033277518 0.15368462
0000f0 02 64 e7 bd f2 f2 8d bd 52 6d 04 3d 90 f8 c3 bd
       -0.11298372 -0.06931104 0.03233082 -0.09568894
000100 40 ce 47 3e ee eb 74 be 37 65 b4 be 9f 83 87 3d
       0.19512272 -0.23918125 -0.3523347 0.066169016
000110 f5 5f 72 3e e6 f1 51 3d 91 38 5f be 97 47 04 3f
       0.23669417 0.051256083 -0.21798922 0.5167174
000120 6f ef 4b 3e 61 ac fd bb f2 cb 92 bd 72 cc 80 3d
       0.19915555 -0.0077414964 -0.07167806 0.06288995
000130 9f 2e 32 3d 4c 7b be 3d c4 05 0a 3e ce 6b ea bd
       0.043501493 0.09300861 0.13478762 -0.11446343
000140 93 73 f2 3d a1 cb 86 bd 32 6e c3 3b f2 73 88 3e
       0.1183845 -0.06581808 0.005964064 0.2665096
000150 3e 61 55 be c2 92 c4 3a 6e 36 b4 bd f6 dc 6b 3c
       -0.20837876 0.001499735 -0.08799444 0.014395943
000160 37 aa 0b be f3 de 7c be 47 68 2b 3e 9f f6 43 be
       -0.1363915 -0.24694423 0.16738997 -0.19137047
000170 46 d8 49 3b 57 5d 88 be dd 3d 5b be 20 9e 05 3c
       0.0030799075 -0.26633713 -0.21410318 0.008155376
000180 b2 38 bd 3e ad 70 de 3d 78 42 c2 bd e6 d1 93 bc
       0.36957318 0.10861335 -0.09485334 -0.018044423
000190 2d 35 49 be 58 51 e3 3d dd 86 47 bc 1d d6 73 b9
       -0.19649191 0.110994995 -0.01217815 -0.0002325405
0001a0 93 69 87 be 86 21 2a 3f 42 d4 62 bd 3b 92 a3 3e
       -0.26447734 0.664574 -0.055378206 0.31947502
0001b0 0d 26 e9 bd 34 f1 dc bd 9d 36 9f bd 7c f3 60 be
       -0.11384211 -0.10788193 -0.077740885 -0.21967882
0001c0 91 ce 21 3e b1 fb 1e be b9 f3 0e be 72 10 04 be
       0.15801455 -0.155257 -0.1396016 -0.12896898
0001d0 3b 52 57 be 59 1c 42 be f0 b4 8a 3d 2d 76 32 3d
       -0.21027462 -0.18956126 0.06772792 0.043569732
0001e0 4c 22 33 be ac 63 cb bc 02 5f 10 be 63 3e a0 3d
       -0.17493552 -0.0248278 -0.14098743 0.07824399
0001f0 bd 58 0d be d1 6e 65 be c1 4b 5f 3c 6f 05 0e 3f
       -0.13803382 -0.22405554 0.013628901 0.5547704

network_body._body_endoder.seq_layers.2.weight f4 [128, 128]
000000 00 3d dd 3d 4e 4b 9a 3b b5 35 3c bf 48 75 cb bb
       0.108026505 0.004708684 -0.7351945 -0.0062090494
000010 63 26 05 3e d8 64 ba 3e 35 6b 6d 3e 53 03 95 3e
       0.13002925 0.36405063 0.23185427 0.291041
000020 76 f5 d5 3d c8 0c 7b be 6c 84 dc 3e 92 97 4e 3d
       0.104472086 -0.24516594 0.4306978 0.050437517
000030 98 e7 5e 3e af 51 2e 3e 1b 18 09 3e 70 c7 67 3e
       0.21768034 0.17023347 0.13388102 0.22634673
000040 aa 39 b6 3e ba f1 0d 3e 95 88 f7 3d 82 34 6d 3d
       0.3559087 0.13861743 0.12086598 0.057911403
000050 7c cd 35 3e d7 6e 98 3c b2 e2 c4 3d 66 2b 9b 3c
       0.17754167 0.01860754 0.09613551 0.018941592
000060 27 67 05 3e b1 5a 6c bc 0d 2d 9b 3d 80 bc 1d be
       0.13027631 -0.014425919 0.07576952 -0.15403938
000070 0d 47 f9 3d 93 c6 1d 3f f8 5f 11 3e 16 1a f7 3d
       0.12171755 0.61631125 0.14196765 0.120655224
000080 e9 f7 6f be ad 37 0a 3f d4 12 a8 3e 05 d5 5b 3e
       -0.23434414 0.53991205 0.32826865 0.21467979
000090 95 31 d3 3d ec a8 73 bf 91 85 db 3e 08 38 21 be
       0.103121914 -0.9517963 0.4287534 -0.1574403
0000a0 be fc c8 3e e8 39 57 3e df 1e 9f 3e 40 e0 b2 3e
       0.39255327 0.21018183 0.3107824 0.34936714
0000b0 fd 0a 1a be 23 1c cb 3e 72 e8 15 bb 48 6c c8 3e
       -0.15043254 0.39669904 -0.0022874144 0.39145112
0000c0 31 08 19 3f 58 eb be 3d af 27 b6 bd 9b 9d 20 3e
       0.59778124 0.09322232 -0.08894288 0.15685122
0000d0 dc d2 38 bf c1 04 15 bf d3 dc 8d 3e 28 d9 07 3f
       -0.72196746 -0.5821038 0.27707538 0.5306573
0000e0 01 7f 12 bd f0 73 9c 3e 5c 67 64 bf 8d 77 73 3d
       -0.03576565 0.30557203 -0.89220214 0.059440184
0000f0 a4 8e 90 3d e3 42 d0 bc a4 43 32 bc 91 56 05 3e
       0.070584565 -0.02542252 -0.010880385 0.13021304
000100 15 10 fc 3d 11 e8 90 3e bd a5 ae 3e c2 80 01 3f
       0.12307755 0.28302053 0.34110823 0.50587094
000110 03 c7 18 3e 3e b2 c1 3d fa 7a 88 bd d9 d9 c5 3d
       0.14919667 0.09457825 -0.06664081 0.09660692
000120 25 ac ab 3e a5 2e 5f 3d 96 9f d6 bd e1 9a 0c bd
       0.33529773 0.054487843 -0.10479657 -0.03432739
000130 15 d1 e5 3e 52 9c 2f bd b9 33 19 be 06 3c ce 3e
       0.4488608 -0.042873688 -0.14961137 0.4028017
000140 5f 8f 20 3e b2 43 45 3e 36 e6 32 3d 1c 16 9a 3c
       0.15679692 0.19264105 0.043676578 0.01880937
000150 00 fb 6d 3e 9c ad 5d bd ea db 4c 3e 10 f9 a0 3e
       0.2324028 -0.054120645 0.20005766 0.3144002
000160 81 66 a2 3d 23 46 66 3c 8e a4 c4 3c cb 62 db 3e
       0.07929707 0.014054808 0.024004247 0.4284881
000170 46 c7 60 3d ce 0f 26 3d c3 7b 40 3d bb 99 6b 3e
       0.054877542 0.040542416 0.04699303 0.23007862
000180 61 df 0f 3f 4e 7a 2b bb 6c 73 ce bd 14 65 11 3f
       0.56200224 -0.0026165429 -0.10080609 0.5679486
000190 0f e0 1c 3e cb 12 e2 be 78 0d 5b 3e 20 69 78 be
       0.15319847 -0.44154963 0.21391857 -0.24258852
0001a0 c4 be 4a 3e 3f c9 68 3e cc 33 71 3e 15 42 4c be
       0.19799334 0.2273302 0.23554915 -0.19947083
0001b0 43 7b f0 be 2d c9 95 3e d8 e2 f7 bd 14 6a 8a 3e
       -0.4696904 0.29255047 -0.12103814 0.27034056
0001c0 1f f6 09 bd 96 d0 89 bd 8d d6 16 3e c5 f8 bb 3e
       -0.033681985 -0.06729238 0.14730282 0.36713234
0001d0 17 5d 87 bc ec 1e 9a be 83 40 09 3e 90 66 99 bd
       -0.01652388 -0.30101717 0.13403516 -0.07490265
0001e0 61 72 28 bf 29 99 37 3c 85 a4 4b 3e 24 03 63 3e
       -0.6579953 0.01120595 0.19886978 0.22169167
0001f0 b5 17 20 bd e0 9b 9e 3e de 82 6e 3c 0a c3 90 3e
       -0.03908511 0.30978298 0.014557568 0.28273803
000200 a2 96 88 3e 0b 7e 2a bd 5b fe 07 be 0b a4 29 be
       0.26677424 -0.04162411 -0.13280623 -0.16566484
000210 eb b8 d2 3c 27 f2 e1 3d b0 20 11 bc 10 7a c2 3d
       0.025722941 0.11032515 -0.008857891 0.09495938
000220 70 f4 7a be 82 ab 1e 3d 02 ea 51 3d bc 8f 45 bd
       -0.24507308 0.03873778 0.051248558 -0.04823278
000230 97 e9 c0 3e 91 46 b3 be c3 57 76 3c 96 f3 34 bd
       0.37678215 -0.35014775 0.015035572 -0.044177614
000240 4a c3 2d 3e 70 c4 80 be 78 14 85 bd 8a c5 72 bc
       0.16969028 -0.2514987 -0.06498045 -0.014817605
000250 e1 8c 15 3e 90 69 11 bf 37 45 de 3d 1b 32 2a 3e
       0.14604522 -0.568017 0.108530454 0.16620676
000260 17 a4 10 3c fa 4e 72 bd c9 89 85 bd d1 63 c5 3e
       0.008828185 -0.05915735 -0.06520421 0.38552716
000270 84 c2 b5 3d 26 4a f3 3e cd a8 65 be d5 04 57 3e
       0.088749915 0.47517508 -0.22427674 0.20997937
000280 54 04 d2 3d 1d 69 24 3e 40 a9 97 3d 6f db 1b bd
       0.10254732 0.16055723 0.07405329 -0.038051065
000290 d7 87 00 be 15 ad 1f bf 2f 02 b3 3d b2 ba 75 bd
       -0.12551819 -0.6237348 0.08740651 -0.0599925
0002a0 92 37 a5 3e ee 52 0e 3e 24 6e 82 3e 2d a4 c2 3d
       0.3226896 0.13898823 0.25474656 0.0950397
0002b0 c7 43 22 bc 1f 89 82 3e f3 20 9f be 9e 29 b1 3e
       -0.009903855 0.2549524 -0.31079826 0.34602064
0002c0 86 79 64 3e 3b 92 22 3e 43 15 4e be dd 79 8d 3e
       0.22311983 0.15876095 -0.20125298 0.27632037
0002d0 b3 2b 08 bf 64 67 d2 be d1 63 75 3e 62 35 09 3e
       -0.5319168 -0.41094506 0.23963858 0.1339927
0002e0 2a c5 82 3d fc 71 3e 3e 55 aa f8 be 7e d0 7a 3c
       0.06385262 0.18598169 -0.48567453 0.0153084975
0002f0 dd 02 5b 3e 64 b6 5f be e8 c9 65 be b2 30 5b bd
       0.21387811 -0.2184692 -0.22440302 -0.053513236
000300 96 2a 1a 3e fb 4d ed 3c 23 8e bc 3d 7b 6b dc 3d
       0.15055308 0.028967848 0.09206798 0.10762688
000310 d5 16 8b be eb d8 a6 be 70 cd 1b 3d b0 7a 16 bf
       -0.27165857 -0.3258737 0.038037717 -0.58780956
000320 0c 35 78 3e 9c 14 6a be 5f f7 48 3e 2d 51 dc bc
       0.24238986 -0.22859424 0.19625615 -0.026894176
000330 aa 1b f1 3e cb 0b bd bd 5a 98 cd be 7f 8e af 3e
       0.47091419 -0.09230765 -0.40155298 0.34288403
000340 3f 1c b2 be 86 1c e9 3d 66 bc 28 bd 80 f6 d3 be
       -0.34787175 0.113823935 -0.041195296 -0.41399002
000350 1a 9b e2 bd 2a a9 ae 3e a4 3d 75 3e d9 6f 84 bd
       -0.110647395 0.34113437 0.23949295 -0.06466646
000360 5b 5e 0d bc 5c aa cf be d0 91 8c be 9d 3e b3 3e
       -0.008628453 -0.4055966 -0.27454996 0.35008708
000370 9c 0e 52 be 32 48 e9 bd 30 5c 03 be e2 1d 9d 3d
       -0.20513386 -0.11390723 -0.12828135 0.07671715
000380 c3 3f 29 3e 82 d2 23 3e bf af 8a 3d ac 72 72 3e
       0.1652823 0.15998271 0.06771802 0.23676556
000390 8a a2 0d be 89 7a 35 bf 56 60 96 3e 36 57 98 be
       -0.13831535 -0.708901 0.29370373 -0.29754037
0003a0 75 f1 4b 3e ec 99 0d be 86 34 cc be 6b 85 7b be
       0.19916327 -0.13828248 -0.39883822 -0.24562614
0003b0 08 63 96 be 43 b0 4e 3e d0 1f 80 be f1 20 85 3e
       -0.2937243 0.20184426 -0.2502427 0.26001695
0003c0 d4 06 55 be 6f 0e 2e bd c2 d3 6e 3e a7 d8 d4 3d
       -0.20803386 -0.042494234 0.23322967 0.10392886
0003d0 28 aa dc 3c fd f4 10 be f2 14 02 be 95 f0 34 be
       0.026936606 -0.14155956 -0.12703303 -0.176699
0003e0 aa 13 0d bf 15 10 a4 3b 1c 95 ca 3d 02 ce 6e 3e
       -0.5510813 0.0050068 0.098917216 0.23320773
0003f0 d2 0b 4d bc 54 fa 8e be 77 ba 59 be 49 2f 93 3d
       -0.012515025 -0.2792536 -0.21262537 0.07186753
