Assets/Brain Models/SimpleDeductionMoving-1120368.onnx (onnx, 603493 bytes, 12 tensors)

111 f4 [1, 256, 256]
0	0xbcaecb2e	-0.021337118
1	0xbdc44716	-0.09583871
2	0x3da4970a	0.08036621
3	0x3dd4c932	0.103899375
4	0xbd6d6ce0	-0.05796516
5	0x3c0b0b2f	0.008486553
6	0x3d9736b2	0.07383479
7	0xbdb60f68	-0.08889657
8	0xbe226ac6	-0.15861043
9	0xbd36306f	-0.044479784
10	0x3dda9fe1	0.10675026
11	0x3cbc04bb	0.022951474
12	0xbdc9d4bd	-0.0985503
13	0x3d5f6df1	0.054548208
14	0xbe27c878	-0.16385067
15	0xbd220760	-0.039557815
16	0x3ca26ea7	0.019828154
17	0xbba5610f	-0.0050469707
18	0x3dca96fb	0.098920785
19	0x3dc0b91e	0.09410308
20	0xbdbf6119	-0.09344692
21	0x3d6c9ae3	0.0577649
22	0xbd004071	-0.031311456
23	0x3d23db9d	0.04000436
24	0xbdad5ba2	-0.08464743
25	0xbd81f5d5	-0.06345717
26	0x3dd07252	0.10178055
27	0x3d6873da	0.05675111
28	0x3bcd3b30	0.006263159
29	0xbd50f086	-0.05101063
30	0xbd1c1f37	-0.038115706
31	0xbd185bf0	-0.037197053
32	0x3d65f4a1	0.0561415
33	0x3d81ba8f	0.06334411
34	0x3d679fad	0.056548763
35	0x3d0bcce6	0.034130953
36	0x3d61e845	0.05515315
37	0x3e180fb6	0.14849743
38	0x3e36c095	0.17846902
39	0x3db8ec99	0.090295024
40	0xbdbac846	-0.091202304
41	0x3e00e2ab	0.12586467
42	0x3dc80d87	0.09768205
43	0x38da30e3	0.00010404156
44	0x3d8584a6	0.06519441
45	0x3dfd1289	0.12357051
46	0x3d4fb3cd	0.05070858
47	0x3c05c617	0.008164904
48	0x3cf123fd	0.029436106
49	0xbc9f8008	-0.01947023
50	0x3de3deb2	0.1112646
51	0xbcc8fdbf	-0.024535058
52	0x3c7a5f5d	0.015281525
53	0x3cbd5a16	0.023114245
54	0xbdf30610	-0.11866391
55	0xbd956dc6	-0.07296328
56	0xbd783bbd	-0.060603846
57	0x3c3abfda	0.01139828
58	0x3d7135a1	0.058889035
59	0xbe0c735b	-0.1371588
60	0xbdf2712f	-0.11837994
61	0x3df1c787	0.11805635
62	0xbe01f96f	-0.12692808
63	0x3dfe7ed8	0.12426537
64	0xbd83dc7d	-0.06438539
65	0xbdab8452	-0.083748475
66	0xbdb966de	-0.090528235
67	0x3dd7f39f	0.10544514
68	0xbe24bc2c	-0.16087407
69	0xbdd8a4b9	-0.10578293
70	0xbe3334e8	-0.17500651
71	0xbda23f90	-0.0792228
72	0xbe2757e8	-0.16342127
73	0xbc26a9d3	-0.010172325
74	0x3d7905da	0.060796596
75	0x3e036eb3	0.12835197
76	0xbd3d3b34	-0.04619904
77	0x3d73416f	0.059388574
78	0xbd7fec92	-0.06248147
79	0xbbfbbdea	-0.0076825516
80	0xbdf5a7ec	-0.11994919
81	0x3ddb6542	0.10712673
82	0x3d01bd0b	0.031674426
83	0x3e22e5ef	0.15908025
84	0xbd318e4a	-0.043348588
85	0xbdddafbd	-0.10824535
86	0x3ddaa8b5	0.106767096
87	0xbdb5d0db	-0.08877727
88	0x3b8f129b	0.0043662316
89	0xbd3ed768	-0.046592146
90	0x3e176181	0.14783289
91	0xbdf709c5	-0.1206241
92	0x3c23e54a	0.010003397
93	0xbd8d4847	-0.068985514
94	0x3de2193c	0.11039969
95	0x3c9e8983	0.01935268
96	0xbd1a2336	-0.037631236
97	0xbbefeb58	-0.0073217563
98	0x3dd28f3e	0.102812275
99	0x3cc17967	0.02361746
100	0x3d8e78f5	0.069566645
101	0xbd061910	-0.032738745
102	0xbd478bbd	-0.04871725
103	0xbbe1039b	-0.006866885
104	0xbde9b307	-0.114111
105	0xbdf1dbf1	-0.118095286
106	0xbd2704c6	-0.040776037
107	0xbd3e99d6	-0.046533428
108	0x3d26e593	0.040746283
109	0x3da1b518	0.07895869
110	0x3de3f6c3	0.111310504
111	0x3d68ed26	0.056866787
112	0x3da33954	0.07969919
113	0x39b82dcd	0.0003512934
114	0x3d586a6c	0.052835867
115	0x3b7ec8d4	0.0038877027
116	0xbe3a63bc	-0.18202108
117	0xbc3e8173	-0.011627543
118	0x3cedb21f	0.029015599
119	0x3d9ecd29	0.07753975
120	0xbc7c7cc6	-0.015410608
121	0xba5f82f6	-0.00085262896
122	0x3d937bbd	0.072013356
123	0x3d8c301e	0.06845115
124	0xbd61a9a2	-0.055093415
125	0xbcf47fca	-0.02984609
126	0xbdbef50e	-0.09324084
127	0x3d92e704	0.07172969
128	0x3e017155	0.12640889
129	0xbdf62c03	-0.12020113
130	0xbcb124cf	-0.021623997
131	0x3d2bd056	0.04194673
132	0xbd57ccbf	-0.052685495
133	0x3d9fff52	0.0781237
134	0xbddcc90c	-0.10780534
135	0x3d2d89bb	0.042367678
136	0xbb915010	-0.004434593
137	0xbe074dc4	-0.13213259
138	0x3da68c21	0.08132196
139	0xbd3f8ecb	-0.046767037
140	0xbd767ecb	-0.060179513
141	0xbd446a50	-0.04795295
142	0xbcc9127b	-0.024544945
143	0xbd607f1d	-0.054808725
144	0xbe0b2bb1	-0.13590886
145	0x3e0a30a7	0.13495122
146	0x3dec88aa	0.11549504
147	0xbe08c07c	-0.13354677
148	0xbe08c476	-0.13356194
149	0xbb5d1be2	-0.0033738543
150	0x3d6e79f0	0.058221757
151	0xbd72cc20	-0.0592767
152	0x3dee796f	0.11644255
153	0x3d022b09	0.031779323
154	0xbe483ff8	-0.19555652
155	0x3d65521d	0.055986512
156	0x3da71869	0.08158953
157	0xbd2e8e63	-0.04261626
158	0xbd9656f1	-0.073408015
159	0x3ce2cb4a	0.027684826
160	0x3e019bdb	0.1265711
161	0xbdb0a4f3	-0.086252116
162	0xbd593f1a	-0.053038694
163	0xbb5fc699	-0.0034145473
164	0x3ded6091	0.11590684
165	0x3da96c7d	0.082726456
166	0xbd82b899	-0.063828655
167	0xbde18789	-0.110121794
168	0x3c9f8bc8	0.019475833
169	0xbe579271	-0.21051957
170	0x3e0b59fa	0.13608542
171	0xbe463834	-0.19357377
172	0x3dee260f	0.11628353
173	0x3e174f58	0.14776361
174	0x3c4cbb1d	0.012495783
175	0x3e23d528	0.15999281
176	0xbc943ad6	-0.018094461
177	0x39aff2a0	0.0003355937
178	0x3dfd4f36	0.12368624
179	0xbc810c01	-0.015752794
180	0x3bf11fc8	0.007358525
181	0x3d7429d7	0.059610214
182	0x3db4af9d	0.08822558
183	0x3dfdf252	0.123997346
184	0xbe0cdd96	-0.13756403
185	0xbda05a12	-0.078296795
186	0xbcc1c7ef	-0.023654906
187	0x3df4c9a2	0.11952521
188	0x3d60b6fc	0.054862007
189	0xbda3f248	-0.08005196
190	0xbcb2e1fd	-0.021836275
191	0x3e2b3e17	0.16722904
192	0xbd56548f	-0.052326735
193	0xbc43055f	-0.011903136
194	0xbdeb2a80	-0.114827156
195	0xbd84c28d	-0.0648242
196	0xbd2f4438	-0.042789668
197	0x3e0cb458	0.1374067
198	0x3d60d99e	0.054895036
199	0xbc98c9df	-0.018650947
200	0xbcb55c99	-0.02213888
201	0x3e0d5edc	0.13805717
202	0xbd710a88	-0.058847934
203	0x3d943a5c	0.07237694
204	0xbd18071e	-0.037116162
205	0xbe0372dc	-0.12836784
206	0xbe545bea	-0.20738187
207	0x3dbde10b	0.09271439
208	0x3d66328e	0.056200556
209	0xbdeab7ff	-0.11460876
210	0x3db5d370	0.08878219
211	0x3d68bd7a	0.056821324
212	0x3d78e5e6	0.060766123
213	0x3cce522e	0.02518567
214	0xbd921906	-0.07133679
215	0x3d18c7a5	0.03729977
216	0xbda1285a	-0.078690246
217	0x3d93ad29	0.07210762
218	0xbe46e6e5	-0.19424017
219	0xbd7ad961	-0.061242465
220	0xbd99a038	-0.075012624
221	0x3de97b7f	0.11400508
222	0xbcaf496f	-0.02139732
223	0x3c0db838	0.008649878
224	0x3ce85039	0.028358566
225	0xbe085de9	-0.13317074
226	0xbda2ebea	-0.07955153
227	0xbdccede0	-0.100063086
228	0x3dce1686	0.1006289
229	0xbdeb3787	-0.114852004
230	0xbdb88a7c	-0.09010789
231	0xbe108781	-0.1411419
232	0x3bfda8a7	0.007741052
233	0x3cb9b1da	0.022667814
234	0xbd9202e2	-0.07129456
235	0x3c78f7bc	0.015195783
236	0x3d9b6988	0.07588488
237	0xbe103076	-0.14080986
238	0xbd43b19e	-0.04777681
239	0xbdb296b0	-0.087201476
240	0xbcbf5d35	-0.023359874
241	0x3e17d5f8	0.14827716
242	0x3c734229	0.014847317
243	0xbe20ac8f	-0.15690826
244	0x3cdffebf	0.027343152
245	0xbe3ae02b	-0.18249576
246	0xbde2ea13	-0.11079802
247	0xbe199f87	-0.15002261
248	0xbdb0e101	-0.08636666
249	0x3dd35e7c	0.10320756
250	0x3de8a74d	0.11360035
251	0xbd244b53	-0.040110897
252	0x3e3345bc	0.1750707
253	0x3d8df731	0.06931914
254	0x3dffa1d6	0.1248204
255	0x3e0dcd7c	0.13847917

112 f4 [1, 256, 64]
0	0x3df1958b	0.11796101
1	0xbe15e91c	-0.14639705
2	0xbdaa46d5	-0.083142914
3	0x3e52b913	0.20578413
4	0x3e8f5864	0.27997124
5	0xbe0a9b27	-0.13535748
6	0x3e1de502	0.15419391
7	0xbe16fa49	-0.14743914
8	0xbe71d443	-0.23616128
9	0xbe1174ca	-0.14204708
10	0x3e41e932	0.18936613
11	0xbe2a6b70	-0.16642547
12	0x3d23b329	0.039965782
13	0xbe12e633	-0.14345627
14	0xbdcaf200	-0.09909439
15	0x3de12779	0.10993857
16	0xbe97dd9d	-0.29661265
17	0x3e078ca3	0.13237242
18	0xbdfa5c79	-0.12224669
19	0x3dfe20ef	0.12408625
20	0xbe0f826f	-0.140146
21	0x3ddb4e3a	0.1070828
22	0x3e3a2224	0.18177086
23	0xbc5bcbd4	-0.013415296
24	0xbde29c15	-0.110649265
25	0x3d9c8dd4	0.07644239
26	0xbe4358c3	-0.19076829
27	0x3e05c3db	0.13062994
28	0xbe1b1b64	-0.15147167
29	0xbccecc92	-0.025244031
30	0x3dea29b6	0.11433737
31	0x3e08c4e4	0.13356358
32	0x3d733024	0.059372082
33	0xbe1a0149	-0.15039553
34	0x3bc704dc	0.0060735773
35	0xbe1c697c	-0.15274614
36	0x3d9c6209	0.07635886
37	0x3e5d944e	0.21638605
38	0x3e17d1cf	0.1482613
39	0x3e0b3a2e	0.13596413
40	0x3da99899	0.08281059
41	0x3de6b02e	0.11264072
42	0x3d83d020	0.06436181
43	0x3e50e837	0.20401083
44	0xbe6b3c69	-0.22972263
45	0xbd448054	-0.047973946
46	0x3cb2f2b6	0.02184425
47	0xbe22a4de	-0.15883204
48	0xbdceeb98	-0.1010353
49	0xbd7a3e10	-0.061094344
50	0xbe184717	-0.14870869
51	0xbde44bd8	-0.111472785
52	0xbe1a614f	-0.15076183
53	0x3ca6201a	0.02027898
54	0xbe0aaff0	-0.13543677
55	0xbdf36274	-0.11884013
56	0xbe2e5c86	-0.17027482
57	0x3d60b1db	0.054857116
58	0x3e136af7	0.14396273
59	0xbd39314d	-0.045213033
60	0xbcb6c869	-0.02231236
61	0x3e37d9c4	0.17954165
62	0x3e13078c	0.14358348
63	0x3e4af478	0.1981982
64	0x3d108a8f	0.03528839
65	0x3d2d76fd	0.042349804
66	0x3d70c3e2	0.05878056
67	0x3e185fc4	0.14880282
68	0x3e578731	0.21047665
69	0xbd4d936c	-0.05018942
70	0x3e90818d	0.2822384
71	0xbc37518f	-0.011188879
72	0xbe452559	-0.19252528
73	0x3d25202d	0.04031389
74	0xbc5daa30	-0.013529345
75	0x3ce3cf9f	0.027808962
76	0x3e486fcc	0.19573897
77	0xbe49a93a	-0.19693461
78	0x3e3879fb	0.18015282
79	0xbdb0900f	-0.08621227
80	0xbe207cec	-0.15672654
81	0x3dcfcc76	0.1014642
82	0xbbec7b24	-0.007216828
83	0x3e45ee46	0.19329175
84	0xbe56501b	-0.20928995
85	0xbdd51d37	-0.10405963
86	0xbd87e9f5	-0.06636421
87	0xbe18cb63	-0.14921336
88	0xbe6be852	-0.23037842
89	0xbde8dbbb	-0.11370035
90	0xbe4f7ceb	-0.20262496
91	0xbdf1c701	-0.11805535
92	0x3ce613cf	0.028085617
93	0x3d809944	0.06279233
94	0x3dc85ee0	0.09783721
95	0xbe256ddc	-0.1615519
96	0x3e0530da	0.13006917
97	0xbe0bdb49	-0.1365787
98	0x3e0ca75a	0.13735715
99	0x3c0269a3	0.007959756
100	0xbddd38e2	-0.10801865
101	0x3e081af9	0.13291539
102	0x3e2508ab	0.16116588
103	0x3cf5e29c	0.030015282
104	0x3e15737b	0.14594834
105	0xbe51f437	-0.20503317
106	0x3d73259c	0.05936204
107	0xbdd166d1	-0.10224689
108	0xbdb9f8ba	-0.09080644
109	0x3e1b20e3	0.15149264
110	0xbd474161	-0.048646335
111	0x3d06001d	0.03271495
112	0xbdd9be90	-0.1063205
113	0x3d8ad798	0.067794025
114	0x3e93deb3	0.28880844
115	0x3daf26ea	0.08552344
116	0xbdf18817	-0.11793535
117	0xbe04cbb0	-0.12968326
118	0x3e81da4d	0.25361863
119	0x3db72aab	0.08943685
120	0x3d80f3ab	0.06296476
121	0xbe30426e	-0.17212841
122	0xbaefe927	-0.0018303738
123	0x3de30e96	0.110867664
124	0xbd17f1ea	-0.03709594
125	0xbe149ce2	-0.14512971
126	0x3d8c6ff6	0.06857292
127	0x3e9313ce	0.28726047
128	0x3d3d2269	0.046175394
129	0x3e16ebf4	0.14738446
130	0x3e370b30	0.17875361
131	0xbdab4496	-0.08362691
132	0xbde0ef90	-0.10983193
133	0x3c87054d	0.01648202
134	0xbd2a39a0	-0.04155886
135	0xbdeabe87	-0.114621215
136	0x3e10c261	0.1413665
137	0x3d8b5e93	0.06805148
138	0xbdd3594b	-0.10319766
139	0xbe5ad9a0	-0.2137208
140	0x3c826e57	0.015921755
141	0xbbe5a418	-0.007008087
142	0x3df79341	0.12088633
143	0x3e2f4915	0.17117722
144	0xbdd3d4f7	-0.10343354
145	0xbdc8633f	-0.09784555
146	0x3c9e35bb	0.01931273
147	0x3e361547	0.17781554
148	0xbe254db3	-0.16142921
149	0x3df2675e	0.11836122
150	0xbd963bc3	-0.073356174
151	0x3e84f396	0.2596709
152	0xbdffb1e8	-0.12485105
153	0x3df4db54	0.11955896
154	0x3e7308ff	0.237339
155	0xbe3f6887	-0.18692218
156	0x3df39d05	0.118951835
157	0xbe0544b1	-0.13014485
158	0x3cf7c1a7	0.030243708
159	0xbdd7a389	-0.10529239
160	0xbe0b6711	-0.13613535
161	0xba73c4bd	-0.00092990306
162	0x3d5b7d2e	0.053586178
163	0xbe8a314f	-0.26990744
164	0xbe3d6d77	-0.18498789
165	0x3e639c2b	0.22227542
166	0xbe870f73	-0.26378974
167	0xbd8df7c8	-0.06932026
168	0xbdb99e03	-0.090633415
169	0xbd48067b	-0.048834305
170	0x3eb04c1f	0.34433076
171	0xbb8e8be8	-0.004350174
172	0x3dff5aab	0.124684654
173	0xbd526098	-0.05136165
174	0xbe373483	-0.17891125
175	0x3d048bdb	0.03235994
176	0x3d78b91e	0.060723417
177	0xbc99607a	-0.018722761
178	0x3e29fbfc	0.1660003
179	0xbe0aed94	-0.13567191
180	0xbd631c56	-0.055446945
181	0x3d45a62b	0.048254173
182	0x3e900835	0.2813126
183	0xbe1e6fd0	-0.1547234
184	0x3dc00009	0.09375007
185	0xbd8727f4	-0.06599417
186	0xbe6abb2f	-0.22922967
187	0xbd105259	-0.035234783
188	0xbe8301fe	-0.25587457
189	0xbe097fb1	-0.13427617
190	0x3e33b9d6	0.1755136
191	0x3e1ccf6b	0.15313499
192	0x3df16655	0.117870964
193	0xbda57780	-0.080794334
194	0xbdc1d16b	-0.094637714
195	0x3e5271ae	0.20551178
196	0x3e74ec95	0.23918374
197	0xbd8415d7	-0.06449478
198	0x3d74a371	0.059726182
199	0x3e68ce65	0.22734983
200	0x3dc9790f	0.09837543
201	0x3e02b16d	0.12762995
202	0xbdb79057	-0.089630775
203	0xbd7a153a	-0.0610554
204	0x3d658495	0.056034643
205	0xbc8c46c0	-0.01712358
206	0xbd0a497f	-0.033761498
207	0x3e2c77e5	0.16842611
208	0x3e275f9b	0.16345064
209	0xbde6e2b2	-0.112737074
210	0x3ce80f73	0.02832768
211	0xbd080dab	-0.03321616
212	0x3d0e4b40	0.034739733
213	0xbe417c72	-0.18895128
214	0xbdd1d640	-0.10245943
215	0xbdbea88a	-0.0930949
216	0x3d797253	0.060900044
217	0xbcd6e05a	-0.026230026
218	0xbe61e556	-0.22060141
219	0xbdf8d67c	-0.12150285
220	0xbe44d850	-0.19223142
221	0xbe189e93	-0.14904241
222	0xbe4bfd2e	-0.19920799
223	0x3e084db3	0.1331089
224	0x3e7aae13	0.24480467
225	0xbd006e4e	-0.031355195
226	0xbe173fc3	-0.14770417
227	0xbc8cb7c1	-0.017177464
228	0xbe5a8417	-0.21339451
229	0xbd2a82ec	-0.041628763
230	0x3e1d593a	0.15366068
231	0x3e69b9fd	0.22824855
232	0x3e105bb0	0.14097476
233	0x3d92cb68	0.07167703
234	0xbc918cf9	-0.017767416
235	0x3dae6eb1	0.085172065
236	0xbd85df54	-0.06536737
237	0x3e0c5c34	0.13707048
238	0x3e27b751	0.16378523
239	0xbe0630cb	-0.1310455
240	0x3c508ca8	0.012728848
241	0x3df9b044	0.12191823
242	0xbe0cb140	-0.1373949
243	0xbe536671	-0.20644547
244	0xbe33f7b8	-0.17574966
245	0xbe6a8eef	-0.22906087
246	0x3e33537d	0.17512317
247	0xbcbc11b8	-0.022957668
248	0x3d752cb0	0.05985707
249	0xbe5d93f1	-0.21638466
250	0xbe32d542	-0.17464164
251	0x3b9e8857	0.0048380303
252	0x3c113122	0.008861812
253	0x3e48966b	0.1958863
254	0x3bc5b099	0.006033015
255	0x3d8c557a	0.06852241

113 f4 [1, 512]
0	0x3da2724b	0.07931956
1	0x3db4561c	0.088054866
2	0x3dff1bf2	0.12456502
3	0x3d758a53	0.05994637
4	0xbd18bfa7	-0.03729215
5	0x3cc03901	0.023464682
6	0xbca77a71	-0.020444127
7	0x3d876b52	0.066122666
8	0x3cf7953a	0.030222524
9	0xbbfe0bd4	-0.007752875
10	0xbb1d97ff	-0.0024046896
11	0x3ccb813c	0.024841897
12	0x3c86111d	0.016365582
13	0x3dec6ade	0.11543821
14	0x3db8d971	0.09025849
15	0xbd15740b	-0.03648762
16	0x3d00d31c	0.03145133
17	0x3c8cfe0c	0.017210983
18	0xbcf5e9c1	-0.03001869
19	0x3c8cc9d4	0.017186083
20	0x3d57288c	0.052528903
21	0xbd3f0587	-0.04663613
22	0x3c9114c7	0.017710103
23	0x3c127002	0.008937838
24	0x3cb4e749	0.022082942
25	0xbcf9c36e	-0.030488696
26	0x3e0326fa	0.12807837
27	0x3cf2f1d9	0.029656338
28	0xb9825bea	-0.00024864014
29	0xbc9d0870	-0.019169062
30	0x3d21ee39	0.039533827
31	0x3d54421e	0.051820867
32	0xbb09c260	-0.0021020398
33	0x3d6070fa	0.054795243
34	0xbcda3bce	-0.026639845
35	0x397f76cf	0.00024362955
36	0xbca70d80	-0.02039218
37	0xbb41a1c0	-0.0029545873
38	0xbcb396f5	-0.021922568
39	0x3dd98c46	0.10622458
40	0x3d093f71	0.033507768
41	0x3d05b80c	0.032646224
42	0x3e1b0651	0.15139128
43	0x3c06384c	0.008192133
44	0xbcfa32ce	-0.030541804
45	0x3b17f944	0.0023189345
46	0xbbe75740	-0.0070599616
47	0x3ce37049	0.027763503
48	0x3d154815	0.036445696
49	0x3cb66352	0.022264156
50	0x3c1c3027	0.009532965
51	0x3d25bd6b	0.040463846
52	0xbc15633b	-0.009117897
53	0x3ca5f466	0.02025814
54	0xbe27eecc	-0.16399688
55	0x3c746472	0.014916526
56	0x3d68bf69	0.056823168
57	0x3d977ae7	0.07396489
58	0xbb40cf0a	-0.002942028
59	0xbc781686	-0.015142089
60	0x3d9578c5	0.072984256
61	0x3d2aca6b	0.041696947
62	0xbd1448c2	-0.0362022
63	0xbaf46a79	-0.0018647454
64	0x3bd6ea2e	0.006558678
65	0x3cf4adf0	0.029868096
66	0x3d848848	0.06471306
67	0x3d02989d	0.031883825
68	0xbba3b419	-0.0049958345
69	0x3d8033e1	0.06259895
70	0x3dcc7725	0.099836625
71	0x3e1aa073	0.15100269
72	0xbdb6d4bd	-0.08927295
73	0x3e2786d7	0.16360031
74	0x3d8c5e9f	0.06853985
75	0xbcfee877	-0.031116707
76	0xbdfca45a	-0.12336035
77	0xbca54ec8	-0.020179167
78	0x3e017c2a	0.12645021
79	0x3c89574e	0.016765263
80	0xbc80f052	-0.015739594
81	0x3d8fd688	0.070233405
82	0xb9fed3f7	-0.0004860458
83	0x3d7e716c	0.062119886
84	0x3d92a439	0.07160229
85	0xbd50a273	-0.050936174
86	0xbcd799cb	-0.026318451
87	0x3d402a25	0.046915192
88	0x3d8071e2	0.062717214
89	0x3c3bb0ce	0.011455728
90	0xbbd40308	-0.006470088
91	0x3d2df17f	0.042466637
92	0xbda19daf	-0.07891404
93	0xbe9e6317	-0.30934975
94	0xbcf4fa44	-0.029904492
95	0x3d0b74ff	0.034047123
96	0xbd992c03	-0.07479098
97	0x3db620a8	0.088929474
98	0xbc3d392c	-0.011549275
99	0x3ca3baa3	0.019986456
100	0x3e0f8a7d	0.14017673
101	0xbda55ca9	-0.08074314
102	0xbd766856	-0.060158096
103	0xbc3001b1	-0.010742591
104	0xbb83de8b	-0.004024332
105	0x3e083620	0.13301897
106	0x3d0e29cb	0.034707826
107	0xbd018d78	-0.031629056
108	0x3d8bd89a	0.06828423
109	0xbda44116	-0.08020227
110	0x3c847640	0.016169667
111	0xbd9b783b	-0.075912915
112	0xbd82eb5e	-0.06392549
113	0x3e11540b	0.14192216
114	0x3e1c59ce	0.15268633
115	0x3d9a300d	0.07528696
116	0x3dcfe060	0.10150218
117	0x3df3ab8f	0.118979566
118	0x3d0637a0	0.032767892
119	0xbd3c9bc3	-0.046046983
120	0x3db50227	0.08838301
121	0x3d56d332	0.052447505
122	0x3d2e2501	0.04251576
123	0xbcfd1157	-0.030892057
124	0x3d47908d	0.04872184
125	0x3e2b2d27	0.16716443
126	0x3cc37933	0.023861503
127	0xbd002b03	-0.03129102
128	0x3f7e2a4d	0.99283296
129	0x3f7909f0	0.9728079
130	0x3f7e9548	0.99446535
131	0x3f895b8e	1.0731065
132	0x3f8067f7	1.0031728
133	0x3f87756d	1.058271
134	0x3f7c84a9	0.98639923
135	0x3f81f9f7	1.0154408
136	0x3f85df2d	1.0458733
137	0x3f856a69	1.0423099
138	0x3f862518	1.048007
139	0x3f72b737	0.94810814
140	0x3f838355	1.0274454
141	0x3f86d849	1.0534755
142	0x3f8b9de8	1.0907564
143	0x3f81f521	1.0152932
144	0x3f8176f9	1.0114433
145	0x3f83e59d	1.0304447
146	0x3f841428	1.0318651
147	0x3f877f75	1.0585772
148	0x3f83c489	1.0294353
149	0x3f804dac	1.0023704
150	0x3f829aff	1.0203551
151	0x3f828f14	1.0199914
152	0x3f7fb618	0.9988723
153	0x3f82a3fe	1.0206296
154	0x3f8ad2e7	1.0845612
155	0x3f732ec2	0.9499322
156	0x3f872fb4	1.0561433
157	0x3f7d825d	0.99027044
158	0x3f83c90a	1.0295727
159	0x3f7901a3	0.9726812
160	0x3f7a31b2	0.9773208
161	0x3f6cd6c1	0.9251519
162	0x3f85f5ba	1.0465615
163	0x3f84b1da	1.0366776
164	0x3f7cb2f6	0.9871057
165	0x3f876684	1.057816
166	0x3f84c0a4	1.0371289
167	0x3f879710	1.0592976
168	0x3f7f58aa	0.99744666
169	0x3f83a676	1.0285175
170	0x3f8715eb	1.0553564
171	0x3f808a83	1.004227
172	0x3f82740a	1.0191662
173	0x3f86e417	1.0538357
174	0x3f84adec	1.0365577
175	0x3f828ca9	1.0199176
176	0x3f841a32	1.0320494
177	0x3f86c356	1.0528362
178	0x3f85e455	1.0460306
179	0x3f83e20c	1.0303359
180	0x3f843c46	1.0330894
181	0x3f7ef6d5	0.99595386
182	0x3f78e423	0.9722311
183	0x3f8193f1	1.0123273
184	0x3f86e292	1.0537894
185	0x3f80d75f	1.0065726
186	0x3f870fbb	1.0551676
187	0x3f7b6a45	0.9820903
188	0x3f81ae71	1.013136
189	0x3f80051a	1.0001557
190	0x3f7a2174	0.97707295
191	0x3f828311	1.0196248
192	0x3bcf264e	0.006321705
193	0xbd480a2e	-0.048837833
194	0x3ce96245	0.028489241
195	0x3d81912c	0.063265175
196	0x3d4d4d59	0.050122593
197	0x3d4d9794	0.050193384
198	0xbb990ca8	-0.004670698
199	0x3d77cce5	0.060498137
200	0xbca94fe6	-0.020667981
201	0x3d660db9	0.05616543
202	0xbd2f2188	-0.042756587
203	0xbd5371ae	-0.051622085
204	0xbd41710d	-0.047226954
205	0x3c9dbd1e	0.019255217
206	0xbd34defd	-0.04415797
207	0x3d390750	0.04517299
208	0xbd41c68e	-0.047308497
209	0x3cea49d1	0.028599652
210	0xbbcc02a2	-0.0062259
211	0x3bd8b087	0.0066128406
212	0xbd1ddc6c	-0.03854029
213	0xbd186a09	-0.037210498
214	0x3cfee377	0.031114323
215	0x3d64c532	0.055852123
216	0xbcea1dd2	-0.028578673
217	0xbc95f392	-0.01830462
218	0xbc7b7d6e	-0.015349729
219	0xbcca9c7a	-0.024732817
220	0xbd484f71	-0.048903886
221	0xbca4bcca	-0.020109553
222	0xbac5d214	-0.0015092515
223	0xbbc0c931	-0.005883359
224	0xbcfa6817	-0.030567212
225	0xbdbd0c90	-0.09230912
226	0x3cf3585c	0.029705219
227	0xbceb3759	-0.028712915
228	0x3c60214e	0.013679815
229	0x3cfe64d3	0.031053936
230	0xbb754f77	-0.0037431398
231	0xbd2308e9	-0.03980342
232	0x3da719f5	0.08159248
233	0xbd1ee651	-0.038793866
234	0x3cf44ea8	0.029822662
235	0x3cc032e6	0.02346177
236	0x3d0ae9ca	0.033914365
237	0xbd3477eb	-0.044059675
238	0x3cb97488	0.022638574
239	0xbd60a6c7	-0.05484655
240	0xbd10f751	-0.03539211
241	0xbb2d132e	-0.0026409137
242	0xbc38438f	-0.011246576
243	0xbd6f67d5	-0.05844863
244	0xbc5fe0d8	-0.013664447
245	0xbcf3547e	-0.029703375
246	0xbbb53b75	-0.0055307695
247	0xbc49ce53	-0.012317258
248	0x3d349033	0.04408283
249	0x3d006505	0.03134634
250	0x3cfc32ba	0.030785907
251	0xbcc1c9e4	-0.02365584
252	0xbd0c997b	-0.034326058
253	0xbbfb2ff0	-0.0076656267
254	0xbd7cf1ec	-0.061754152
255	0x3ce34787	0.027744068

action_model._discrete_distribution.branches.0.bias f4 [3]
0	0xbcbe864d	-0.023257399
1	0x3caf3108	0.021385685
2	0x3bdac3a3	0.0066761537

action_model._discrete_distribution.branches.0.weight f4 [3, 64]
0	0xbc06dfb1	-0.008232043
1	0x3c591f42	0.013252081
2	0xbd2ac634	-0.041692927
3	0x3e128ce6	0.14311561
4	0x3c9238cb	0.017849347
5	0xbd072195	-0.03299101
6	0x3d5e3374	0.05424829
7	0x3bd0e534	0.0063749794
8	0xbcf68eda	-0.030097414
9	0x3ccfc648	0.025363103
10	0x3db49b56	0.088186905
11	0x3de70c46	0.11281638
12	0xbc808469	-0.015688138
13	0xbdcfbdd4	-0.10143629
14	0x3debfa21	0.11522318
15	0x3d9e983e	0.07743882
16	0x3e1cfc54	0.1533063
17	0x3da1a775	0.07893268
18	0xbe087734	-0.13326722
19	0x3cc55a36	0.024090867
20	0x3d5fc9ad	0.054635692
21	0x3d3e3de0	0.046445727
22	0xbd953b1d	-0.072866656
23	0xbd7fb983	-0.062432777
24	0xbdbc8bd4	-0.092063576
25	0x396f598b	0.00022826174
26	0x3dd099fd	0.10185621
27	0x3dd12b87	0.1021338
28	0x3d6feea6	0.058577202
29	0xbd506652	-0.05087883
30	0x3cd6de4a	0.026229043
31	0xbcbaf8e6	-0.022823762
32	0x3cfc0b8f	0.03076723
33	0x3c5048ae	0.012712641
34	0xbdd6bb2b	-0.10484918
35	0xbd8dc1b2	-0.0692171
36	0x3dd5891a	0.10426541
37	0x3db9a8b1	0.090653785
38	0x3d1e293c	0.038613543
39	0xbcb99681	-0.022654774
40	0xbd63ba77	-0.05559775
41	0x3da0e430	0.07856023
42	0xbd945b3b	-0.07243963
43	0xbd9b8e77	-0.075955324
44	0x3d9c2795	0.07624737
45	0x3c7201e4	0.014770959
46	0x3d917d9a	0.07104035
47	0x3d512021	0.05105603
48	0x3d9110f0	0.07083309
49	0x3d6d90ab	0.057999294
50	0x3db567af	0.08857667
51	0x3c7938a1	0.015211255
52	0xbc3890c6	-0.011264985
53	0x3b88eaad	0.004178366
54	0x3deb742c	0.114967674
55	0x3df18cbb	0.1179442
56	0xbd2417cb	-0.040061753
57	0x3d040c3a	0.032238223
58	0xbc610bb9	-0.013735705
59	0xbd78e02b	-0.06076066
60	0x3df8a5f4	0.12141028
61	0x3d9555d7	0.07291763
62	0xbb3754b0	-0.0027974062
63	0x3d7d5632	0.06184978
64	0xbd7052b5	-0.058672626
65	0xbd86a61f	-0.06574654
66	0x3d0e9f1b	0.034819704
67	0xbe19af11	-0.15008189
68	0x3a93c72c	0.0011274568
69	0xbcdf570b	-0.027263185
70	0x3c9c0720	0.019046366
71	0x3db88e69	0.090115376
72	0xbd0cecd3	-0.03440554
73	0xbaf8c93b	-0.001898087
74	0xbd06c601	-0.032903675
75	0xbd44e24b	-0.048067372
76	0x3e19e095	0.15027077
77	0x3d28e0d3	0.041230034
78	0x3d040427	0.032230522
79	0x3d4499ba	0.047998168
80	0xbd68b65c	-0.056814536
81	0x3d591f2d	0.053008247
82	0x3ceb0abb	0.02869164
83	0x3c1e8df7	0.009677402
84	0xbb1bb8c2	-0.0023761247
85	0xbde7bdda	-0.11315508
86	0xbc6fed38	-0.01464396
87	0x3d8f7132	0.07004012
88	0x3c8cca89	0.01718642
89	0xbde38cf0	-0.11110866
90	0x3d1b0f82	0.037856586
91	0x3cf6094b	0.030033728
92	0xbd93b198	-0.07211608
93	0xbe90574b	-0.281916
94	0x3b78d262	0.0037967195
95	0x3d0b8bdf	0.03406894
96	0x3b746369	0.0037290698
97	0xbd2a398a	-0.04155878
98	0x3b8c285f	0.0042772735
99	0x3d565ce2	0.052334674
100	0x3be14723	0.0068749352
101	0x3d717e29	0.058958206
102	0xbd08b0f9	-0.0333719
103	0x3dff9f04	0.12481502
104	0x3e1c1169	0.15241016
105	0xbc0c101d	-0.008548764
106	0xbd3bb6c3	-0.045828592
107	0x3ddbcc39	0.10732312
108	0x39a4ecde	0.00031456997
109	0xbdabc3ce	-0.08386956
110	0x3d3ea68a	0.046545543
111	0xbc9a033e	-0.018800374
112	0x3b3ec24d	0.0029107512
113	0x3db1d63a	0.086834386
114	0xbd9d2d64	-0.07674673
115	0x3c3af9a2	0.011412056
116	0x3e0dabf4	0.13835126
117	0x3cccf077	0.025017006
118	0x3db273ef	0.08713519
119	0x3b3d7511	0.0028908888
120	0x3c5886c2	0.0132157225
121	0x3d45617e	0.04818868
122	0x3d219228	0.039446026
123	0x3d13d8a1	0.036095265
124	0x3c5d3de6	0.013503527
125	0xbdd90217	-0.10596102
126	0x3c4acb9b	0.012377645
127	0xbd8f8d84	-0.07009414
128	0x3da5f98e	0.081042394
129	0x3d8bb62c	0.06821856
130	0x3d70ad5f	0.05875909
131	0x3c88fedc	0.016723089
132	0xbd0e547a	-0.034748532
133	0x3d721f73	0.059112024
134	0xbdae16d8	-0.08500451
135	0xbdc06e27	-0.0939601
136	0x3d83c090	0.06433213
137	0xbd91297f	-0.07087993
138	0xbcca0184	-0.024658926
139	0xbd4b44a5	-0.04962601
140	0xbe0eb7a8	-0.13937247
141	0x3d53f6e5	0.05174913
142	0xbe23883a	-0.15969935
143	0xbdf73a90	-0.12071717
144	0xbdf5165d	-0.11967156
145	0xbdd4d4e2	-0.10392167
146	0x3d8d9b5f	0.069144
147	0xbd5f4ffe	-0.054519646
148	0xbd14089a	-0.036141016
149	0x3cb2aaf0	0.021810025
150	0x3d68d175	0.05684038
151	0x3c1dbdd4	0.009627778
152	0x3d31df94	0.04342611
153	0x3da0059e	0.078135714
154	0xbe1634ef	-0.1466863
155	0xbe155f45	-0.14587124
156	0x3c0d7a1a	0.008635068
157	0x3ea7f1fc	0.32801807
158	0xbd31c298	-0.04339847
159	0xbc1bad45	-0.00950176
160	0xbc79269e	-0.015206961
161	0x3c35f89a	0.0111066345
162	0x3dfcd080	0.12344456
163	0xbc59e0e4	-0.013298247
164	0xbe084027	-0.13305722
165	0xbe19a8ce	-0.150058
166	0x3cb63665	0.022242734
167	0xbd835c05	-0.06414036
168	0xbdd27175	-0.102755465
169	0xbd2e56ee	-0.04256337
170	0x3dd8c80a	0.105850294
171	0xbca1664f	-0.019702105
172	0xbd9d4889	-0.076798506
173	0x3cbf63f9	0.0233631
174	0xbddf206d	-0.108948566
175	0xbc7e390b	-0.01551653
176	0xbd848189	-0.06470019
177	0xbe212fb5	-0.15740855
178	0xbd0a92ff	-0.033831593
179	0xbd0b4819	-0.034004305
180	0xbe038396	-0.12843165
181	0xbd0fe187	-0.03512719
182	0xbe3db5fc	-0.18526453
183	0xbdbc5b81	-0.091971405
184	0x3d5164b5	0.051121432
185	0xbc7ce9b7	-0.015436581
186	0xbcd9190c	-0.026501201
187	0x3d317cdb	0.043331962
188	0xbe1fd970	-0.1561029
189	0x3cc873b3	0.024469232
190	0xbcd84559	-0.026400255
191	0x3d2d73cf	0.04234677

action_model._discrete_distribution.branches.1.bias f4 [3]
0	0x3c1b481f	0.009477644
1	0xbd0ccc28	-0.034374386
2	0x3d32a838	0.043617457

action_model._discrete_distribution.branches.1.weight f4 [3, 64]
0	0xbde5b1d8	-0.11215562
1	0x3d8f2018	0.06988543
2	0xbca9fc76	-0.020750266
3	0x3cb9cf01	0.022681715
4	0xbc2f5c5d	-0.0107031735
5	0xbcc1fcc0	-0.02368009
6	0xbb593c4c	-0.0033147512
7	0xbdd005cb	-0.10157355
8	0xbd95594e	-0.07292424
9	0xbd5c1c25	-0.05373778
10	0xbdeff243	-0.1171613
11	0x3dcbe78f	0.09956276
12	0xbd8901de	-0.06689809
13	0xbdf0298b	-0.11726674
14	0x3d150a55	0.036386807
15	0x3cddb117	0.027061982
16	0xbc2fa17a	-0.010719651
17	0x3db1e01c	0.086853236
18	0xb91892b2	-0.00014550498
19	0xbceb8a10	-0.028752357
20	0x3d7abfb2	0.06121797
21	0xbcab2cb6	-0.020895343
22	0xbd8a63f7	-0.06757348
23	0x3d6383f5	0.055545766
24	0x3de6976d	0.11259351
25	0xbd9c14f6	-0.076211855
26	0xbc195594	-0.009358782
27	0x3dcabd8c	0.098994344
28	0xbd2730d7	-0.04081806
29	0x3d0c85f2	0.034307428
30	0x3dba10e5	0.090852536
31	0xbd3518ed	-0.044213224
32	0x3c80146b	0.015634736
33	0x3e06d9c7	0.13169013
34	0x3cdac5c8	0.026705638
35	0x3d2d03e6	0.042240046
36	0x3c2f6b25	0.010706698
37	0xbd3e945c	-0.046528205
38	0xbd8579cd	-0.06517372
39	0xbd445efe	-0.047942154
40	0xbdd6eb16	-0.10494058
41	0xbd9dbfa7	-0.077025704
42	0xbbe9ea1e	-0.0071385046
43	0x3dc56c8f	0.096398465
44	0xbd0f5b20	-0.034999013
45	0x3d9b8110	0.07592976
46	0xbe34581e	-0.17611739
47	0x3cf20d73	0.029547429
48	0xbd7189b7	-0.058969226
49	0xbcbc22d8	-0.022965834
50	0x3d0784f1	0.033085767
51	0x3d15e73f	0.036597487
52	0xbdb93b6a	-0.090445355
53	0xbcf9cd02	-0.030493263
54	0x3d310df8	0.043226212
55	0x3b21e12a	0.0024700859
56	0x3de3dd80	0.11126232
57	0xbbb5dc6c	-0.005549958
58	0x3cbdff06	0.023192894
59	0xbcc40dca	-0.023932356
60	0x3dad5827	0.08464079
61	0x3cde7009	0.027153032
62	0xbd676148	-0.05648926
63	0x3d64070a	0.055670775
64	0x3dd2d5e3	0.10294702
65	0xbdf98f24	-0.12185505
66	0x3d41f280	0.047350407
67	0xbd4d4879	-0.050117943
68	0xbd12a36a	-0.035800375
69	0x3d653c09	0.055965457
70	0x3e0dbce7	0.13841592
71	0x3a66f2f5	0.0008810007
72	0x3b6ce6ce	0.0036148313
73	0xbbf8a8ff	-0.0075885053
74	0xbd8fd6a3	-0.070233606
75	0x3d97486c	0.0738686
76	0x3d10d78f	0.035361823
77	0x3d1c4026	0.038147114
78	0xbdf7c1b4	-0.12097493
79	0xbdd83fa4	-0.105590135
80	0x3d7b778c	0.061393306
81	0xbcfc9b60	-0.030835807
82	0x3dcb1234	0.09915581
83	0xbdcfe731	-0.10151518
84	0x3c9303f8	0.017946228
85	0xbc4d26fe	-0.0125215035
86	0xbae0e0bb	-0.0017156819
87	0xbd98ea46	-0.07466559
88	0xbd48b275	-0.048998315
89	0xbdbcf235	-0.09225885
90	0x3d8aa5c2	0.06769897
91	0xbe107448	-0.14106858
92	0x3d054b57	0.032542553
93	0xbc9cf5f6	-0.019160252
94	0x3dce6894	0.100785404
95	0x3cc3c56c	0.023897849
96	0x3d791905	0.060814876
97	0xbda912bc	-0.082555264
98	0x3c93fcd8	0.018064901
99	0x3cb6e88a	0.02232768
100	0x3c8ef5f1	0.017451258
101	0x3d019a04	0.03164102
102	0xbb16c65a	-0.002300641
103	0xbc84af01	-0.01619673
104	0x3c1e39ff	0.009657382
105	0x3d634b8a	0.05549196
106	0xbd484269	-0.04889146
107	0x3d635eab	0.055510204
108	0xbaa244f0	-0.0012380164
109	0x3d9a9538	0.075479925
110	0x3d7f9f10	0.062407553
111	0x3d4517bf	0.04811835
112	0xbda3c5cb	-0.079967104
113	0x3dc20c60	0.094750166
114	0x3b66f0d2	0.0035238755
115	0xbcd06418	-0.025438353
116	0x3d1fc1a8	0.039003044
117	0x3d8906f5	0.0669078
118	0xbbb66dba	-0.0055672796
119	0xbcc8355d	-0.024439508
120	0xbe0008d7	-0.12503372
121	0x3dda4e13	0.10659423
122	0xbda413b3	-0.0801157
123	0x3d8f7b1f	0.07005905
124	0xbc250c33	-0.010073709
125	0x3b978f83	0.004625262
126	0xbcebe9e4	-0.028798051
127	0xbc122ab3	-0.008921313
128	0x3cb91005	0.022590647
129	0x3d0652ba	0.032793738
130	0x3cd7fba8	0.026365116
131	0x3d0d00f7	0.03442475
132	0x3d689174	0.05677934
133	0xbd544080	-0.051819324
134	0xbdca31df	-0.098727934
135	0x3d9b184b	0.07572993
136	0x3d22d079	0.039749596
137	0x3ccbe3d0	0.024888903
138	0x3e1d2d13	0.15349226
139	0xbde3aacf	-0.111165635
140	0x3d877051	0.066132195
141	0x3da6900f	0.08132946
142	0x3d66a4ee	0.056309633
143	0x3d3c6390	0.045993388
144	0xbd6ad4ef	-0.057331976
145	0xbdee35d2	-0.11631359
146	0xbde5a107	-0.11212354
147	0x3d9c04ba	0.07618089
148	0xbda36e27	-0.07979994
149	0x3d31fbce	0.04345303
150	0x3d4aa6f3	0.04947562
151	0xbbf227e4	-0.0073900092
152	0xbd3c0e7e	-0.04591226
153	0x3e0845e8	0.13307917
154	0xbd53d413	-0.05171592
155	0x3d2c14b1	0.04201192
156	0x3c634c01	0.013873101
157	0xbd46a45e	-0.048496597
158	0xbe4e0f7f	-0.20123099
159	0x3c1d69e6	0.009607768
160	0xbda7cc75	-0.08193294
161	0xbd9097b3	-0.07060184
162	0xbcddb014	-0.0270615
163	0xbd9649a8	-0.073382676
164	0xbcb2c31d	-0.021821553
165	0x3c771ec6	0.015083021
166	0x3d8511b9	0.06497521
167	0x3dbf024c	0.0932661
168	0x3da41b47	0.08013015
169	0x3c85f711	0.016353162
170	0x3d23832a	0.03992001
171	0xbe11946c	-0.14216775
172	0x3a34a0ca	0.00068904145
173	0xbe35d7d7	-0.17758118
174	0x3e080d4d	0.13286324
175	0xbdab90d1	-0.08377231
176	0x3e0b2a5e	0.1359038
177	0xbd8009fc	-0.06251904
178	0xbc5a153e	-0.013310729
179	0xbdcfb300	-0.101415634
180	0x3d78d758	0.060752243
181	0xbd0eafce	-0.03483563
182	0xbce1dc56	-0.027570885
183	0x3c0693d9	0.008213961
184	0x3cdd90f3	0.027046656
185	0xbe06b980	-0.131567
186	0x3df0ec61	0.11763836
187	0xbd9bb518	-0.076029
188	0xbdba6617	-0.09101503
189	0xbd2c75cf	-0.04210454
190	0x3de5cfe0	0.1122129
191	0xbcb9e9e4	-0.022694536

discrete_action_output_shape f4 [1, 2]
0	0x40400000	3.0
1	0x40400000	3.0

network_body._body_endoder.seq_layers.0.bias f4 [256]
0	0xbe0ef252	-0.13959625
1	0x3d4895e7	0.048971083
2	0xbe52d9b3	-0.20590858
3	0xbe935f38	-0.28783584
4	0x3d8d4a5c	0.068989486
5	0xbdc8306a	-0.09774859
6	0x3d8760ae	0.06610237
7	0xbcb22e72	-0.021750662
8	0xbe93f713	-0.2889944
9	0xbc13fd05	-0.0090324925
10	0xbd68ec1e	-0.056865804
11	0x3dcfe7a2	0.10151602
12	0xbe91951d	-0.28434077
13	0x3cb26ab4	0.021779396
14	0x3dac785f	0.084213965
15	0xbe91b90e	-0.28461498
16	0x3d344936	0.044015132
17	0xbd90b239	-0.07065243
18	0xbd63b734	-0.055594638
19	0xbd75b2c1	-0.059984926
20	0xbdde9df4	-0.10869971
21	0xbcc444d3	-0.0239586
22	0x3d373217	0.044725504
23	0x3e1956d1	0.14974524
24	0xbdae4827	-0.08509856
25	0xbd043648	-0.03227833
26	0xbc03e5d0	-0.008050397
27	0x3d4413f0	0.047870576
28	0xbe515228	-0.20441496
29	0xbdac877a	-0.084242776
30	0xbd40049f	-0.046879407
31	0xbe0f3d4c	-0.13988227
32	0x3d72a57e	0.059239857
33	0xbdf35de3	-0.11883142
34	0xbdc20bdb	-0.094749175
35	0x3dda0fd2	0.10647549
36	0xbe51f842	-0.20504859
37	0xbd03ec33	-0.03220768
38	0xbc730bc8	-0.014834352
39	0xbdc0c7c1	-0.094131
40	0xbe36f7f4	-0.17868024
41	0xbd309b1f	-0.043116685
42	0xbd21bf30	-0.03948897
43	0xbe34b328	-0.17646468
44	0xbea66e0b	-0.3250583
45	0xbddb87b0	-0.1071924
46	0xbe408ef7	-0.18804537
47	0xbddad678	-0.10685438
48	0x3ccb0eb3	0.024787283
49	0xbd818ed7	-0.06326073
50	0x3e1b0633	0.15139084
51	0xbd42f15a	-0.047593452
52	0xbd003df4	-0.031309083
53	0xbdc6f77a	-0.09715171
54	0x3d0c642b	0.034275215
55	0xbda88213	-0.08227935
56	0xbd5f7abe	-0.054560415
57	0xbe2dd861	-0.16977073
58	0xbd914df7	-0.07094949
59	0x3d35c150	0.04437381
60	0x3d13ee49	0.03611592
61	0xbbf81a73	-0.0075715124
62	0x3c37ee53	0.0112262545
63	0xbe138231	-0.14405133
64	0xbe6b2ec5	-0.2296706
65	0xba88740e	-0.0010410564
66	0xbd8f027e	-0.06982897
67	0xbd3ec795	-0.046577055
68	0xbd193f34	-0.03741379
69	0x3c94cd0f	0.018164186
70	0xbd8db71a	-0.069196895
71	0xbe0bfda6	-0.13670978
72	0xbdf3e52e	-0.11908947
73	0xbd404951	-0.04694492
74	0xbca1845c	-0.019716434
75	0x38a480d8	7.8441284e-05
76	0xbdd4e879	-0.10395903
77	0xbd8592eb	-0.06522163
78	0xbd5116ca	-0.051047124
79	0x3cb2466e	0.0217621
80	0x3b169d5e	0.0022981982
81	0xbcf7cfe6	-0.0302505
82	0x3e382004	0.17980963
83	0x3d76f092	0.06028802
84	0xbd3845a5	-0.044988293
85	0xbcf25cce	-0.029585268
86	0x3d15c74b	0.036567014
87	0xbd4f0b5e	-0.05054795
88	0xbd24bfad	-0.04022186
89	0x3e9543ea	0.29153377
90	0xbc324af6	-0.01088213
91	0xbdbd6fde	-0.092498526
92	0xbd47e492	-0.048801966
93	0xbe70ddec	-0.23522156
94	0xbd2926e5	-0.04129686
95	0x3c19fc4c	0.009398531
96	0xbdd90e43	-0.10598423
97	0xbdbfe970	-0.093706965
98	0xbe4150d1	-0.18878485
99	0xbe29b2ba	-0.16572085
100	0xbe4ebfc1	-0.20190336
101	0xbd4e7487	-0.050404098
102	0xbdb78501	-0.08960915
103	0xbea47d42	-0.32126814
104	0xbe2273ee	-0.15864536
105	0xbd8eeb05	-0.0697842
106	0xbd501a71	-0.050806466
107	0xbd4f8fe0	-0.05067432
108	0xbe1f8022	-0.15576223
109	0xbc6beeb4	-0.014400173
110	0xbe556ad9	-0.2084154
111	0xbd0d9d5f	-0.03457391
112	0x3decc0b3	0.11560192
113	0x3d813c8b	0.06310376
114	0xbe81ddcd	-0.25364533
115	0xbe4ca7ae	-0.1998584
116	0xbce34541	-0.027742984
117	0xbd2cee57	-0.042219486
118	0x3c17e6ca	0.009271333
119	0xbe96927e	-0.2940864
120	0x3c059a94	0.00815453
121	0xbd994618	-0.074840724
122	0xbd4ec0f4	-0.050476983
123	0xbdd5b29a	-0.10434456
124	0x3d9afca5	0.07567719
125	0x3dda6ef0	0.10665691
126	0xbcaba64d	-0.020953322
127	0xbe5a92a3	-0.21345
128	0x3e16e3bd	0.14735313
129	0xbd75c682	-0.060003765
130	0xbd3b52ef	-0.04573339
131	0x3e15a359	0.14613093
132	0xbdb6bc80	-0.08922672
133	0x3d2a6167	0.041596796
134	0xbe8a4fd7	-0.27014038
135	0xbd05548f	-0.032551344
136	0xbe80b4f0	-0.25138044
137	0xbdcec6ee	-0.100965366
138	0xbdd9cfee	-0.106353626
139	0x3e04d0a3	0.12970214
140	0xbba0f794	-0.004912326
141	0xbe9d71eb	-0.30750975
142	0x3e081cd1	0.13292243
143	0xbcb402ad	-0.021973932
144	0xbe6067f8	-0.21914661
145	0xbe85d633	-0.26139984
146	0x3d51a976	0.051187
147	0x3c940b99	0.018071936
148	0xbe26e12c	-0.16296834
149	0xbe55c40e	-0.2087557
150	0xbdb880f7	-0.09008973
151	0xbc84f5df	-0.016230522
152	0xbe6bd52a	-0.23030534
153	0x3dd63212	0.10458769
154	0x3cdf11c9	0.02723016
155	0xbca3f24f	-0.020013003
156	0x3e7d9188	0.24762547
157	0xbd6b9aba	-0.057520606
158	0x3cb4bc59	0.022062467
159	0x3b364e80	0.0027817786
160	0x3cae818c	0.021302007
161	0xbd017ea1	-0.031614903
162	0xbe1a482c	-0.15066594
163	0x3de56fe3	0.11202981
164	0xbdffcd1c	-0.124902934
165	0xbdf766d9	-0.120801635
166	0xbd1a57d4	-0.037681416
167	0xbc4271a0	-0.011867911
168	0xbca1e2ac	-0.019761406
169	0xbe6b92e4	-0.23005253
170	0xbd86afcb	-0.065764986
171	0xbd940127	-0.07226782
172	0x3e02f39c	0.12788242
173	0x3e5a7b1f	0.2133603
174	0xbdac0992	-0.08400263
175	0xbcf4fd1d	-0.02990585
176	0x38a0696c	7.649031e-05
177	0x3ea609dd	0.324294
178	0xbe53adae	-0.20671722
179	0xbd60438f	-0.05475193
180	0xbd22a987	-0.039712455
181	0x3d5f6f9b	0.054549795
182	0xbb995529	-0.0046793413
183	0x3e788b93	0.24271993
184	0xbca67b27	-0.020322395
185	0xbd66a5eb	-0.056310575
186	0xbe8f5c4c	-0.28000104
187	0x39cb7ce9	0.00038812243
188	0xbccbe3f9	-0.02488898
189	0x3cf69769	0.030101495
190	0x3da14040	0.07873583
191	0xbe2fbac9	-0.17161097
192	0xbd7da571	-0.061925355
193	0x3d2473d7	0.040149536
194	0xbc301868	-0.010748006
195	0xbe197901	-0.14987566
196	0xbdf0f83a	-0.117660955
197	0xbdfc0257	-0.12305134
198	0xbe7df029	-0.24798645
199	0xbb28d18f	-0.0025759672
200	0x3c90517e	0.017616984
201	0x3c4b5852	0.012411194
202	0xbea9b777	-0.33147785
203	0xbdd2fecf	-0.10302507
204	0xbe1d2870	-0.15347457
205	0xbe68a102	-0.2271767
206	0x3d914045	0.070923366
207	0x3dabe8b1	0.08393992
208	0xbe278525	-0.16359384
209	0x3d681ad1	0.0566662
210	0xbd8abc5a	-0.067742065
211	0xbe4d668e	-0.20058653
212	0xbd2b72f3	-0.04185767
213	0xbe35f2ca	-0.17768398
214	0x3de6d0ea	0.11270316
215	0xbd06746d	-0.032825876
216	0xbe2c3275	-0.16816123
217	0x3e3bc7bf	0.18337916
218	0xbe63f4b9	-0.22261323
219	0xbd6b4d2b	-0.05744664
220	0x3d0e7441	0.034778837
221	0x3a82d791	0.0009982457
222	0xbe91a9d9	-0.28449896
223	0x3d43542b	0.04768769
224	0x3a5a0224	0.0008316359
225	0xbd044f05	-0.03230192
226	0xbd6edf63	-0.058318507
227	0x399b5f0f	0.00029634728
228	0xbe1fa19e	-0.15588996
229	0x3db28fc4	0.08718827
230	0xbe0bfb80	-0.13670158
231	0xbd88bf4a	-0.066771105
232	0xbc285b81	-0.0102757225
233	0x3be4ed52	0.0069862986
234	0x3cc35857	0.023845835
235	0xbd0e331a	-0.034716703
236	0x3e292475	0.16517814
237	0xbd5c6577	-0.053807702
238	0xbc911cee	-0.01771399
239	0xbe09abba	-0.13444415
240	0xbdef3f96	-0.1168205
241	0x3c237350	0.009976223
242	0xbda69c5d	-0.08135293
243	0xbd25b4b0	-0.04045552
244	0xbe6b852f	-0.23000024
245	0xbcdb55c4	-0.026774295
246	0xbcd9ddbd	-0.02659499
247	0xbc9245eb	-0.017855605
248	0x3e5d9572	0.2163904
249	0xbe39b39d	-0.18134923
250	0xbdea497c	-0.11439797
251	0x3d1b9f38	0.03799364
252	0x3d4adaa8	0.049524933
253	0x3a780ae2	0.0009462071
254	0x3d78b58a	0.060720004
255	0x3d364be2	0.04450596

network_body._body_endoder.seq_layers.0.weight f4 [256, 4]
0	0x3e1c7d09	0.15282072
1	0xbf0e20a6	-0.5551857
2	0xbf4c7bde	-0.79876506
3	0x3e3014d1	0.17195441
4	0xbea64cc0	-0.3248043
5	0xbf5c0540	-0.8594551
6	0xbf189797	-0.5960631
7	0x3fa83865	1.314221
8	0xbf2b311c	-0.6687181
9	0x3e43b40c	0.19111651
10	0x3a95fd05	0.0011443204
11	0xbe94f6b4	-0.2909447
12	0xbe39bd79	-0.18138684
13	0xbc992f45	-0.018699298
14	0xbf507804	-0.8143313
15	0xbe921070	-0.28528166
16	0x3ee5297e	0.4475822
17	0xbe6cacc1	-0.23112775
18	0x3e9750e8	0.29553914
19	0xbf0264ec	-0.50935245
20	0xbef49150	-0.47767115
21	0x3ebb2f32	0.36559445
22	0x3f63d44e	0.88995826
23	0xbe2b4a8a	-0.16727653
24	0xbea5f496	-0.32413167
25	0xbf67ce61	-0.90549284
26	0x3f1695dd	0.58822423
27	0xbf1bb858	-0.6082816
28	0x3f597d1d	0.8495653
29	0x3dbd603c	0.09246871
30	0xbd2a78a1	-0.041618947
31	0x3e80a28b	0.2512401
32	0x3ea745e0	0.32670498
33	0xbcaf60f1	-0.02140853
34	0xbf3c677e	-0.73595417
35	0xbf851be8	-1.0399141
36	0x3f6560ed	0.8960102
37	0x3f1a6870	0.6031561
38	0xbe2cb687	-0.16866504
39	0xbb9c495d	-0.004769488
40	0xbeb9627a	-0.36207944
41	0xbf6c8436	-0.9238924
42	0xbedc4edc	-0.43028915
43	0x3e9e1e60	0.3088255
44	0x3f82e712	1.0226767
45	0xbfb60050	-1.4218845
46	0x3f54392f	0.82899755
47	0x3d5b6bab	0.053569477
48	0xbf1cb8e9	-0.6121965
49	0x3ec893ae	0.3917517
50	0xbdcda111	-0.100404866
51	0xbf3dc17e	-0.7412337
52	0xbe25b95e	-0.16183993
53	0x3eb86c1f	0.3601999
54	0x3f6ff49c	0.9373262
55	0x3f105a8a	0.5638815
56	0xbdd81f44	-0.105528384
57	0x3d8a031c	0.06738874
58	0xbf3b20c3	-0.73096865
59	0x3e12a4cc	0.14320678
60	0xbf856a94	-1.042315
61	0x3e2aa067	0.16662751
62	0xbeffd7b1	-0.49969247
63	0xbf0ed07b	-0.55786866
64	0xbe285162	-0.16437295
65	0xbf604e35	-0.87619334
66	0x3f0ec63b	0.55771226
67	0x3f109657	0.564794
68	0x3eaa302c	0.33239877
69	0xbf4964da	-0.7866951
70	0xbe302c15	-0.17204316
71	0x3e02fdf6	0.12792191
72	0x3ea37a8d	0.31929436
73	0x3b45ea74	0.003019956
74	0x3ea7a987	0.32746527
75	0x3ea55c51	0.32296994
76	0x3ec5648e	0.3855328
77	0x3fc3bb72	1.5291579
78	0xbe0e9c53	-0.1392682
79	0x3f6e53ea	0.9309679
80	0xbf99bbbb	-1.2010416
81	0xbeafae82	-0.34312826
82	0x3f858f17	1.0434293
83	0xbf405ee0	-0.7514477
84	0xbe6860fe	-0.2269325
85	0xbe522b9e	-0.20524451
86	0x3e667057	0.22503792
87	0x3de1d15a	0.11026259
88	0xbd0c14b5	-0.034199435
89	0x3db3e3f9	0.08783717
90	0xbec5c3f0	-0.3862605
91	0x3e80e336	0.25173348
92	0x3f872dd1	1.0560857
93	0x3f1be7d4	0.60900617
94	0x3f04f015	0.51928836
95	0xbec8aef2	-0.39195973
96	0xbf27b54a	-0.65511
97	0x3e9ca82e	0.3059706
98	0x3fb5032e	1.4141595
99	0xbe795b4f	-0.24351238
100	0x3dab557a	0.08365913
101	0x3d835ca1	0.06414152
102	0x3e405cab	0.1878535
103	0x3f4747d1	0.7784396
104	0x3e59080b	0.21194474
105	0x3e26f266	0.16303405
106	0xbe584330	-0.2111938
107	0x3e50dab2	0.20395926
108	0x3ec1c5b0	0.37846136
109	0x3f3197e2	0.6937238
110	0x3f12476d	0.5714024
111	0xbe5ebc37	-0.21751486
112	0xbe86bbd3	-0.26315174
113	0xbe487494	-0.19575721
114	0xbfb1953f	-1.3873671
115	0xbe9cb07b	-0.30603394
116	0x3f8155f3	1.0104355
117	0xbef53387	-0.47890875
118	0xbe3d6017	-0.18493687
119	0xbf82482b	-1.0178274
120	0x3da941ce	0.082645044
121	0xbe9ed7fa	-0.31024152
122	0x3e328be6	0.1743618
123	0xbed41203	-0.41419992
124	0xbe1bb17f	-0.15204428
125	0xbf2c0098	-0.67188406
126	0xbf4c9b9c	-0.7992494
127	0xbeb7729b	-0.35829625
128	0xbccf53fa	-0.025308598
129	0x3f319295	0.6936429
130	0x3f2b95b5	0.6702531
131	0xbef30d28	-0.47470975
132	0xbe9cb93f	-0.30610082
133	0xbecfe2b9	-0.40602663
134	0xbe36dd2a	-0.17857805
135	0x3e503919	0.20334281
136	0xbd816562	-0.06318165
137	0x3f1c7aef	0.6112508
138	0xbfa0e394	-1.2569451
139	0xbecb6818	-0.39727855
140	0x3e947bd7	0.29000732
141	0xbf957027	-1.1674851
142	0x3efe56ed	0.49675694
143	0x3e3b524b	0.18293111
144	0xbe980ac0	-0.29695702
145	0xbe9f0812	-0.31060845
146	0xbe8d7406	-0.2762758
147	0xbf66651e	-0.8999804
148	0xbf3111f9	-0.6916805
149	0x3e9bc1be	0.3042125
150	0xbf9828c1	-1.1887437
151	0x3ee29407	0.4425356
152	0x3f2439b2	0.64150536
153	0xbd8a9192	-0.067660466
154	0xbf017dd7	-0.5058264
155	0x3ee0987c	0.43866336
156	0xbf301928	-0.68788385
157	0x3f142aec	0.57877994
158	0x3ee65722	0.44988352
159	0x3d481507	0.04884818
160	0x3d8aa18d	0.067690946
161	0xbe02db91	-0.1277907
162	0xbf2f2941	-0.68422323
163	0xbedf64a8	-0.43631482
164	0xbed96603	-0.4246064
165	0xbf1fbaf1	-0.62394625
166	0xbe2925f7	-0.16518389
167	0x3e9c1497	0.3048446
168	0xbf4d0fb0	-0.8010206
169	0xbe4e8cd9	-0.20170917
170	0xbd21fc03	-0.039546978
171	0x3f770a13	0.9649975
172	0xbf10f208	-0.5661931
173	0x3f237e01	0.6386414
174	0x3dfb5ced	0.122735836
175	0xbedd4a4f	-0.43220755
176	0xbec01439	-0.3751543
177	0x3da51df2	0.08062352
178	0xbf66696c	-0.9000461
179	0xbf4a50d8	-0.7902961
180	0xbeb52f77	-0.35387775
181	0x3d7b03a5	0.061282773
182	0x3f326829	0.69690186
183	0xbfb421a3	-1.4072765
184	0xbe1b782c	-0.1518256
185	0x3dcc97e2	0.09989907
186	0xbe7a0b3d	-0.2441835
187	0xbed6dc54	-0.41964972
188	0xbf29582f	-0.6615018
189	0xbe8ba722	-0.2727595
190	0x3e8a1dcc	0.26975858
191	0xbf10e2c6	-0.5659603
192	0x3f1ce812	0.6129161
193	0x3fd820e3	1.6885036
194	0xbe34684b	-0.1761791
195	0x3f406811	0.7515879
196	0xbe3f2ba5	-0.18668993
197	0xbeac7d60	-0.33689404
198	0xbf4af5ec	-0.79281497
199	0xbfa1acbd	-1.263084
200	0x3d487969	0.04894391
201	0x3cd58bc2	0.026067618
202	0xbf6d19c6	-0.9261745
203	0x3e2b3c2a	0.1672217
204	0x3f2c8f6c	0.67406344
205	0xbe9d73bb	-0.30752358
206	0xbe46b9e5	-0.1940685
207	0x3f1c85a8	0.61141443
208	0x3dc33e40	0.095333576
209	0x3cf53cb2	0.029936168
210	0x3eb07123	0.34461316
211	0x3e7c3fa0	0.24633646
212	0xbeea7192	-0.45789772
213	0x3e94cb15	0.2906119
214	0xbe33b4e7	-0.17549478
215	0xbd9695c9	-0.07352788
216	0xbe8637f1	-0.26214555
217	0x3e137827	0.14401303
218	0xbe7b8a30	-0.24564433
219	0x3e4c9407	0.19978343
220	0xbfc9f953	-1.5779213
221	0x3e8be338	0.27321792
222	0x3e82075d	0.25396243
223	0xbe0e5807	-0.13900767
224	0x3ed6e54e	0.4197182
225	0xbdc06d96	-0.09395902
226	0xbf93e516	-1.1554286
227	0x3f15ed93	0.58565634
228	0xbfaa9f6c	-1.3329902
229	0xbd8bc2d5	-0.06824271
230	0x3e87006d	0.26367512
231	0xbebccc27	-0.36874506
232	0xbe19e97a	-0.1503047
233	0x3f444045	0.7666057
234	0xbe6335ce	-0.22188494
235	0xbf107191	-0.5642329
236	0x3f54a17f	0.83058923
237	0x3d28df5d	0.04122864
238	0x3ef9ac4f	0.48764274
239	0x3f5dd8bc	0.86658835
240	0x3ea29131	0.31751397
241	0x3ec96b62	0.3933974
242	0xbf622584	-0.88338494
243	0x3eca08f0	0.39459944
244	0xbeb5c0dc	-0.35498703
245	0x3f1185e1	0.5684491
246	0xbc6a58b8	-0.014303379
247	0x3e95c991	0.29255345
248	0xbed8779c	-0.42278755
249	0xbf0da8f3	-0.5533592
250	0xbdc4d8d0	-0.09611666
251	0x3eb250ae	0.3482718
252	0xbedb98bf	-0.42889974
253	0xbe6573b7	-0.22407423
254	0xbe944524	-0.28959
255	0xbea5eec7	-0.32408735
