Assets/NewScripts/NN/ButtonGame.onnx (onnx, 422923 bytes, 9 tensors)

action_model._discrete_distribution.branches.0.bias f4 [3]
00000000: 2554 f53b 2b36 e83b 3de8 65bc
0.0074868375 0.0070865355 -0.014032421

action_model._discrete_distribution.branches.0.weight f4 [3, 256]
00000000: f8e4 fbbb 2194 41bc 5e2a 2dba 9dc1 27bc
00000010: 0d53 483b cbed ee3c d351 64bb ff23 b83a
00000020: ccbb f2bb bb97 fd3b 9b4d 71bb 94ba 093c
00000030: 1608 d73a d9af 1cbc 309e e1bc 7ac7 423b
00000040: 7a63 473b 3d11 6bbb 6cec 69bc 207c bcbb
00000050: 9ec0 ee3a 88f1 c23b 531d 663c 664f 033c
00000060: e36d 5fbc 330a 643c 9b38 f53b 0be9 ebbb
00000070: 4ba2 3abc 94d6 0e3c 1c92 1abc 7627 573a
00000080: 98c1 c13b a01d 993b 5a89 023b 54e1 16bc
00000090: 919b b3bb ce31 1b3c 978d 6abb d8c3 513b
000000a0: f961 203b f0af ebbb e43f c23a 7d5b 87bc
000000b0: 077b 433b fa33 fabb 3a9d 52bc d482 0f3b
000000c0: 3c3d 3ebc 000d 4cbc 6167 75bb df73 9d3a
000000d0: 1e54 acbb f80a d33b 4aec 50bc d137 14bc
000000e0: f39b a53c 5318 02bd f636 a53c 0b57 85bb
000000f0: fb2e c5ba f30d 04bb 3d4a fe3b b2e1 9bb9
00000100: 730e fdbc f2b0 0abc 287b 42bc d715 bdbb
00000110: dfa0 393c 7fb1 12bc d568 303c 1090 f43a
00000120: c1a1 f538 1d9c b5bb ca17 80bb 9d85 9b3c
00000130: 32f8 38bc 64a6 c93b e836 853b c398 a13c
00000140: 38e5 00bb b5a9 f039 5c56 12ba b24c af3c
00000150: 5437 503c 553b 743b 9c4c 4a3c f1d3 85bb
00000160: 0324 693c 4b51 473b c14a c4bc c53b 833c
00000170: 49fc 32bc 6548 babb 7293 6ebc dfb0 30bb
00000180: 74ba f43c 090c 7e37 c15e a2bc f1cf 4939
00000190: 13a8 4e3b 7178 48bc 6b5a 623c f0ad 113c
000001a0: e608 df3a c1fa b0bc 4426 23bc 6bfc 853a
000001b0: 5d57 263c 1fd1 34bc 3ff6 e43b 241e 343b
000001c0: 2aee 47bc 0df8 93bc ecb1 b13b 92e8 7ebc
000001d0: 4f27 323c 1835 773b 134c 873c 578a 3bbc
000001e0: 0b18 9dbc 8434 863c 0e44 efbb 8075 c439
000001f0: f1bd afbb ad42 00ba 8720 dbbb 007e 15bc
00000200: 9c6e f03b 0283 0fbc 846f a4bb 4b34 13bc
00000210: 8daa 9f3c a4b3 9abc 4b18 023c 6b29 373c
00000220: 80f1 0bbc 6b3c 1e3c 0711 4b3c 30a8 f2bb
00000230: 98a2 3d3c c015 8b3b 1103 1bba ff2d 6abc
00000240: ed51 3d3c aa18 16bb c647 d83a 1969 67bb
00000250: 225f 02bc d6ff 38bb 43f9 e83a 0701 bcbc
00000260: 59fc 8f3b 8ff5 3bb9 b19e e5b9 aacc efbb
00000270: c55b 06bb 68e7 b4bc 4b34 fc3b 3365 36bc
00000280: 95b4 4abb 81f7 04bd 924d 2fbc 2cf5 3e3c
00000290: 757e 99bc 1b1e be3c 5b61 65bb 5a9d d63a
000002a0: 7df2 9bbc 39c4 d7bb 5356 2a3b e032 7b3b
000002b0: d188 a6bb 5902 a53b 5c2a 983b aeb9 30bc
000002c0: e285 7f3a 759f d03a 818e 43bb eb68 2e3c
000002d0: 6c05 2c3c 64cf 493c 4614 26bc 8f69 833c
000002e0: adbf 2dbc e1dd 0a3a 1ded f6bb 1fa1 d8bb
000002f0: b4df 883c 7d61 fdbb 2232 3f3c 773c 2aba
00000300: 0ab1 09bb 707b 3dbc 7955 093c be65 b8bb
00000310: e165 233c 4f4f 26bb b590 c53a 8e9f a8bc
00000320: df18 4a3c 18db 2f3c 8cc4 a4b9 0570 f43b
00000330: c22b 1b3b 7793 58bc 5b3c 9cbb 5f18 0b3c
00000340: a2b8 09bb 6902 443c 224e 18bb 7222 483c
00000350: 350c 69bb 6c51 11bc d272 73bc 66e1 93bb
00000360: 4fa4 c9bb 26fc c33b 940c 53bb 2748 64bb
00000370: f702 1f3c 31b8 423c a946 343c adad bebb
00000380: 7596 9e3c 2ed8 4abb 06cb 853c 6491 95bc
00000390: d5b8 663b 5325 ecbc c106 f5bb d1db 8b3c
000003a0: d737 3e3b b69e 363b d9c0 49bc bc8d b6bc
000003b0: 3c3a a4ba 16af fe3c 742f 0d3c eb3a 16bb
000003c0: b144 c73b 82ea 243a 813d 1e3c af11 76bc
000003d0: 4934 973c 9d8b 3d3c 0f83 a63a 850c fabb
000003e0: 081c b53c c11b 293c 2876 08bb feee a9bb
000003f0: eba7 0f3c cacc 7a3c f07c e23a a4a4 843c
-0.0076872073 -0.011815102 -0.00066057395 -0.010239032 0.003056708 0.029166123 -0.003483881 0.0014048814
-0.007407641 0.007739035 -0.0036819938 0.0084063 0.0016405608 -0.00956341 -0.02754125 0.0029720948
0.0030424283 -0.003586843 -0.014277559 -0.0057521015 0.0018215363 0.005949203 0.014045077 0.0080145355
-0.013637039 0.013918447 0.0074835545 -0.0071994117 -0.011391233 0.008718152 -0.009434249 0.0008207479
0.0059129708 0.004672721 0.0019918294 -0.009208996 -0.0054811914 0.009472324 -0.003578996 0.00320076
0.0024472459 -0.0071926042 0.0014820066 -0.016523117 0.0029827969 -0.0076355906 -0.012854869 0.0021898048
-0.011611279 -0.012454271 -0.0037445652 0.0012012682 -0.005259051 0.0064405166 -0.012751648 -0.009046511
0.020215964 -0.03176148 0.020167809 -0.004069214 -0.0015043908 -0.0020149916 0.0077603147 -0.0002973206
-0.030890679 -0.008465039 -0.011870183 -0.005770426 0.011329859 -0.008953451 0.010767181 0.0018658657
0.000117126394 -0.005542292 -0.003909086 0.01898461 -0.011289643 0.0061538685 0.004065383 0.019726163
-0.0019667875 0.0004590281 -0.00055823266 0.021398876 0.012708504 0.003726681 0.012347367 -0.0040841033
0.014229777 0.0030413445 -0.023961427 0.016019711 -0.010924407 -0.0056848996 -0.014561521 -0.0026960892
0.029874064 1.5142382e-05 -0.019820573 0.00019246318 0.0031533286 -0.012235747 0.013815503 0.008891568
0.0017016202 -0.021603944 -0.009957854 0.0010222321 0.010152665 -0.0110361865 0.0069873626 0.0027483786
-0.012202779 -0.018062616 0.0054228213 -0.015558379 0.01087363 0.0037720855 0.016515767 -0.011446557
-0.019176504 0.016382463 -0.007301814 0.00037471578 -0.005363219 -0.0004892748 -0.006687227 -0.009124279
0.0073374044 -0.008759262 -0.0050181765 -0.008984636 0.019490505 -0.018884487 0.007940362 0.011179308
-0.008541465 0.009657959 0.012394196 -0.0074053034 0.01157441 0.004244536 -0.00059132377 -0.014293193
0.011555177 -0.0022902885 0.0016500882 -0.0035310446 -0.007957252 -0.0028228662 0.0017774481 -0.022949709
0.004394096 -0.00017925187 -0.00043796518 -0.007318099 -0.0020501476 -0.022083 0.0076966635 -0.011132526
-0.003093039 -0.0324626 -0.010699647 0.011655133 -0.018737057 0.023207715 -0.0035000655 0.0016373799
-0.019036526 -0.006584671 0.0025991395 0.0038329884 -0.0050822278 0.0050356803 0.0046437215 -0.010786457
0.0009747428 0.0015916663 -0.0029839578 0.010645132 0.01049934 0.012317512 -0.0101366695 0.016041545
-0.010604781 0.0005297345 -0.0075355903 -0.006611004 0.016708232 -0.007732569 0.011669667 -0.00064939953
-0.0021010065 -0.011565074 0.008382195 -0.005627363 0.00997302 -0.0025376861 0.0015073033 -0.020583894
0.012335031 0.010733388 -0.00031426956 0.007459643 0.0023677205 -0.013218752 -0.004767937 0.008489697
-0.002101459 0.011963465 -0.002323993 0.012215244 -0.0035560254 -0.00886951 -0.014858918 -0.0045129536
-0.0061536203 0.005980986 -0.0032203542 -0.0034833045 0.009705297 0.011884735 0.011003175 -0.0058190436
0.019358853 -0.0030951607 0.01633216 -0.018257804 0.0035205383 -0.028826391 -0.007477612 0.01707259
0.0029024982 0.0027865595 -0.012314045 -0.022284381 -0.0012529562 0.031089347 0.008617271 -0.0022923301
0.0060811867 0.0006291048 0.009658218 -0.015018865 0.018457549 0.011568931 0.0012703853 -0.007630887
0.022108093 0.010321558 -0.002082238 -0.005185961 0.008768062 0.015307615 0.0017279666 0.016191788

action_model._discrete_distribution.branches.1.bias f4 [3]
00000000: d024 09bc 3322 633b 1457 903b
-0.008370593 0.0034657835 0.004404912

action_model._discrete_distribution.branches.1.weight f4 [3, 256]
00000000: 5c34 b03b b6ee 5a3c fe37 a73b 63b5 623c
00000010: de6a 57bc 4e68 563b e3bd 213c 1eef 123c
00000020: 31b1 b2bb daf2 123c 03d9 163c ef87 5bbc
00000030: 1891 0ebb de7d 703c 6404 143c 76fc 35bb
00000040: 5c11 abba 41fe 9fbb 681b 903b 958c 8d3b
00000050: 70a1 85bb 6a3b 553b a694 45bc 9de8 eebc
00000060: b1fd 603c f544 cabc 7ab9 e5b9 944c df3b
00000070: f16d 503c 0a6d a33b e995 203c a208 6bbc
00000080: 38c9 52bc ef0c dc3b c9ca 1c3a d021 1abc
00000090: dd36 b63b 5232 a3bb 004a 6b3c d179 5fbc
000000a0: 7a1c 8fbb 7f94 65bc 318b 02bc c87a c73c
000000b0: 8928 20bb 6a43 a0bb d0e0 b73c bd8f 143a
000000c0: fbe1 623c e882 10bc b8f8 93b9 462f 233a
000000d0: 49b7 803c 6678 a9bb bc85 6c3b ee4a 603c
000000e0: a0a9 d2bb 6452 a83c d8f3 e9bb 757d d93b
000000f0: aa5c cfbb 54db fcbb 4f6f 523c 0379 44bc
00000100: 57fa 3e3b 61c0 52bc 4b9a a33c 312c cdbb
00000110: c8fd bfbc 9995 4d3a b3bf a1bb 61e9 80bc
00000120: f3cc 073b d3b8 86bc 2bac cb3b 5c15 b33c
00000130: 01e7 b33c f226 92ba 0a95 8f3b a44c 8dbc
00000140: 26ea 9fbb 3c3d 1ebc b474 b33a 883f 2dbb
00000150: b5cd 6ebc a102 0abc 2fc4 8dbc fbfd 703c
00000160: 9d4b 173c a5b8 2bbb f2c1 373c 25ea 56b8
00000170: 920c 35ba 5e92 bd3a 0725 233c 54e2 e83b
00000180: e7ae bcbb 02f0 f1ba 5447 ae3c 1760 583c
00000190: 74ce fabb e177 493c ad17 b83a f73d 11bc
000001a0: b926 e4bb 56f4 7a3c 02f4 27bc 1592 a83b
000001b0: 18dc 863a 502f c638 4a66 dc3b ec09 4cbb
000001c0: c2fc d43b b604 4b3b 1c27 aabb 7a62 9d3c
000001d0: 5278 243c 069e d9bb d30d 763b 06ea 183b
000001e0: a916 05bc 51f0 953a 81db f43b 338f 10bc
000001f0: 27b5 90bb e10b de3a 415b 993b 460f 2d3c
00000200: 6ba8 08bc 130c 03bc 2306 1c3c 7ec7 dcbb
00000210: 7bdc 97bc 6616 993c 2ef4 a9bc 9224 84bc
00000220: d628 6a3b 67c4 583c b80c 04bc 9cfe 363c
00000230: 7582 62bb 21a7 a3bb b17c d0bb f083 483c
00000240: 9c2f 7fbc 64f1 50bc 55d6 b23a 4051 ee3b
00000250: c912 e03b 3d7f e43b a6da 003c 65a2 313c
00000260: 6d8a ef3a c12d 1e3c f844 fdbb 1b2a 0fbc
00000270: 6932 ed3b 0ad3 4b3c 576f 1fbb a82b 71b9
00000280: 12ca 17bc 9ea5 8d3a ba24 67bb 1529 173c
00000290: 104a daba d1a0 fdbb 4e7c 09bc 63e8 7c3c
000002a0: c34d 87bb 13f4 14ba 9637 34bc 66d7 e03b
000002b0: f0a5 933c 859d d93c 84f0 95bc 3dbb b9ba
000002c0: 8559 5fbb 63f2 913c a367 b93b 4ba4 1f3a
000002d0: 9b81 8bbc d431 2fbc 60f6 8cbc 7435 56bc
000002e0: a2bb 853c 9cb8 02bc 4527 553c 42c7 0abc
000002f0: e8c2 853b c892 10bc b017 d43a 3357 a3bc
00000300: b876 18bc 33e3 9f3b 3c16 eb3b 3963 893c
00000310: f872 95bc c5a2 9dbc f593 90bc b622 1cbc
00000320: 164e 47bc 7958 2dbc a3b5 62bb d42b 13bc
00000330: f4d0 4abc 8daa 97bb 54fb 2dbc ea44 aa3b
00000340: a115 5dbb 6911 5a3b 1503 02bc 4b1b e2bb
00000350: a89a 923c 9871 34bb f48c 7dbc 21e3 d53c
00000360: f582 b6ba 5896 5dbc 7d2b 533b 4e92 df3b
00000370: 86b9 42bc 01ee 24bb f878 72bb 40ae d93b
00000380: dc5c 39bb 5920 85bb 3109 e53a 0605 4f3b
00000390: d052 ac3c ba8f 343c 1e81 3c3b 8746 1cbc
000003a0: ea0f cf3b 7790 bcbc 4c4a 1bba f431 2a3c
000003b0: 1fac 083c 9d77 4cbc b5cc 31bc 2245 9dba
000003c0: 5cf2 3b3b 1f56 2abc f7ae ffbb 69a7 b23c
000003d0: 8f02 123b 2f12 54bc da57 eebb c133 d3b9
000003e0: 3733 52bc b5d3 99bb 1f68 89bb db13 9c3b
000003f0: e321 9dbc caa7 043b 7bbc 1a3a 82a0 b4ba
0.0053773355 0.013362577 0.0051031103 0.013837191 -0.013148038 0.003271598 0.009871933 0.008968143
-0.005453252 0.008969033 0.009207013 -0.013399108 -0.0021753963 0.014678447 0.00903425 -0.0027768887
-0.0013051438 -0.0048826043 0.0043977983 0.004319737 -0.0040780827 0.0032536634 -0.012059366 -0.029163653
0.01373236 -0.024691084 -0.00043816474 0.0068145487 0.012721525 0.0049873637 0.009801366 -0.01434532
-0.012865357 0.006715409 0.0005981145 -0.009407476 0.0055607394 -0.004980364 0.014360905 -0.013639883
-0.0043674083 -0.014012455 -0.007967756 0.024350539 -0.0024438223 -0.004890849 0.022446066 0.00056671706
0.013847823 -0.008820273 -0.00028223335 0.0006225001 0.015712397 -0.0051718233 0.0036090454 0.01368974
-0.0064289123 0.0205471 -0.007139664 0.00663727 -0.006328185 -0.0077165756 0.012843921 -0.011991742
0.0029140913 -0.0128632495 0.019971034 -0.0062613715 -0.023436442 0.0007842421 -0.0049361824 -0.015736284
0.0020721524 -0.016445553 0.0062155924 0.02186077 0.021960737 -0.0011150523 0.0043817805 -0.01724846
-0.0048802076 -0.009658154 0.0013691396 -0.0026435573 -0.014575412 -0.008423478 -0.017305462 0.014708991
0.009234336 -0.0026202586 0.011215674 -5.123964e-05 -0.0006906475 0.0014463176 0.0099575585 0.0071070585
-0.0057581547 -0.0018458369 0.021274246 0.013206503 -0.0076540057 0.012296648 0.0014045142 -0.008864871
-0.006962624 0.015317043 -0.010251047 0.0051443675 0.0010288982 9.4501884e-05 0.006726061 -0.0031133844
0.0064998576 0.003097815 -0.0051926505 0.019211996 0.010038452 -0.0066411523 0.003754486 0.0023332848
-0.008123078 0.0011439418 0.007472456 -0.008823204 -0.0044161263 0.0016940796 0.0046800678 0.0105627235
-0.008340935 -0.007998484 0.0095229475 -0.0067376485 -0.01853775 0.018687438 -0.020746317 -0.01613072
0.0035729907 0.01323042 -0.008059673 0.011169102 -0.0034562622 -0.0049942886 -0.0063625206 0.012238488
-0.015575316 -0.0127528645 0.0013644198 0.0072728693 0.006838177 0.006973176 0.00786463 0.0108419405
0.0018275507 0.009654463 -0.007729169 -0.008738066 0.0072386754 0.012440452 -0.0024327838 -0.00022999814
-0.009264486 0.0010806804 -0.0035269693 0.009226103 -0.0016654152 -0.007740118 -0.008391453 0.015436265
-0.004129143 -0.0005682122 -0.010999581 0.006861615 0.018023461 0.026564369 -0.018303163 -0.0014170181
-0.0034080457 0.017815774 0.0056581064 0.000608985 -0.017029574 -0.010693032 -0.017207325 -0.013074268
0.016324822 -0.007978585 0.013009851 -0.008470358 0.0040820725 -0.008824058 0.0016181376 -0.01993904
-0.0093056485 0.004879379 0.0071742814 0.016770946 -0.018243298 -0.019242654 -0.017648676 -0.00952976
-0.012164613 -0.010580176 -0.0034593127 -0.008982617 -0.01237892 -0.0046284855 -0.010619003 0.0051962035
-0.0033734816 0.0033274537 -0.007935305 -0.006900226 0.017896011 -0.0027533527 -0.0154755 0.02610928
-0.0013924526 -0.013524614 0.0032221966 0.006822861 -0.011885053 -0.0025166275 -0.0036998373 0.0066430867
-0.0028284108 -0.004062694 0.0017474053 0.0031588688 0.021035582 0.011020595 0.0028763483 -0.009538299
0.006319036 -0.023018105 -0.0005923852 0.010387886 0.008341818 -0.01247969 -0.010852029 -0.0011998753
0.0028678393 -0.010396509 -0.00780284 0.021808343 0.0022279357 -0.012943788 -0.0072736563 -0.00040283616
-0.012829593 -0.004694427 -0.0041933204 0.004763109 -0.019181198 0.0020241612 0.00059027196 -0.0013780745

discrete_action_output_shape f4 [1, 2]
00000000: 0000 4040 0000 4040
3.0 3.0

network_body._body_endoder.seq_layers.0.bias f4 [256]
00000000: c938 31bc c9c2 ee3b 367c c33c 2925 25bb
00000010: 1089 683c 64f7 d63b 86bb bb3b cd76 883a
00000020: 50d4 353c 7e33 fd3b 47c0 883b 66f4 a1bb
00000030: 721f 583c 51dc 2d3c f9d2 af39 f9e4 b4ba
00000040: f0cc c63b 30c1 823b bfef f1bb e8f3 ffba
00000050: a0c9 1cbc 69c2 3bbc cc99 ea3b c4b2 7d3c
00000060: 7ade afba 8339 713c b519 253c 3611 febb
00000070: e63f 19b9 ab59 be3b 8338 843b 386a a0ba
00000080: 0046 ab3b fe90 863c 6d79 e23b d2a1 d03a
00000090: 6368 1c3a 9f97 f03b 9875 b43c a1dc 3ebc
000000a0: 9856 0c3c 4a37 4bbc 3478 11bc df6e 9a3b
000000b0: b24a 6b3c bf21 b8bb 1f76 593b 18e2 7c3c
000000c0: ad07 873c 0a78 51bc 0b1e f7bb e301 ecba
000000d0: a12c 4d3c bcf0 a13b ef3d de3a df94 cb3b
000000e0: fe2f dc3a 27e0 da3a 0301 45bb bef8 ff3b
000000f0: 58c4 1b3b a34c 513b d32a b638 88c7 75b8
00000100: b09b 88bb 8c3c 973b d3c2 c23b 440a 2b3c
00000110: 5a6f 86ba e9ed f2bc 3b78 87bc d24d 503c
00000120: 6549 afba 1322 c53a f8b7 0c3c 4ae1 2039
00000130: cfb8 863b 7927 60bb 4a56 fb3b f101 1a3c
00000140: 40ea 433b 3193 a73c 49a0 c6bb 39ad 003c
00000150: d983 873c 502e 10bc c886 9d3b 3b50 813b
00000160: 1faf 68bb fd05 343c 285b a93b c043 debb
00000170: 38e3 903b d029 7b3c 7435 acbb 2986 1abc
00000180: 1797 4cbc 0cd6 b63c 1517 53bc 791d 013a
00000190: 2dd0 cc3c 77d6 ef3b 14aa 8a3b 888a 333c
000001a0: 23c2 15bb 743f e43a ac29 493b 190e abba
000001b0: d1ad cebb 0b12 c0ba 661c 3d3c bc19 eeb9
000001c0: 41a0 ebbb 85ee 3d3c 4b70 333c 9d94 69bb
000001d0: 6031 183c 27aa 0dbc 6f78 523c 0439 733b
000001e0: 5fee e3ba d9a4 333c 666e 08bc c144 f03b
000001f0: 1808 4f3b 66e2 d83b 5358 333a b59e 133b
00000200: 7f55 8e3b fef2 293c 3660 8dba 9a3e 3a3c
00000210: a7ee 383c d644 f23b 9d0c 293c bdff 0f3c
00000220: 03ed 023c a059 f8ba 51a6 9a38 2b23 bf3b
00000230: 1c02 fc39 52a6 a23b 235f 233a 477b 67bc
00000240: d066 1ebb 2a0a 38bc 47fb 4ebb 4f88 08bc
00000250: cdd3 f23b 3ae5 3d39 88b4 73ba e076 123c
00000260: ee23 0e3c 9794 173c c223 aa3c fd18 703c
00000270: 61da 25bb 78af 06bb 6fcc 9aba 2b0f 053b
00000280: 722f d33b fc14 2a3b cefc 853c 93a2 e93a
00000290: d99a 2d3c d48d 84bc 940f 81bb 04a7 1c3b
000002a0: 7cdb 343c 9c37 01bc 3eba ba3c 71b6 50bb
000002b0: 7bb2 e93b 88a4 dd3a 6707 da3b f07b 9cbb
000002c0: 5c8b b9ba 41b8 b7bb 5bf2 2cbb f821 6a3b
000002d0: a9f8 593c d0da 3abb 85c5 503c 621d 183c
000002e0: 4e96 923c f8f0 903c a5b9 e8ba 0d58 adba
000002f0: adfb 7dbb 1242 6c3b 7085 48bb d24f d43b
00000300: 7201 c23b b223 323c ef1a 263c 559e 203b
00000310: bf5a f23c 4b29 5bbc ffcd e8bb 289e 7f3c
00000320: 8d1a 5a3c 31e5 efba a5cc 9ebb f579 503c
00000330: 0908 0fbc c598 d33b d144 53bb 6ab5 a63b
00000340: 3ce8 0dbc a772 073b b50f a23b 85de 02bc
00000350: 0123 15bc ddec af3c b6a2 673c 7f8c 783c
00000360: 2059 b03b fa32 e63b 08f1 a33b 4a56 68bc
00000370: 62be 123b c1bf ca3c 8fd1 e43b 72d7 223b
00000380: 64e0 1a3c a16e 723b 4eac 3cbc 4865 f43a
00000390: 8f17 e73a 23bd 253c 9dd3 6b3b 58bb bdbb
000003a0: 99fb ccbb ec2b e9bb 3f86 233b 1f57 d9ba
000003b0: e2c9 a93b 54c8 253c fcf8 0bbb 1539 be3c
000003c0: 31aa 4d3c 407c 923c fdea d2bc c0f4 a0bb
000003d0: 8c80 8a3b 38f2 0dbc 016c bf3c e64c 6a3b
000003e0: 6f03 153c 710b 82bb 549e 6d3c b9e8 393b
000003f0: d67c 573c 917e 66bb 3501 8f3b 1b77 33bc
-0.010816761 0.007286404 0.02386294 -0.002519915 0.0141928345 0.006560253 0.0057291416 0.0010411382
0.0110979825 0.0077270856 0.004173312 -0.0049424646 0.013191091 0.01061161 0.00033535788 -0.0013801149
0.006066911 0.003990315 -0.0073833163 -0.0019527646 -0.0095695555 -0.011459925 0.0071594473 0.015484516
-0.0013417744 0.0147231845 0.01007693 -0.0077535165 -0.00014615021 0.005809029 0.004035057 -0.0012238687
0.0052268505 0.01642656 0.0069114477 0.0015917367 0.00059664826 0.0073422934 0.02202873 -0.011649282
0.008565567 -0.012403319 -0.008878756 0.004712924 0.0143610705 -0.005619257 0.0033181978 0.015434764
0.016483152 -0.012784967 -0.007541423 -0.0018005933 0.012522847 0.004942028 0.0016955714 0.006212815
0.0016798971 0.0016698883 -0.0030060417 0.007811635 0.0023768153 0.0031936548 8.686413e-05 -5.859838e-05
-0.00416895 0.004615372 0.005943635 0.010439459 -0.0010256574 -0.02965446 -0.016536823 0.012713866
-0.0013373314 0.0015040062 0.008588783 0.00015342716 0.0041113864 -0.0034203215 0.0076701986 0.009399877
0.0029894263 0.020455929 -0.006061588 0.0078537995 0.016542362 -0.008800104 0.004807327 0.003946332
-0.003550477 0.010987756 0.0051683374 -0.006782979 0.004421618 0.015329793 -0.0052553955 -0.0094314
-0.0124871945 0.022318862 -0.012883921 0.0004925351 0.02500161 0.0073192674 0.0042317007 0.010958321
-0.002285131 0.001741393 0.0030695004 -0.0013050466 -0.0063073416 -0.0014653815 0.011542415 -0.0004541407
-0.0071907346 0.011592512 0.010952066 -0.003564156 0.009289116 -0.0086465245 0.012846096 0.0037112841
-0.0017389766 0.010964596 -0.008327102 0.007332415 0.0031590518 0.0066187857 0.00068414694 0.0022525017
0.004343688 0.010372875 -0.0010786119 0.011367464 0.011287368 0.00739346 0.010317949 0.008789
0.007991078 -0.0018947609 7.374271e-05 0.00583305 0.00048066757 0.0049636746 0.0006232133 -0.014128513
-0.0024170168 -0.011232892 -0.0031582878 -0.00833328 0.0074105025 0.00018109838 -0.00092966156 0.008939475
0.0086755585 0.009251735 0.020769004 0.014654395 -0.0025307166 -0.0020551365 -0.0011810194 0.002030323
0.006444865 0.002595245 0.016355898 0.001782494 0.010596001 -0.01618091 -0.0039386246 0.002390326
0.011038657 -0.007886793 0.022793885 -0.0031847025 0.0071318722 0.0016909996 0.0066537145 -0.0047755167
-0.0014155912 -0.0056066816 -0.0026389572 0.0035725813 0.013303914 -0.002851177 0.012742405 0.009284349
0.017893936 0.017693028 -0.0017755522 -0.0013225094 -0.0038754747 0.0036050123 -0.0030597113 0.006479242
0.0059205825 0.010872768 0.010138257 0.0024508436 0.029584287 -0.013376544 -0.007104635 0.015601672
0.013311994 -0.0018302557 -0.004846173 0.012724389 -0.008729943 0.0064574205 -0.0032237063 0.005087544
-0.008661326 0.0020667703 0.00494572 -0.007987623 -0.009102584 0.02147525 0.014137914 0.015170216
0.0053817183 0.00702512 0.0050030984 -0.014180729 0.002239131 0.024749639 0.006982989 0.0024847654
0.009452913 0.003699221 -0.01151569 0.0018645907 0.0017630922 0.0101158945 0.0035984286 -0.0057901554
-0.0062555787 -0.0071158316 0.0024951843 -0.001658175 0.005181537 0.010118563 -0.0021358123 0.023220578
0.012552784 0.017881513 -0.025746817 -0.004911989 0.0042267498 -0.0086637065 0.02336693 0.0035751401
0.009095057 -0.003968649 0.01450308 0.0028367473 0.013152322 -0.0035170654 0.0043641576 -0.01095369

network_body._body_endoder.seq_layers.0.weight f4 [256, 146]
00000000: 8019 303c 9873 37bd cf77 5f3d a1e9 283d
00000010: 91db 27bd 0114 1bbe 756b 753d 5239 433e
00000020: 07fb 4dbd 284c 0f3d 4adc 853d 560f cf3d
00000030: e061 e13d eed9 ae3c 2373 82bd 0007 0abd
00000040: 60a1 e63c 8551 3bbe 345e 52bc 8dd3 34bc
00000050: 30e8 313d e831 d0bc 8252 03be d376 91bd
00000060: b61c fabd cb21 993d 5373 debc 6ee2 7b3c
00000070: 5730 c8bd ef12 ac3d 5c1f a2bc 54d3 003e
00000080: ae3d 06ba 88f0 233e 9b54 6f3c 82ec 613c
00000090: 2ae1 bebc 0ff9 693d 1987 263e c394 113d
000000a0: 30a0 72bc 1581 4e3c 27ea 983d 0828 dbbd
000000b0: 9bbf 1dbd 4f10 92bd 5847 913b bd2a d53d
000000c0: 5f1f 80bd 4b1b e83c dd69 473c 1eff 38bc
000000d0: fa61 863d 59f5 513d 10bd 983d 50ef 313d
000000e0: 6cf4 a33b a5b9 c4bd 47e7 00be 5963 e4bc
000000f0: 8256 07be 2b77 9bba 967f 9b3c 8eeb c23a
00000100: cd6e 0b3d 2dad 5dbc 5ac4 77bc d7ce 4dbd
00000110: 5a8d eabd 75f0 84bd b58c d9bd bc2a e03b
00000120: 92fb a53d 4f00 223e baed 90bd 3bc1 a63d
00000130: a442 36bd 3720 53bd e6ca 2ebd c9f1 803d
00000140: 6a48 393d 1c58 893b 297b 0b3e 6ca9 ccbd
00000150: 4124 333d 333f 8b3d 9761 97bd f6cf 0ebc
00000160: 636c d6bd 84c3 cc3c 9c19 10be a49c 1c3e
00000170: d97c 06bb 4222 113c c011 273e 0bfb ee3d
00000180: 5bbb 87bd f83a f13d 9183 e939 5561 83bd
00000190: dc17 f23c fd58 2fbe c84f 66bd bd87 9ebc
000001a0: 86b5 b33b f69e cb3d 377a cc3d 25eb f9bd
000001b0: 4fb5 f9bd 599b b7bc 8a28 94bd 8df9 3fbe
000001c0: e3b5 123d e719 263c c956 52bd 9792 c93d
000001d0: 718d 6dbd 04b1 42bb 99a5 bebd f2ed bfbb
000001e0: 789e 4abd 5e19 55bd 29e9 573d db52 1bbd
000001f0: bd9e 833c b40d fb3d 975d b13d 0a5d 813d
00000200: 8911 4bbc 598b be3d 0b27 12bc da26 3f3d
00000210: 47b0 8cbb 786e 2c3e 5951 1ebd 301f 653d
00000220: 3599 543c a9e2 983d 4071 303d b269 573d
00000230: e4d7 33bd 532c 383e 3b28 003e 0536 54bc
00000240: f4e4 67bd 8238 fbbc cea6 71bc bd81 18be
00000250: 8b19 8ebd 9b1c 5ebe 55cd 79bd bdbf b6bd
00000260: bb37 2e3d 5ec6 a4bb dbd3 10be 97da 993d
00000270: 34be adbd cad6 22be 594e 85bc b401 873d
00000280: fee1 a8bc f51d 04be 9fac 8c3d 70cd 4d3c
00000290: 6954 8b3d ad3a 243d 5c83 00bd 628d 82bd
000002a0: a035 343c 0277 023d 0b50 aabd 2f13 8ebd
000002b0: 0fcf afbc da28 9abd b978 cd3d 4d2b 5d3d
000002c0: 164e e3bc 34f9 3c3b c794 e63d 8d6d 58bd
000002d0: fb0f ff3c 1c3b 813c b6de e33d c0f3 04bd
000002e0: cca7 1ebe 7734 123e f666 b93c 47c7 5e3e
000002f0: 0e38 633c 38d7 873d cbb2 d73c ab6c 143c
00000300: 4164 54bc d9e2 1ebe f23b f4bc 5d60 a43c
00000310: aba4 8b3d 0ab2 d5bd 5a64 993d b2bf 5cbd
00000320: dc95 e13c d634 0d3e a287 363d ebbb 993d
00000330: 2a2d cc3c 08b3 dcbd a0c0 933c 6df2 2e3e
00000340: 8f35 153d 8e31 4bbc c5a4 17be 011f 60bd
00000350: 7765 063e 9894 17bd b3eb 003e b604 5fbd
00000360: eda5 613c ca16 0c3e 62a3 0ebc 1983 543c
00000370: a185 8539 cc98 0cbe e8e1 803d 74ea d3bd
00000380: ee72 9dbd 25dc a83d 3dd2 d13c c8f7 1e3e
00000390: 9358 1d3e 5184 abba 81c8 39bd 31e4 373d
000003a0: c0ad 183d ee8a 4c3d eae6 7bbc 9aa6 453d
000003b0: dae1 babd 0cb6 8b3d 3cb3 053d 0075 b43d
000003c0: ef99 b8bd 557f a93d d205 8cbd 8e7a 113e
000003d0: e828 a0bd 555d b8bd 6742 d0bd 7467 76bc
000003e0: f240 dfbc 5e35 60bd 3ce0 023d 685d 3bbd
000003f0: dc81 e2bd 2fc8 fc3a 9b5f dc3d 2b56 4ebe
0.010748267 -0.044787973 0.054557618 0.04123843 -0.04098088 -0.1514435 0.059916932 0.19064835
-0.050288226 0.034984738 0.065361574 0.10110347 0.11004996 0.021344151 -0.06369617 -0.033698082
0.028153121 -0.18292816 -0.012839843 -0.011036766 0.043434322 -0.025414422 -0.12824443 -0.07102742
-0.122125074 0.074771486 -0.0271546 0.015373809 -0.09774845 0.08402049 -0.019790344 0.12580615
-0.00051208853 0.16009724 0.014607574 0.013789298 -0.023300726 0.057122286 0.16262473 0.03554226
-0.0148086995 0.012604018 0.07466536 -0.10700995 -0.038512807 -0.07132017 0.0044335537 0.10408542
-0.062559836 0.028333327 0.012171236 -0.011291293 0.06561656 0.051259372 0.07457936 0.043441117
0.0050035026 -0.096057214 -0.12588225 -0.027879404 -0.13216594 -0.0011861076 0.018981736 0.0014871226
0.034041215 -0.013530058 -0.015122497 -0.050246086 -0.11452742 -0.06491176 -0.10622541 0.006841032
0.08104624 0.1582043 -0.07076593 0.081423245 -0.044497147 -0.051544394 -0.042673968 0.06296117
0.045235075 0.0041914117 0.136212 -0.09993252 0.043735746 0.06799164 -0.07391661 -0.008716574
-0.10469892 0.024995573 -0.14072269 0.15294129 -0.0020521192 0.008858265 0.16315365 0.116689764
-0.06627532 0.117788255 0.00044539248 -0.06415049 0.029552393 -0.1712379 -0.05622843 -0.019351834
0.0054842858 0.09942429 0.09984248 -0.122030534 -0.12192785 -0.022412943 -0.07234295 -0.1874754
0.035817992 0.010138012 -0.051352296 0.09842413 -0.057996217 -0.002970756 -0.09308929 -0.0058572227
-0.049467534 -0.052026145 0.052712593 -0.037920814 0.016066903 0.12258473 0.08660429 0.06316574
-0.012394317 0.09303922 -0.008920441 0.04666791 -0.004293475 0.16839015 -0.038651798 0.055937946
0.0129759805 0.07465107 0.043076754 0.052591033 -0.04390706 0.17985658 0.12515347 -0.012952332
-0.05661483 -0.030666593 -0.014749242 -0.14893241 -0.06938466 -0.216906 -0.060986836 -0.0892329
0.042533617 -0.00502853 -0.14143316 0.07512396 -0.08483544 -0.15902248 -0.01627271 0.06592122
-0.020615574 -0.12902053 0.06868862 0.012561187 0.06803209 0.04009502 -0.031375274 -0.06374623
0.010999113 0.031851776 -0.08316048 -0.06937253 -0.021461038 -0.07527323 0.10032792 0.053996373
-0.027747195 0.002883506 0.11258846 -0.05283885 0.03113555 0.015775256 0.11126463 -0.03245902
-0.15493697 0.14277826 0.022632103 0.21755706 0.013868345 0.066328466 0.026330372 0.009059112
-0.0129633555 -0.15516223 -0.02981374 0.02006548 0.06818517 -0.10434349 0.07489844 -0.053893752
0.027537279 0.13789687 0.044562943 0.07506546 0.02492388 -0.10776335 0.018036187 0.17084666
0.03642803 -0.0124019515 -0.14808948 -0.054717068 0.13124643 -0.037006944 0.12589912 -0.054447852
0.01377247 0.13680568 -0.008705946 0.012970709 0.00025467298 -0.13730162 0.06293088 -0.10347453
-0.07687937 0.08245114 0.025612945 0.15524209 0.1536582 -0.0013085698 -0.04535723 0.044895355
0.037275076 0.04993718 -0.015374878 0.048254587 -0.09125109 0.06821832 0.032641634 0.088113785
-0.090137355 0.0827624 -0.06837048 0.14206907 -0.07820302 -0.09002177 -0.10168915 -0.015039314
-0.027252648 -0.054738395 0.031952128 -0.045743376 -0.11059925 0.0019285734 0.10760423 -0.20150058

network_body._body_endoder.seq_layers.2.bias f4 [256]
00000000: 8416 403a 237d 03bc 0d12 9eba d0ce f93b
00000010: c8f5 0c3b 040e cb3b faf5 7e3a 2d6e ea3b
00000020: 9b41 953a 3f01 a6bb 5cea e13b 240d 543c
00000030: 3299 9b3b 3b8b 80bb ad7e f2bb 6d8f 77bb
00000040: 1729 fb3a 97f3 bbbb 7b60 12bb 4e4f 85bb
00000050: 4d1c 583c 99cc c5ba d15a 533b ffa2 6a3b
00000060: b69a 38bb 01ff 353b f689 ec3b 70ef 82bb
00000070: 70b6 353b 07d1 fa39 8ebd 32bb 0e9b 703a
00000080: 4ebc 3d3b 61e8 c5ba 8cb1 b43b a566 92bb
00000090: 466a ab3c 8213 4c3b 03c0 c53a 978d 483b
000000a0: 5bd5 2dbb 2da6 c53a 51ad 263c 879e 10bc
000000b0: 6c11 47bb e0ff 7e3a 58e2 9d3a a131 f73b
000000c0: 524f b23b ff69 583a dd32 de3c 48d6 0b3b
000000d0: 4e7c b339 9628 503b fede e5bb e0c6 78bb
000000e0: 3094 a63b 81b4 a23b 7ea1 5a3c 3670 e3ba
000000f0: b392 e63a b850 74bb 926d 603c 776b 543a
00000100: c148 afba 1884 0f3c 134d d7bb 182f bfbb
00000110: e5b5 6e3b 4346 79bb e2b2 233b d6c9 0a3c
00000120: 7e63 b73a 21a7 f53b e2ab 81b8 05f7 dd3a
00000130: bc56 66bb 7cbe 8f3b 2a09 eeb9 6dc7 153c
00000140: e086 f33b cb85 af3b 0aaf 3a3b ea82 323b
00000150: 3330 c93b 4005 183c aabd ee3b 9b8f 913c
00000160: 4e8c c6b9 b782 733b 5ca9 b0bb d1f9 883b
00000170: 7dec 7a3c 13b6 7ebb 0586 27bc f6e5 b5bb
00000180: 0793 c53b d679 94ba cf27 83ba 6d76 cd3b
00000190: 8140 f4ba 79bd 803c f464 2a3c beff fc3b
000001a0: d419 4bbb f782 3dbb 80df a0ba 83d7 813b
000001b0: fcd7 dcbb 98ea 2e3c 0106 cc3b c465 df3a
000001c0: 9759 a83a b22b 1bbc 28b8 2237 14bd 803b
000001d0: 6b3a 103c d6cb 5b3b 0dd8 c53b 802a 1ebb
000001e0: 85a3 e83a bd89 d93b ecf6 063b 7f47 893b
000001f0: 7c72 f23b 3966 f83a 1aff dbba 60a2 85bb
00000200: dd89 adba 55b0 c7ba 49fb a93b 5747 f53b
00000210: 3b1c c93b 86e8 02bc 42fd 273a da20 d23a
00000220: 8a40 b13b 8ef2 aa3a d392 363c afff 903b
00000230: 4616 3f3c 165f 6abc ceca 2a3b 69c2 14bb
00000240: a480 343c 28da ea3b 8dbc 70bc 3bae 9f3b
00000250: f3cf ae3b 9d26 883c d005 f63b 7f72 cf3b
00000260: 697e 643b 254f 723b d56d a1ba bbd8 c439
00000270: 717c e13b 86a2 5a3b 1647 273c aa24 863b
00000280: 81db a43b 369e 683b 5a45 e53a f466 873c
00000290: f699 e6b9 bdf7 8d3a 8b0d 003c 2a38 dd3b
000002a0: d248 163c 06f8 b43b c47c 013b c6b0 983b
000002b0: c775 08ba fd30 cb3b 04d9 8b3b 7714 553c
000002c0: e1a6 483b b652 903c 509a 5338 ee3b 293c
000002d0: 83f9 e3b9 a156 2bbb d085 35bc a499 b43b
000002e0: fab5 263b 1227 e2ba 40b9 a7bb 8d59 5cbb
000002f0: b4f4 b33a 9f0d 923b 3f67 bb3c fd1c 993a
00000300: 3d6f 203b 1599 07bc b2a1 c3bb 7c61 903b
00000310: 7bf2 8b3b 4e1a d23b c678 5f3c e13d 8d3c
00000320: b29b 9f3b e94e f63b 7e61 ca3b 82b9 793c
00000330: 069b c33b 108d 4b3b 521c 6cbb 48cd d93b
00000340: 3307 0a3c 5b0e 873b 4973 74ba e8b5 243c
00000350: 04a6 813b 9470 5f37 abaf b43a ce2d 083b
00000360: 648f c03b e29a b53b adcf df3b 71ab 863b
00000370: 2f90 3f3b b3f4 6b3c 737f cc3b 4b4a 6c3c
00000380: e3ac b4ba ae38 f23b 8921 a93b 43ac 42bb
00000390: fd09 8e3b e1fa cb3b 32eb 333a f837 643a
000003a0: 2903 35bc e0f9 0a3c 5020 2abc 1bcc f039
000003b0: 6d3a cdbb 8109 fa3b 4b10 373c 440e 25bc
000003c0: df10 a83c c91b 673b 6eba acba da8d b4bb
000003d0: 3b34 96ba c771 de3b a2ca 28bb 596a ba3a
000003e0: bb1d bbb8 240d da3a 55da 3cbb fc79 473b
000003f0: dfaf 513b e24e 053c aca2 ad38 8f3f 98b9
0.0007327574 -0.00802544 -0.0012059823 0.007623531 0.0021508802 0.006196739 0.00097259844 0.0071542473
0.001138735 -0.0050660665 0.006894393 0.012942586 0.004748487 -0.0039228476 -0.007400355 -0.0037774697
0.0019162026 -0.0057358253 -0.002233534 -0.0040682917 0.013190341 -0.0015090882 0.0032250176 0.003580272
-0.0028168387 0.0027770402 0.0072185947 -0.0039958283 0.002772715 0.00047839453 -0.0027273628 0.00091783784
0.002895135 -0.0015099162 0.0055143293 -0.0044678026 0.020924699 0.0031139557 0.0015087131 0.0030601972
-0.0026524875 0.0015079431 0.010173158 -0.008826858 -0.0030375374 0.00097274594 0.0012045605 0.007543758
0.0054415846 0.0008255541 0.027123863 0.0021337438 0.00034234155 0.0031762472 -0.007015108 -0.0037960336
0.0050835833 0.0049653654 0.013344167 -0.0017352167 0.0017591327 -0.0037279557 0.013697999 0.0008103172
-0.0013373123 0.008759521 -0.0065704673 -0.0058344714 0.0036424336 -0.0038036264 0.0024978449 0.008470973
0.0013991443 0.00749673 -6.183215e-05 0.001693458 -0.0035146913 0.004386721 -0.00045401725 0.009141785
0.00743185 0.0053565255 0.002848568 0.0027238675 0.006139779 0.009278595 0.0072857933 0.017768672
-0.00037870038 0.003715677 -0.005391283 0.004180171 0.015315172 -0.003886585 -0.010224824 -0.005551095
0.00602949 -0.0011327814 -0.0010006371 0.006270221 -0.0018634946 0.015715348 0.010400046 0.0077209165
-0.0030990737 -0.0028917172 -0.001227364 0.0039624586 -0.0067396145 0.010676049 0.0062263017 0.0017043878
0.0012844083 -0.009470867 9.69883e-06 0.00392879 0.00880299 0.0033538244 0.006037718 -0.0024134219
0.0017748928 0.006638734 0.0020593954 0.004189431 0.0073989015 0.0018951363 -0.00167844 -0.0040781945
-0.0013239939 -0.0015235046 0.005187426 0.007485311 0.0061373985 -0.007990008 0.0006408283 0.0016031519
0.005409305 0.0013042258 0.011143404 0.004425011 0.011663025 -0.014304897 0.0026060822 -0.0022698885
0.011016998 0.0071671195 -0.0146933915 0.004873065 0.005334848 0.016619975 0.007508017 0.0063307877
0.0034865385 0.0036973443 -0.0012316058 0.0003754551 0.0068812896 0.0033361032 0.010209819 0.004093726
0.0050310497 0.0035494692 0.0017491982 0.016528584 -0.00043983728 0.0010831278 0.007815729 0.00675108
0.009172635 0.0055227308 0.0019758204 0.004659745 -0.00052055385 0.006200908 0.0042678136 0.0130053675
0.0030617046 0.017617565 5.0450035e-05 0.01032923 -0.00043482715 -0.0026144164 -0.011079267 0.0055114795
0.0025438056 -0.0017254076 -0.005118519 -0.0033622712 0.0013729543 0.00445719 0.02287638 0.0011681613
0.0024480366 -0.008276244 -0.0059702033 0.0044061523 0.0042708493 0.006411827 0.0136396345 0.01724142
0.0048708552 0.007516731 0.0061761728 0.015241982 0.005969408 0.0031059422 -0.0036027622 0.006646786
0.008424568 0.0041215844 -0.000932504 0.010053135 0.003956558 1.3318047e-05 0.0013785263 0.0020779255
0.0058764685 0.005542145 0.006830177 0.004109793 0.0029230227 0.014401603 0.006240779 0.01442201
-0.0013784434 0.0073920107 0.0051614684 -0.0029704727 0.004334687 0.0062249755 0.0006863355 0.000870585
-0.011048117 0.008482426 -0.01038368 0.00045928438 -0.0062630684 0.0076305275 0.011173318 -0.010074202
0.020515857 0.0035264364 -0.0013178119 -0.005510074 -0.0011459658 0.0067884657 -0.0025755544 0.0014222368
-8.9223926e-05 0.0016635996 -0.002881666 0.0030437699 0.0031995696 0.008136483 8.279583e-05 -0.00029039054

network_body._body_endoder.seq_layers.2.weight f4 [256, 256]
00000000: ffe6 ea3d addb 883d 5f18 93bc 8d53 82bd
00000010: d166 e23d ede7 a43c f8e4 34be b9d8 82bd
00000020: 5994 073d c5de cdbc a97d 523d aa1e 5b3d
00000030: fde7 273e 6f8d 1abd 47e0 87bd 9ba7 8abd
00000040: 9631 bbbc c4e6 d13c 16fa ec3c 5b8b 6cbc
00000050: 102b a93d d391 4abd beb5 42bc bf2d 0f3d
00000060: 3e5c b43c f55f 223e fefd d0bd 14d6 f73c
00000070: 2e07 b9bd d0ea 85bc 4582 8bbc 7750 a6bc
00000080: fa2b 7f3b 8358 a23c fa40 603d 1df8 4d3d
00000090: 3c3c ecbc e66e 28bc de93 783d a44f 763a
000000a0: 48f5 d6bd 5beb 2c3d de6b 593c 5080 733c
000000b0: 1fd1 803d 6c89 9c3d 6155 a8bc 76ea af3c
000000c0: 144d c33d 979a ab3d 7efa 5cbd 4881 323d
000000d0: 25f8 99bd 81c3 853d bc39 ca3a 559c ddbd
000000e0: 8b08 d13d 4d45 da3c 132f 5e3d b76b 8dbd
000000f0: e69f 173e e714 cdbd 935a 9c3d f550 9fbd
00000100: a36a 84bc 0e23 1c3c 7b07 69bd 28af db3d
00000110: 1600 99bd 14b0 18be f3a8 f3ba d208 a2bd
00000120: 62b8 5d3d 01c9 29bd 57f5 57bd f4d3 e4bc
00000130: a389 993d ddb3 9dbd 033d 883d dfe0 9f3b
00000140: 910a c9bb 9558 cf3d a812 b3bd 40e3 d53c
00000150: 889a 88bd acb4 f03c 3386 7ebc debd 62bd
00000160: 4c3b 92bc 392f 57bd f9c4 cbbc 4d5b d63c
00000170: a1c0 9bbb 3114 bd3c 7f6b c43d 4cf9 273d
00000180: d42a fdbd fd5e 4e3d 153d ed3c b625 323e
00000190: 9276 05bb 3dd6 34bc 29e7 2b3e c013 a43d
000001a0: 6ab7 6dbb 4474 69bd fea2 23bd ddc5 5dbd
000001b0: f49a d53d 1f4a 933d e420 263b f979 bcbc
000001c0: 46e3 65bd 60dc 6e3d 1cca b23c f4e8 27bc
000001d0: b91b 103e 91fb 14bc 00ba 593d 340f 01bd
000001e0: 350e a0bc da5d cd3c 0832 223d c419 c6bd
000001f0: 2343 4e3d e2fe 0e3d a80b 0f3d 8c4f a23d
00000200: d23a b93d 030e e2bc 3898 9c3b df04 1bbc
00000210: 7e63 943c 0396 46bd c3b7 8f3d bc0d 40bd
00000220: a8b0 eb3c 9f1d c93c 943c 92bd 1b61 14bd
00000230: fd23 40bd ec62 283d 53a2 07bd 4a52 43bd
00000240: 1f4c d9bc 49b8 debd 94cc 94ba d52c 363d
00000250: 5e40 17be b6d0 1f3d 34ac e3bc 62a6 eb3c
00000260: 6d5f 86bd c8eb 8dbd e725 dbbd f9ba 15bb
00000270: 5ea3 583d 2f00 d53d 477a 33bd 49d2 f0bc
00000280: 5ed0 813a f0f7 acbc ec7d 9dbc 9e2e cf3c
00000290: bd7f c13d e643 55bd 8fb3 6bbd 1faa 6637
000002a0: 63ed acbc e3ea 023d 820d b23a 39f3 073d
000002b0: 0365 c4bc fe23 733d c8c2 8dbb e0e1 bfbc
000002c0: 8960 063d ea64 9f3d ee21 b9bc 7c47 c3bd
000002d0: 3b80 43bd 29a1 a7bb e4b3 533d 210e 23bd
000002e0: 3167 c13a 972e 9fbc 43a1 79bd f7b2 b43d
000002f0: 3ab8 153e 71f2 033c 69e5 0d3d 6cd4 53bc
00000300: 5d16 a83d cdb5 5bbc 5349 203d baa0 08be
00000310: f22f 2a3d 69fb c2bb 77e7 d8bc 2049 c1bd
00000320: 6510 9f3d d475 18be 3bba fc3c 610a bb3c
00000330: b422 213e 9014 32bd 1102 40bd d70f 17bd
00000340: 6d87 4cbc 0bb5 053c b26f 4dbc b9ef 933d
00000350: 683e 513c b3f9 a8bd e16d b5bc 10ff 95bd
00000360: 1c3c 803c 7c94 b63d 2605 eb3c f48e 803d
00000370: f604 6bbd 511d 0a3b 7bb0 073d bdde 373b
00000380: 6d9b 96bb ff5d fa3c 2283 393d 2ea7 373d
00000390: 7c0f c23c 988c dd3c 65b4 19be ae45 4dbd
000003a0: c161 18be ac37 86bd 4b7e b3bc a7e6 9bbc
000003b0: 1073 ef3c 85a3 873d ffa7 743c d8f0 d3bc
000003c0: 597f c5bd 463a cd3c 8b46 2bbd 89ae 4f3c
000003d0: 58a2 fd3d 4fbc d5bd 8757 9c3d 3714 52bc
000003e0: 1614 63bd f67d 15bd ecd5 c33c 6e58 c1bd
000003f0: ea41 2abd 1d36 12bd 947c cabd abbd 0dbe
0.1146984 0.06682525 -0.017955957 -0.06363592 0.11054767 0.020130122 -0.1766547 -0.06388993
0.03310046 -0.025130639 0.05138937 0.05349604 0.1639709 -0.037732538 -0.066345744 -0.067702495
-0.022850793 0.025622733 0.028927844 -0.014437522 0.08260167 -0.049455475 -0.011884151 0.034955736
0.02201664 0.15856917 -0.10204695 0.030253448 -0.090345725 -0.016347319 -0.01702989 -0.02030204
0.0038936124 0.019817596 0.054749466 0.050285447 -0.028837316 -0.0102803465 0.060687892 0.00093960227
-0.104960024 0.04221664 0.013270346 0.014862135 0.06289887 0.07643399 -0.020548524 0.021474104
0.09536186 0.08379095 -0.053949825 0.043580323 -0.07518033 0.0653143 0.0015428583 -0.108208336
0.102067076 0.026644373 0.054244112 -0.069053106 0.1480709 -0.100137524 0.07634463 -0.07779113
-0.01616413 0.009529842 -0.0568919 0.10726768 -0.074707195 -0.14910918 -0.001858978 -0.079118386
0.05413092 -0.041451458 -0.05272421 -0.027933098 0.07496955 -0.07700322 0.06652262 0.0048791016
-0.006135293 0.101243176 -0.08743793 0.026109338 -0.066700995 0.029383026 -0.015534925 -0.055356853
-0.01785054 -0.05253527 -0.024874197 0.026166582 -0.0047531878 0.023080917 0.09590816 0.041009232
-0.123616844 0.050383557 0.02895979 0.17397198 -0.0020364863 -0.0110374065 0.167874 0.080115795
-0.0036272653 -0.056995645 -0.039950363 -0.054143775 0.104299456 0.07191872 0.0025349194 -0.02300738
-0.056124948 0.058315635 0.021824889 -0.010248411 0.14073075 -0.009093181 0.0531559 -0.03150864
-0.019538024 0.025069166 0.039598495 -0.09672883 0.050356995 0.034911044 0.034923226 0.079253286
0.09044422 -0.027594572 0.004778888 -0.009461611 0.018113848 -0.048482906 0.07017472 -0.046888098
0.02877076 0.024550257 -0.071404606 -0.03622542 -0.04690932 0.041109964 -0.03311379 -0.0476859
-0.026525555 -0.10874993 -0.0011352473 0.04447635 -0.14770648 0.0390174 -0.027792074 0.028765861
-0.0656117 -0.06929737 -0.10700589 -0.002284704 0.052890174 0.10400426 -0.043817785 -0.029397147
0.0009904017 -0.02111432 -0.019225083 0.025290783 0.09448192 -0.052066706 -0.057544287 1.3748678e-05
-0.021109289 0.031962287 0.0013584348 0.03319094 -0.023973947 0.059360497 -0.0043261983 -0.023423135
0.032806907 0.0778292 -0.022599187 -0.09535119 -0.047729712 -0.0051156473 0.05168523 -0.039808396
0.0014755485 -0.019431395 -0.060944807 0.08823197 0.14621058 0.008053408 0.03464261 -0.012929063
0.082073905 -0.013410044 0.039132427 -0.13342562 0.04154963 -0.0059503806 -0.026477559 -0.094377756
0.07766799 -0.14888698 0.03085052 0.022832097 0.15735894 -0.04347664 -0.04687697 -0.03688034
-0.01248346 0.00816084 -0.012538837 0.07223458 0.0127712265 -0.08250751 -0.02214712 -0.0732404
0.015653662 0.0891504 0.028688978 0.06277266 -0.057377778 0.0021074603 0.03312729 0.0028056346
-0.004596165 0.030562399 0.045291074 0.04483717 0.023689024 0.02704458 -0.15010221 -0.05011528
-0.1488104 -0.06553587 -0.021910807 -0.019030882 0.02922967 0.06622986 0.0149326315 -0.02587168
-0.0964343 0.025052201 -0.041815322 0.01267589 0.1238448 -0.10436308 0.07633882 -0.012822202
-0.055439077 -0.03649708 0.023905717 -0.09440695 -0.041566767 -0.035696138 -0.09887043 -0.13841884
